results/sometest2/KartAgent/checkpoint.pt (torch, 528377 bytes, 36 tensors)

network_body._body_endoder.seq_layers.0.weight f4 [128, 35]
000000 fe 12 24 bc b5 f8 c3 3d 2f 0f a3 ba 40 19 36 bc
       -0.010014294 0.095689215 -0.0012440438 -0.0111144185
000010 18 9f 14 bd 55 db d8 3d b7 cd 73 3e 19 3d 20 bd
       -0.036284536 0.10588709 0.23808943 -0.039120767
000020 ed 86 47 3a a4 01 82 3e c5 d9 c3 bd 0b 05 80 bd
       0.0007611353 0.25391877 -0.095630206 -0.06250962
000030 8b 78 94 3d a6 28 c1 3b 97 65 e3 bd ea 02 49 3e
       0.07249554 0.0058947382 -0.11103361 0.19630018
000040 c1 2f 1b bd 1a 08 4e 3d 69 eb e1 bb 02 26 3e bc
       -0.03788734 0.050300695 -0.006894518 -0.011605741
000050 f1 eb a6 bd 61 25 36 3e b8 18 1c 3d b6 f5 87 be
       -0.08150471 0.17787696 0.03810951 -0.2655465
000060 e9 a1 bf 3d bb b0 ec 3d 9d cf 96 be ad f9 b5 3e
       0.09357054 0.11557146 -0.2945527 0.3554205
000070 9b 15 43 bc a0 ec c6 bd 1b 52 1b be 52 3d db bd
       -0.011907007 -0.097131014 -0.1516804 -0.10705055
000080 79 df 50 3d 85 6e 88 bd 1f 78 54 be 76 93 2b bd
       0.05099437 -0.06661705 -0.20748948 -0.041888677
000090 bc bc 26 be 65 ff 4d 3e 40 55 bf 3d 10 fa 55 3e
       -0.16282934 0.20116957 0.09342432 0.20896173
0000a0 45 47 61 be 58 20 54 3d 48 0f a0 bd f6 b0 8d be
       -0.21999843 0.051788658 -0.07815415 -0.27674073
0000b0 a6 a9 d2 3d cf e5 20 3e 25 25 be 3d 15 e7 47 3d
       0.10286264 0.15712665 0.092844285 0.04880436
0000c0 2c 29 7e 3d d6 56 70 3d ec 4e b4 3d fc 70 7b 3e
       0.062050983 0.058676563 0.08804116 0.24554819
0000d0 5d 9b 46 be ed 23 8b 3e a3 a8 c2 bd 1c d2 cb bd
       -0.19395204 0.27175847 -0.09504821 -0.099521846
0000e0 a8 e2 91 bc df 0a 52 3e 75 48 42 bd 2a bd d7 3d
       -0.017808273 0.2051196 -0.04743238 0.10534127
0000f0 e0 a4 c3 bd b3 ff ce bd b0 4e 32 be 1a 06 ed 3d
       -0.09552932 -0.101073645 -0.1741283 0.115734294
000100 45 1e 2a be 24 5b 52 be 65 98 14 3d af 4e 59 3e
       -0.1661311 -0.2054258 0.036278147 0.21221422
000110 91 d4 74 3c 1f ba f9 3c 25 e2 1e bd 40 2b f1 3e
       0.014943258 0.030484257 -0.038789887 0.4710331
000120 d0 9a a4 3e 8c f6 f1 bd 4c 24 f9 3d 33 85 a7 3e
       0.32149363 -0.11814603 0.12165126 0.3271881
000130 61 32 db 3c 28 37 81 bd 6f 08 94 bd 3d a5 d3 3e
       0.026757421 -0.06309348 -0.07228171 0.41337004
000140 93 b0 0f be 54 d2 9a 3c 9d 44 4c 3e 9d 4b 48 3e
       -0.14032201 0.01889912 0.19948049 0.19560094
000150 cb fe ec bd 47 b8 f7 3d 48 7e eb 3d 14 a2 ce 3d
       -0.115720354 0.12095695 0.114986956 0.10089508
000160 1f b3 8f bc 17 3a e5 3d 2d d1 42 bd 2b 24 3d 3e
       -0.017541466 0.111927204 -0.047562767 0.18470828
000170 96 67 f2 3d 5c 3a b8 3d 06 fd 4e be 28 62 f4 3d
       0.11836164 0.08995506 -0.20213708 0.11932784
000180 f1 04 82 bd 64 9c 37 3d 9f e2 46 3e 0e e7 ba 3d
       -0.06348599 0.04482688 0.19422387 0.091261014
000190 41 55 c6 3d 7e 89 b1 3d 11 17 5c bc 41 40 68 3d
       0.0968423 0.08668803 -0.013433234 0.056701902
0001a0 e3 9b 83 3d 0e 9d 7d 3e 7d 6b 3f 3e 15 39 38 3e
       0.064262174 0.24766943 0.18693347 0.17990525
0001b0 b7 96 0d bd d6 96 08 bb 1b 53 83 bd 16 be 2d 3e
       -0.03456756 -0.0020841858 -0.064123355 0.16967043
0001c0 1f 60 25 be cf 3a 6e 3d 62 8b f4 3b 4c 52 ba bd
       -0.16149949 0.058161553 0.007462905 -0.09097728
0001d0 3f 43 15 3e 42 09 c0 3e c4 b4 2c 3d c3 cd 04 be
       0.14576434 0.37507063 0.04216458 -0.12969117
0001e0 f5 bc 45 be 0d 5f 89 3e 36 35 f7 3d aa a5 a0 bd
       -0.19310363 0.2683033 0.12070696 -0.07844098
0001f0 a9 a2 26 be f7 bd ef bb 84 a3 bc 3d 8f ca 00 be
       -0.16272987 -0.0073163467 0.09210876 -0.1257727
000200 67 e5 50 3e 8a 3b f5 3d d4 6e 49 be e8 3d 80 bd
       0.2040001 0.11974247 -0.19671184 -0.06261808
000210 65 a9 7b 3e 40 56 fa bd 02 9e 75 bd 5e 5c b8 3d
       0.24576338 -0.12223482 -0.05996514 0.09001993
000220 88 8e e5 bd 8e 81 d6 bd 7f 53 41 3b ac 2b e8 b9
       -0.11208826 -0.10473929 0.002949923 -0.00044283026
000230 0e 96 39 3c e9 14 f4 bc 9f 62 14 3e 65 fd aa bd
       0.01132728 -0.029795127 0.14490746 -0.083491124
000240 8f ed a4 bd 2a 3b 3b be 27 a6 f0 bd 35 e5 07 bd
       -0.08053123 -0.18284288 -0.11750441 -0.033177573
000250 57 f8 ae be fb 0b dc 3d 53 9d 9f be 76 25 ab 3e
       -0.34173843 0.107444726 -0.31174716 0.33427018
000260 73 69 15 3e 0f 10 32 be 98 e0 2e 3d d7 e4 0c be
       0.14591007 -0.17388938 0.042694658 -0.1375917
000270 12 11 ff bb 66 73 05 3e fa 85 19 3d 81 c3 b8 bd
       -0.0077840174 0.13032302 0.037481286 -0.090216644
000280 88 17 13 3e 70 0f 0f 3e f5 9f 34 3e ea 68 b2 3d
       0.14364445 0.13970733 0.17639144 0.08711417
000290 16 ac 78 3d ec b5 ff 3d 6f 0f ca 3e fc 0e 06 3e
       0.06071099 0.12485871 0.394649 0.13091654
0002a0 b2 fb 83 be f3 2e 47 3d 3e 9d 1c bd 05 97 5a 3e
       -0.25777966 0.04862876 -0.038235895 0.21346672
0002b0 e7 96 dc 3d 2b aa 5b 3e 53 04 27 bd f2 89 04 bd
       0.1077097 0.21451633 -0.04077561 -0.032358117
0002c0 95 93 01 3e a9 73 70 3d d2 2d 3f 3c 91 38 8e be
       0.12653954 0.058704052 0.011668639 -0.27777532
0002d0 ef da 8c be 05 8d 97 3c 5d 4b 73 be 46 7b 76 be
       -0.27510783 0.01849986 -0.23759218 -0.24070463
0002e0 9b 51 bd 3d a0 7a 57 3d 4a cd c2 3d d0 bb 0a be
       0.09244081 0.05260718 0.09511812 -0.13548207
0002f0 cd ce 88 3d e8 fa 9b be 56 c2 b4 bc a1 85 51 be
       0.06680069 -0.30464864 -0.022065323 -0.20461132
000300 8c cb 7a be 7b 20 94 bc 55 0a 83 3d dc 0d 26 3e
       -0.2449171 -0.018081894 0.06398455 0.16216224
000310 7d 05 41 3e 33 5c 8f bd 4d f2 2d bc ba f7 9a bd
       0.1884975 -0.070000075 -0.010616851 -0.07566781
000320 7c 0b ab be 28 a3 aa bd 45 6d 04 3e 05 0c 86 be
       -0.334072 -0.08331901 0.12932308 -0.26181045
000330 63 c0 79 be 78 8c 0b be 75 74 a6 3d 1c b2 2a 3e
       -0.24389796 -0.13627803 0.08127681 0.16669506
000340 45 95 2e be 2a 36 06 be a5 e9 50 3d ce db 3c be
       -0.1704913 -0.131066 0.05100407 -0.18443224
000350 d1 97 97 be 9d 7c ff 3d 44 08 6c 3d 18 36 a4 bd
       -0.29608014 0.1247494 0.05762507 -0.0801813
000360 38 27 da bc ca c5 29 be 13 c4 6a be 77 ec 73 3d
       -0.02663003 -0.16579357 -0.22926359 0.059551682
000370 4c 4a 41 3e d1 88 42 be df c0 b0 3d 28 0e 9a bd
       0.18875998 -0.18997504 0.08630537 -0.07522231
000380 ad 46 da bc 97 c3 ce 3d c6 f9 ed bb 06 53 9c be
       -0.026645029 0.100958996 -0.0072624413 -0.30532092
000390 0a da 06 3d b9 d4 a9 be 3b 9c 82 bd f8 45 df bd
       0.032922782 -0.33170107 -0.06377455 -0.10902017
0003a0 d4 70 0a 3e 95 e8 ce 3d fd 81 d5 3d 40 32 09 3c
       0.13519603 0.10102955 0.10425184 0.008373797
0003b0 19 04 ac 3c 8d 2a aa bd 3e d5 3c be 80 da d2 3a
       0.020998048 -0.08308897 -0.1844072 0.0016086847
0003c0 58 a5 0b 3e 04 f8 2f 3e d6 6c 39 3c 7d 31 d0 3e
       0.13637292 0.17184454 0.011317452 0.40662757
0003d0 67 6a bc 3c 24 c2 07 3f ab 8b 3a 3e 55 08 50 3e
       0.022999955 0.5303061 0.18217342 0.20315678
0003e0 38 b6 83 3d bc d8 29 bd b4 06 69 3d 16 8e 99 3e
       0.0643124 -0.04146646 0.05689116 0.29991215
0003f0 ac 4b 96 be f1 a8 3c be 18 34 63 3e 89 09 73 bd
       -0.29354608 -0.18423821 0.22187841 -0.059335265

network_body._body_endoder.seq_layers.0.bias f4 [128]
000000 42 1c 32 b9 7e 44 12 3b 7a fd 60 b9 10 30 7c 3b
       -0.0001698593 0.0022318657 -0.00021456732 0.0038480796
000010 2f d0 54 3b 92 bf b1 3a db dd 95 3a d5 16 08 3b
       0.003247272 0.0013561121 0.0011433916 0.0020765562
000020 aa 41 8a 3b 48 5e 86 3a 8b 36 23 3b 24 c3 8f 3b
       0.0042192535 0.0010251487 0.0024904336 0.0043872762
000030 63 89 e3 ba 52 c3 42 bb 8a b2 7e bb 28 ef 6c bb
       -0.001735967 -0.002971847 -0.0038863742 -0.003615329
000040 ef b1 b8 3a 02 0f 24 bb c5 99 6f bb 9e 66 6c ba
       0.0014091114 -0.002503336 -0.003656016 -0.00090179767
000050 1b 0f 89 3b 1b 0e 48 3b d2 13 81 bb 66 55 80 bb
       0.004182709 0.0030525986 -0.0039391303 -0.0039164303
000060 18 31 a5 3b a5 18 8c bb e4 89 5b 3b fa 2b 9d 3b
       0.005041253 -0.004275399 0.0033498937 0.004796502
000070 58 37 82 3a e7 d7 87 bb 8c b6 a7 ba b3 e2 af ba
       0.0009934707 -0.0041456106 -0.0012795492 -0.0013419002
000080 a1 6c 3f bb 68 a4 30 bb 90 2d 79 3b 70 a7 94 bb
       -0.0029209035 -0.0026953463 0.0038021542 -0.0045365617
000090 f1 5b 05 ba cb e3 32 bb 14 73 6c bb 26 a1 88 3b
       -0.00050872477 -0.002729642 -0.0036079334 0.004169601
0000a0 08 41 0d 3b c5 cc 0f 3b 8e 5f 66 3b fd 9c bd bb
       0.0021553654 0.002194212 0.003515217 -0.0057865367
0000b0 48 72 82 3b 8b c8 50 bb 1f c9 79 39 2e ee 98 bb
       0.0039809085 -0.0031857814 0.00023821414 -0.004667065
0000c0 6b 63 61 bb 5f e9 1a bb ca 4a 96 bb 8d 21 37 bb
       -0.0034391533 -0.0023637635 -0.0045865523 -0.0027943582
0000d0 04 cb 17 3b 69 b9 23 3b a5 82 1d 3b f9 27 4d 3b
       0.0023161778 0.002498234 0.002403417 0.0031304343
0000e0 77 b2 89 3b dd ee 78 bb 98 6c 74 3b a0 19 6b 3b
       0.004202183 -0.003798417 0.0037296172 0.0035873428
0000f0 de c2 56 bb 9f e4 ec 38 19 72 e5 ba 82 43 2b bb
       -0.0032769958 0.00011295941 -0.0017505317 -0.0026132767
000100 dd a0 86 bb 0e 98 8d 3a fc 5f 98 3b c0 2c 5b bb
       -0.004108532 0.0010802762 0.004650114 -0.003344342
000110 1b 0b 4e bb 77 70 ff 39 99 31 42 bb 6d 67 5f 3b
       -0.0031439725 0.00048721183 -0.0029631613 0.0034088746
000120 d8 1b 69 bb 68 36 56 bb 27 a9 4a bb f5 b9 49 bb
       -0.0035569575 -0.0032686237 -0.0030923577 -0.0030781005
000130 c9 aa 3d 3b cc 60 73 bb f3 5f da ba 2d 16 84 3b
       0.0028940907 -0.0037136553 -0.0016660675 0.004030964
000140 87 70 47 bb 96 9c 7a 3b e2 39 85 b9 7e d5 8f 3b
       -0.0030432062 0.0038240305 -0.00025410863 0.004389464
000150 f4 16 45 bb a5 2a 99 bb 94 ae 8f bb 09 48 9b 3b
       -0.0030073496 -0.004674273 -0.004384825 0.004738812
000160 9e 1b 42 3b d5 6d 5b bb 8b bb 0d 3b 6b 78 77 bb
       0.0029618512 -0.0033482213 0.0021626677 -0.0037760984
000170 1a b8 48 3a 5c e6 2b bb c8 31 51 39 10 9f 77 bb
       0.0007656828 -0.0026229834 0.00019950338 -0.0037784018
000180 d8 cd 6f 3b 9f 6a 49 bb bc cf a5 3b 53 37 7d bb
       0.0036591198 -0.0030733717 0.0050601643 -0.0038637712
000190 8a f4 39 3a 26 4b 5c 3b ff 74 55 bb 1a 3a 77 bb
       0.0007093629 0.0033614128 -0.0032570956 -0.003772384
0001a0 31 92 d0 ba 41 b5 4d 3b b3 89 1f 3b 60 3d 12 3b
       -0.0015912709 0.0031388553 0.002434355 0.0022314414
0001b0 e0 0c 56 bb 1b 08 50 bb a4 f5 20 39 f2 f7 76 bb
       -0.0032661483 -0.0031743112 0.00015350297 -0.0037684408
0001c0 77 85 34 bb 2f 5f f9 3a b6 91 3f 3b fe 64 e1 39
       -0.0027545372 0.0019025559 0.0029231138 0.0004299059
0001d0 26 ec b9 ba 0d b4 de 39 58 62 5a bb 51 9f a6 3a
       -0.0014184758 0.00042477288 -0.0033322778 0.0012712275
0001e0 14 b5 ce ba f1 e2 5d 3b 17 c5 65 3b 59 7b 25 bb
       -0.0015770518 0.0033857191 0.0035060102 -0.0025250523
0001f0 0a 49 54 3b 28 8a ae 3a 87 32 57 3b 22 2e 8c 3b
       0.0032392167 0.001331632 0.0032836513 0.0042779604

network_body._body_endoder.seq_layers.2.weight f4 [128, 128]
000000 9d 77 5b 3c c6 5f d9 3d 25 48 bd bd 47 5f 55 38
       0.013395217 0.106139705 -0.09242276 5.087189e-05
000010 a6 f8 2c be 47 d8 02 be 1c a5 02 3e 59 b8 ff 3d
       -0.16891727 -0.12777816 0.12758297 0.124863334
000020 4a 00 a4 bd 12 7d 85 bd b6 be 2b bd d8 50 a4 3c
       -0.08007868 -0.06517996 -0.041929923 0.02005808
000030 8a ff 08 be ca aa 32 3d af 95 3c bd ae 67 10 bc
       -0.1337873 0.04361991 -0.046041187 -0.008813782
000040 67 c7 93 bb 17 30 e5 3d ff 76 fd bd 4b a0 1c 3d
       -0.0045098546 0.11190813 -0.12376212 0.038238805
000050 43 92 7e 3d ca a8 45 bd 0c 28 64 bd dd 5b b4 3c
       0.062151205 -0.048256673 -0.055702254 0.02201646
000060 8e 63 bb bc e3 66 20 be 49 69 77 bc 77 7d 80 bd
       -0.02287462 -0.15664248 -0.0151007855 -0.062739305
000070 d6 74 55 bc 9e 98 1b be f1 b5 0a 3e 08 0b 23 3e
       -0.013028344 -0.15194938 0.13545968 0.15922177
000080 2b 5a 47 3e 94 1e ba bc ed 89 ca bd d5 6c 56 bd
       0.1946799 -0.022719659 -0.098895885 -0.052349884
000090 6c e8 03 be 1c 8f eb 3d cb e5 96 bc 4c 5c 01 3d
       -0.1288163 0.11501905 -0.01842012 0.03158216
0000a0 dc 8f 20 3c f1 07 bb bd 9d ec 10 bd ed 86 0d bd
       0.009799924 -0.09132374 -0.035381902 -0.034552503
0000b0 9a 90 bd bd 05 78 27 bd 1b 04 96 bd 8d 3f 02 bd
       -0.09256096 -0.040885944 -0.07325002 -0.031798888
0000c0 f9 df d6 3c 48 99 dc 3c b6 af 82 3d 08 10 30 3d
       0.026229845 0.026928559 0.063811705 0.04298404
0000d0 e6 49 30 3d a3 a8 c5 bd c0 1c b5 bd 96 7a c6 bb
       0.043039225 -0.096513055 -0.08843374 -0.006057094
0000e0 24 81 3c bd 15 17 f3 3d 07 2c eb bc 9a 0a 6f be
       -0.046021596 0.11869637 -0.028707517 -0.23343888
0000f0 b6 27 b8 3d 71 ed bf 3c 12 52 e4 3d 17 f1 1b 3d
       0.08991949 0.02342865 0.11148466 0.038071718
000100 34 fe 3c be 51 d5 58 3d 62 0c 32 bc 25 cd 69 3c
       -0.18456346 0.05293781 -0.01086721 0.014270102
000110 e1 5d 01 be a6 ed 74 bc 7d b8 a3 3c 0b ac 12 3e
       -0.12633468 -0.014949238 0.019985432 0.14323442
000120 34 58 81 3d 3b 96 3b be b5 dc f6 bd 22 95 b8 3d
       0.063156515 -0.18319027 -0.12053815 0.0901282
000130 f3 d1 12 3c 2e cf 0a 3e 69 53 11 be ed 9d 16 bd
       0.008961189 0.13555595 -0.14191975 -0.036771704
000140 cb 50 2e bd d4 2c ac 3d 9e ac b4 3d 4e 0b 10 3d
       -0.04255752 0.08406988 0.088219866 0.03516703
000150 dd d7 60 bd 5b be e2 3d 29 64 ee 3d 84 20 c1 bd
       -0.054893363 0.11071464 0.11640198 -0.0943003
000160 b2 89 83 be 66 99 d5 bc 4b 14 05 3e 2e b1 dc 3b
       -0.2569099 -0.026074123 0.12996022 0.0067349887
000170 94 41 c9 3b 0d 4a d6 3c d5 dd 10 3b 8b 01 01 3b
       0.0061418507 0.026158357 0.0022104878 0.0019684758
000180 15 e4 03 be 4d 50 c0 3d 08 94 03 3e e6 6f 24 3e
       -0.12879975 0.09390316 0.12849438 0.16058311
000190 8f b7 de 3d e4 44 27 3c 47 79 01 3e 99 be 19 bc
       0.10874855 0.010209296 0.1264392 -0.009383821
0001a0 25 5d 38 3e 73 c0 34 ba 8b 72 61 bc 34 3e ee bc
       0.18004282 -0.0006895132 -0.013760219 -0.029082395
0001b0 1d 76 72 3d 77 ef 4b bc 5a a3 c7 bd 10 90 06 3d
       0.059194673 -0.01244723 -0.09747954 0.032852232
0001c0 e5 ed 1f 3d b8 c3 40 3e 29 76 bd bc 0c 98 09 be
       0.039045233 0.18824661 -0.023127632 -0.13436908
0001d0 21 a9 8d 3c 03 eb de bd 17 93 a0 bc 8f f4 24 be
       0.017292561 -0.10884669 -0.019601388 -0.16108917
0001e0 9b 14 1c be 00 c1 2c 3c f0 0c 0e b6 e0 84 c8 3c
       -0.15242235 0.010544062 -2.116718e-06 0.024477422
0001f0 f4 6b 0b 3d 94 20 19 3d a7 59 d8 bd 35 5a 26 be
       0.0340385 0.037384585 -0.10563975 -0.16245349
000200 bd d1 9d 3d cb 50 d4 3c d9 77 31 bd ec 53 a8 bd
       0.0770602 0.025917431 -0.043327186 -0.08219132
000210 c6 01 20 3d 9c 90 e5 3d 7c 98 17 be 88 ec 5c bd
       0.03906419 0.11209223 -0.14804262 -0.05393651
000220 ce 40 92 bd 17 3b f5 bd 7f 66 86 bd 50 9e 67 bd
       -0.07141267 -0.11974161 -0.06562518 -0.056547463
000230 fc 49 eb 3d da 0e bb bd 0e 25 65 be 81 ad ac bd
       0.11488721 -0.09133692 -0.22377416 -0.08431531
000240 d6 b8 0e bd 92 7a 56 bc e3 da 52 bd ce db 22 be
       -0.034844242 -0.0130907465 -0.051478278 -0.15904161
000250 42 01 a0 bb a3 08 90 bd 5a 24 d8 bd 40 b1 01 ba
       -0.0048829624 -0.07032897 -0.105538085 -0.0004947372
000260 78 79 85 bc bc e3 74 bc 01 1d 61 bd 66 9a 55 bd
       -0.016293272 -0.014946874 -0.0549593 -0.0521492
000270 92 f9 9c 3b 11 b4 e5 bd 2d d3 10 be d6 3e 41 bd
       0.0047904933 -0.112159856 -0.14143057 -0.047179066
000280 2a 6f cb bc bc 00 39 be c7 4a 0e 3e 20 1d 90 3d
       -0.02483328 -0.18066686 0.13895713 0.07036805
000290 48 cd f7 3d 89 4f 9a bd 55 07 67 3d a5 4e 07 be
       0.12099701 -0.075347014 0.056403477 -0.13213594
0002a0 51 01 36 bb d6 3c be bc 7e 7a c0 3d c0 94 92 bd
       -0.002777178 -0.023222368 0.093983635 -0.07157278
0002b0 e0 bb 08 be 61 01 cf 3d 26 a6 ae bd 6d 7d 1b be
       -0.13352919 0.10107685 -0.08527784 -0.15184565
0002c0 2c 58 78 3e 92 1d c1 bd f5 2a f4 bd d6 45 17 3d
       0.24252385 -0.09429468 -0.11922256 0.036931835
0002d0 a7 c2 48 3e a7 04 ed bd db f1 af 3d 1b 9e 76 3d
       0.19605504 -0.11573153 0.08591052 0.060209375
0002e0 a9 b1 11 bd a6 f2 b6 3d 06 9e 48 bc 99 db e8 bd
       -0.03556982 0.08933 -0.012244707 -0.1137001
0002f0 ee b4 be 3c 6c d9 c9 3b 93 0c 74 37 b3 65 10 be
       0.023279633 0.006159952 1.4546461e-05 -0.14101295
000300 e9 73 f4 bd 54 76 73 be 87 f7 d6 bc 0a 8d 17 3d
       -0.119361706 -0.23775607 -0.026241077 0.03699974
000310 c4 59 dc 3c 32 42 9a 3d 94 39 f6 3d 28 93 58 bb
       0.026898272 0.07532157 0.12022701 -0.0033046696
000320 a6 6f 29 be 4d 57 86 3d 6a bf 86 bd f5 16 4f bd
       -0.16546497 0.0655962 -0.06579478 -0.050559003
000330 f6 56 2f be 1e 78 45 3d cc e3 ff bd 86 80 3e bd
       -0.17123017 0.048210256 -0.12494621 -0.04650929
000340 dd 8d 26 bd e5 8c db bd 9c 1f 06 3e f9 2e 8e 3d
       -0.040662635 -0.10720233 0.13097996 0.06942553
000350 f2 91 bb 3a 23 93 2e bc ef 19 05 3e 82 77 28 3d
       0.0014310463 -0.010655197 0.12998174 0.041129597
000360 e1 fb 9e be 13 60 30 be b4 c6 81 bb 06 16 0e be
       -0.31051543 -0.1722415 -0.003960455 -0.13875589
000370 31 fa b1 3d 2a 94 01 bc c9 d8 09 bd 82 38 ad bb
       0.08690298 -0.00790886 -0.033654008 -0.0052862773
000380 bb b1 11 3d 22 d5 ef bc 69 d4 33 bd fb da 62 bd
       0.035569888 -0.029276434 -0.043903742 -0.055384617
000390 0d ab a3 bd 01 36 0d bd d1 2a 8d bc 95 19 50 3b
       -0.0799161 -0.03447533 -0.01723233 0.003175353
0003a0 4f d6 07 3e 72 3d d8 bd 5f eb 85 3d 85 0a 5b 3d
       0.13265346 -0.10558595 0.06539034 0.05347683
0003b0 e5 22 8f 3d 86 bc a4 3d 97 60 c5 3d f3 b3 f1 bd
       0.069890775 0.080437705 0.09637564 -0.11801901
0003c0 21 3b cf bc e8 ac ac bd 86 95 2e 3c df e2 18 bd
       -0.02529675 -0.08431417 0.010655766 -0.037325736
0003d0 d9 eb ae bd 73 6d 74 3d 73 47 c4 3d 25 c8 0f 3e
       -0.08541078 0.05967469 0.0958394 0.14041193
0003e0 6d a3 6c bc fe 93 e2 3d 20 a6 b8 3d 62 a5 32 bb
       -0.014443261 0.110633835 0.09016061 -0.002725922
0003f0 0c 8a bf 3c 3c e4 c4 bd 4a 6a 37 bd 62 82 e6 3c
       0.023381256 -0.09613845 -0.0447791 0.028138343

network_body._body_endoder.seq_layers.2.bias f4 [128]
000000 e0 b5 4e 3b 77 4b 78 3b 0d a3 56 bb c0 70 45 3b
       0.0031541511 0.0037886777 -0.0032750994 0.0030127019
000010 c0 b8 88 3b 32 8d 01 bb 71 3e 61 3b 54 ae 3d 3b
       0.0041724145 -0.0019767997 0.0034369493 0.002894302
000020 c6 80 5a 3b b1 b4 3e 3b a4 05 f4 b9 97 e0 50 3b
       0.0033340915 0.00290994 -0.0004654351 0.0031872147
000030 e4 f7 26 b9 7b 81 89 bb cc 3b 43 bb dc 91 aa bb
       -0.0001592334 -0.0041963435 -0.002979028 -0.005205376
000040 92 1f 68 bb 5d bf 2c 3b 43 29 11 bb 4a 6f 74 3b
       -0.0035419208 0.0026359179 -0.0022149838 0.0037297779
000050 2a ec 6e 3b a6 1c 5e 3b 6b c5 6b 3b 3b 45 8b bb
       0.0036456683 0.0033891588 0.0035975825 -0.0042501963
000060 ce 3c 81 bb de fe 71 3b 0e 4b 69 bb 01 da 5e 3b
       -0.003944016 0.0036925594 -0.0035597715 0.0034004452
000070 46 0a 48 bb ae 16 6f 3b 9f 56 ba b9 3a ec 75 3b
       -0.0030523702 0.0036482024 -0.00035541222 0.0037524835
000080 82 8d e5 3a 40 1f 69 3b 28 06 77 3b f5 1c 81 bb
       0.0017513486 0.0035571605 0.0037692878 -0.0039402195
000090 89 6b 79 3b b4 ed 7b 3b 59 65 55 3b db 8f 76 3b
       0.003805848 0.0038441243 0.0032561629 0.0037622366
0000a0 fe 88 72 3b a4 07 5c 3b c6 4c 72 bb 0f 6c 28 3b
       0.0037007923 0.003357389 -0.003697203 0.0025699174
0000b0 3e 7e 14 3b 8e 2b 6c bb 3b b1 77 bb 07 9a c4 ba
       0.0022658254 -0.0036036703 -0.0037794847 -0.0014999517
0000c0 24 bd 1d 3a 4f 08 4e bb 73 b7 53 bb 92 73 4a 3b
       0.0006017259 -0.0031438058 -0.003230539 0.003089164
0000d0 c7 8e 43 bb 89 47 77 3b 6e c7 ed b8 33 e1 65 bb
       -0.002983974 0.0037731847 -0.00011338187 -0.0035076856
0000e0 95 4f 53 3b ac 4d b6 39 72 92 34 bb 04 af 21 3b
       0.003224348 0.00034771615 -0.0027553109 0.0024670968
0000f0 d4 33 62 3b a3 69 7b 3b 18 77 11 bb 0b e1 c6 ba
       0.0034515755 0.0038362525 -0.002219623 -0.0015173269
000100 eb ce 8d 3a b8 0e 97 3a e7 39 85 bb 3f 37 73 3b
       0.0010819113 0.0011524772 -0.0040657404 0.0037111787
000110 76 26 7e bb 72 f9 76 bb f4 a9 5c 3b c5 3f 7f 3b
       -0.0038780249 -0.0037685302 0.0033670636 0.0038947922
000120 58 6f 99 bb ea 91 ab ba 87 6d cf ba 1a 92 43 bb
       -0.0046824627 -0.001308975 -0.0015825488 -0.0029841722
000130 a3 d3 7c bb 8c d6 61 3b 41 2f 7a 3b 92 4d 1a b9
       -0.0038578294 0.0034460155 0.0038175138 -0.00014715482
000140 38 29 4b bb 36 91 6f bb cd cc 45 bb 2d a5 71 bb
       -0.003099991 -0.0036555058 -0.0030181885 -0.0036872134
000150 a9 f3 73 3b 11 6e 7f bb 8b 17 81 bb 4e 48 48 3b
       0.003722409 -0.0038975517 -0.003939574 0.0030560675
000160 03 6f 70 3b e8 16 69 bb 97 aa 20 bb 0f d7 15 3b
       0.0036687262 -0.0035566632 -0.0024515742 0.002286378
000170 f0 d3 81 bb dd d4 aa 39 38 1f 84 bb ad 39 75 3b
       -0.0039620325 0.00032583522 -0.004032042 0.003741841
000180 56 10 6a 3b 09 33 50 3b 60 74 5b 3b 3b 51 6b 3b
       0.0035715303 0.00317687 0.0033486113 0.0035906571
000190 3e 22 73 3b 69 c7 14 3b 45 54 99 ba 2b aa d6 3a
       0.0037099267 0.0022701866 -0.0011698088 0.0016377618
0001a0 87 85 28 bb 64 3d e1 3a 5f 95 53 bb 7f 4a 74 bb
       -0.0025714354 0.0017184434 -0.0032285077 -0.0037275848
0001b0 05 dc ca 3a 98 c8 70 3b d1 27 4e 3b 8b dd 70 bb
       0.0015476948 0.0036740657 0.0031456838 -0.0036753144
0001c0 26 51 16 bb c0 0b 6b 3b 3e 89 59 3b 9b 91 15 3b
       -0.0022936552 0.0035865158 0.0033193375 0.0022822383
0001d0 e5 ab 53 3b 4d f5 20 3b 45 1b 3d bb 8a 49 7c 3b
       0.0032298502 0.0024560273 -0.0028855365 0.003849598
0001e0 14 72 82 bb 66 03 7d 3b e9 db 2a 3a 72 54 57 ba
       -0.0039808843 0.0038606762 0.00065177545 -0.00082141825
0001f0 c6 01 32 3b 95 d7 4e 3b bc c0 68 ba 65 11 6e bb
       0.0027161702 0.0031561602 -0.00088788173 -0.0036326286

action_model._continuous_distribution.log_sigma f4 [1, 2]
000000 b8 65 40 3b ee d8 71 3a
       0.0029357504 0.00092257455

action_model._continuous_distribution.mu.weight f4 [2, 128]
000000 9b 3e 8b 3a 70 d0 f5 bc 96 11 2c 3c 40 70 6d bc
       0.0010623516 -0.030006617 0.01050224 -0.0144920945
000010 92 40 f2 bb 21 44 c4 ba 62 e1 a3 bc 8d f4 be bb
       -0.0073929513 -0.0014973917 -0.020004932 -0.0058274926
000020 56 ed f9 bb 6f 22 08 bc 13 1f d1 bb 6f b3 a1 bc
       -0.0076271696 -0.008308991 -0.006381878 -0.01973888
000030 36 d2 21 3c e3 d7 c2 3c b1 7a e2 3b a3 ee 88 3c
       0.009876778 0.023784583 0.0069115986 0.016715353
000040 0f ce b6 3c 5f 3a a5 3a 08 4b 42 bb 17 2b ef bc
       0.022315053 0.0012605897 -0.0029646773 -0.029195352
000050 74 7f 03 bd 3d 88 b8 bc d8 fa 88 bc 74 db 12 3d
       -0.03210397 -0.022525901 -0.016721174 0.035853818
000060 c0 fc 50 3c d8 58 a5 bc 56 d2 82 3c 07 90 ba bc
       0.012755573 -0.020183966 0.015969437 -0.022773756
000070 aa 42 da ba de f7 da bc 37 36 80 3c 26 96 56 bc
       -0.0016651948 -0.02672952 0.015650852 -0.013097322
000080 40 9a 31 3b a9 3b 92 bc 1e d1 96 bc 14 6e 9f 3c
       0.0027099997 -0.017850714 -0.018410262 0.019461669
000090 4f 2c 56 bc 33 e1 26 bd 22 db 99 bc e0 b5 7a bc
       -0.013072087 -0.04074211 -0.018781248 -0.015302151
0000a0 ca 72 68 bc 95 b4 7a bc 39 af 3e 3c 77 40 0c bc
       -0.014187524 -0.015301843 0.011638456 -0.0085602915
0000b0 a8 3e 04 bd 10 24 b6 3b 98 76 e6 3c b6 18 38 ba
       -0.032286316 0.005558498 0.028132722 -0.0007022725
0000c0 bd a6 a6 3b 37 40 b2 3c 6a 05 4c 3d 65 58 00 bc
       0.0050857947 0.021759136 0.04980985 -0.007833575
0000d0 35 ed 1e 3b ad 70 3b bc 62 52 c7 3b 0e 81 de 3c
       0.0024250273 -0.011440438 0.006082819 0.027161147
0000e0 10 10 79 3a a1 35 a3 bc 2d 40 95 3b b1 c9 f3 3a
       0.00095009897 -0.019923033 0.0045547695 0.0018599537
0000f0 d1 53 6b bc 07 e3 11 bd d2 38 de ba 09 67 1b bb
       -0.014363245 -0.0356169 -0.001695419 -0.0023712537
000100 ec 2e 85 3b 10 a6 a3 bc 51 cd ce 3a 17 3d 10 bd
       0.0040644314 -0.019976646 0.0015777742 -0.03521451
000110 7c 9e 08 3c 00 a8 ac 3c fa e1 c6 bc 75 01 c9 ba
       0.008338567 0.021076202 -0.024277676 -0.0015335517
000120 a7 0c 78 3c 53 e3 e8 ba 70 19 55 bb 68 53 7e 3c
       0.015139735 -0.0017767943 -0.0032516383 0.015522815
000130 6b 22 8d 3c 8f 21 37 bc 13 5d f1 bc 54 81 29 bc
       0.017228326 -0.011177435 -0.029463327 -0.010345776
000140 7a 52 56 3b db c0 bc 3c d7 cb 2d ba 14 0c 03 3d
       0.0032702968 0.02304118 -0.0006629801 0.03199394
000150 01 61 b7 bc 7c 2c 7e 3c 75 eb 5d 3c e2 49 9d bc
       -0.022385122 0.015513536 0.013544907 -0.01920027
000160 66 80 29 bc 60 35 0d 3d 92 a0 3b 3b 8c ac a2 ba
       -0.010345554 0.03447473 0.0028629643 -0.0012411042
000170 15 df 01 3c 70 a7 39 bc 6f 03 e5 3c 01 3e 36 bc
       0.007926722 -0.011331424 0.027955739 -0.011123181
000180 50 59 fc bb 28 b5 7e bc 30 e9 bf bc 0b a7 ff bc
       -0.0077010766 -0.015546121 -0.023426622 -0.031207582
000190 d1 58 50 bc e8 6c 01 bb 73 a0 b4 39 1b 31 a6 bc
       -0.012716488 -0.001974875 0.0003445182 -0.020287087
0001a0 3a 58 81 3c e2 7c 90 3b af 29 e1 3b b9 b9 83 3c
       0.01578914 0.0044094184 0.006871424 0.01607977
0001b0 37 7c 88 3b de 2b 63 bc 05 b7 f4 bc 49 06 0c 3d
       0.004165198 -0.013865439 -0.029872427 0.03418568
0001c0 61 30 af 3a d5 e0 6e bc a5 62 9e bc ef fc 63 3b
       0.0013365858 -0.014579971 -0.019334147 0.0034788211
0001d0 ed 0d 77 bc 00 a6 3d 3a cd 0e 7c 3c 32 73 10 bc
       -0.015079004 0.0007234514 0.015384388 -0.008816527
0001e0 e4 ee 64 3c 91 ce b7 bc b5 a8 56 3c 20 be 0e bb
       0.013972972 -0.022437366 0.013101746 -0.0021780804
0001f0 b7 7f f0 bb 3d 1f 83 bb 4e ec 21 ba 8b 8b 28 3d
       -0.0073394435 -0.0040015266 -0.0006176875 0.041148704
000200 03 8b 78 3b 02 87 bd bb 40 8b ad 3b 4b d7 05 3d
       0.0037924654 -0.0057839165 0.005296141 0.032676022
000210 d4 f5 6e 3b 4b f3 41 bc e0 91 a0 3c dc fd 0d 3d
       0.0036462443 -0.011837791 0.019600809 0.034665927
000220 bc fe 77 bb 2f 37 d1 3c f2 50 4c bc 22 8d 8c 3c
       -0.0037841043 0.025539009 -0.012470471 0.017157141
000230 e6 ad b9 3c e1 57 7b bc e8 fe 3a bc a9 7b 5a 3a
       0.022665929 -0.015340776 -0.011413313 0.0008334467
000240 67 1c b0 bb 54 c2 98 3b 5d 1e c1 bc 70 44 00 3c
       -0.0053744796 0.0046618376 -0.023574049 0.007828817
000250 60 db 6c bb f5 ce 25 bc 3b d5 ca 3b 47 90 9d 3b
       -0.00361415 -0.010120143 0.00618997 0.004808459
000260 ec 1d 17 ba 12 28 90 3c 61 57 44 3c 86 25 1b 3b
       -0.00057646516 0.017597232 0.011983723 0.0023673489
000270 4f 18 14 bd f7 e8 38 3c c7 34 d9 3c 92 5a 93 bc
       -0.036155995 0.011286012 0.026514424 -0.017987523
000280 8c 2b 80 3c 43 e3 96 3c c5 8c 5b 3c b4 e5 89 ba
       0.015645765 0.018418914 0.013400261 -0.0010520727
000290 19 95 d6 bb 25 29 13 bc a1 86 88 3b a9 4d de bb
       -0.0065485355 -0.008981978 0.0041664396 -0.00678416
0002a0 0d 16 c2 bb 4d 68 67 3c 0a 92 8b bc 2c a1 b6 3c
       -0.005923039 0.014123988 -0.01703741 0.02229365
0002b0 0a fa ab bc e4 33 91 ba 85 75 89 3c 9e b5 39 bd
       -0.020993251 -0.0011078087 0.01677967 -0.04533922
0002c0 cf 08 9d 3c 77 4e 05 bd 49 a3 8e bc 41 a7 2a 3c
       0.01916924 -0.032545533 -0.017411845 0.010415853
0002d0 eb e2 a7 bc 87 b7 77 ba ec 5c 7d 3c 41 fe 8f 3c
       -0.020493945 -0.000944965 0.015464049 0.017577292
0002e0 30 17 24 3b 51 81 e4 bc 3d c8 97 bb c7 ae db 3c
       0.0025038235 -0.027893694 -0.0046320246 0.026816739
0002f0 22 8f 99 bb a5 de 75 3c 91 47 0a bd 0b 6f af bc
       -0.004686252 0.015006696 -0.033759657 -0.021415254
000300 46 f3 11 3c dd 81 f1 bc 47 ad 8e 3a 40 d3 3f bc
       0.008908099 -0.029480869 0.0010885381 -0.011708081
000310 94 60 89 3b 08 d3 80 bc b2 a1 84 3c 37 2e 0b bb
       0.004192421 -0.015725628 0.016190384 -0.0021237263
000320 c3 ad 8f 39 92 ac b7 bc 53 55 a2 bb 56 dc 3d 3c
       0.00027404548 -0.022421155 -0.004954019 0.011588177
000330 15 8f 58 3a b5 7d a6 3c 30 74 0c 3b 9d b3 cc bc
       0.0008261067 0.020323614 0.0021431558 -0.02498799
000340 cb 3c 04 3c 36 62 27 bc 05 a0 b6 bb 96 3a af bc
       0.008071135 -0.010216286 -0.005573275 -0.02139024
000350 96 b4 10 3b d1 52 07 bc 1d 10 d7 bb e0 d5 af 3c
       0.0022080294 -0.008259491 -0.0065632 0.021464288
000360 78 94 1d 3c 29 83 19 bd 55 f5 bb bc b4 42 0b 3d
       0.009617917 -0.0374786 -0.022944132 0.03399916
000370 0f 0f 92 bb 2c 75 ce bc 47 fe 13 b8 1a 40 8d bb
       -0.0044573615 -0.025202356 -3.5284345e-05 -0.00431062
000380 93 90 03 3c 30 54 b3 bb 2a 01 c1 3c c5 45 91 3b
       0.008030075 -0.0054726824 0.023560125 0.004433366
000390 31 7c 40 3b be fa 4f 3c a6 eb cb bc ec 2c 25 bd
       0.00293709 0.012694059 -0.02489264 -0.040326044
0003a0 80 c7 af bc c3 87 91 3c 37 5d 31 bc a6 92 12 3c
       -0.021457434 0.017764932 -0.010825447 0.0089460965
0003b0 4d c2 be 3c b2 3f 9d bb 82 9c 95 3c 70 28 11 bd
       0.02328601 -0.004798853 0.018263105 -0.035438955
0003c0 4d 55 02 bd 5e 11 9f 3b ba b7 26 3b d4 ba 02 3d
       -0.03181963 0.0048543653 0.00254391 0.031916454
0003d0 98 c4 0d 3c 06 23 e6 3c 53 90 c6 bc de 6b f0 3b
       0.008652829 0.028092872 -0.024238741 0.0073370775
0003e0 ee d4 98 3b 15 5b 72 3a 3d bb d6 3c e0 1f e6 bc
       0.004664055 0.00092451397 0.026212329 -0.028091371
0003f0 ec 9b 90 bc 18 d1 4e 3b 3f 6f 82 3a d9 35 5e 3b
       -0.017652474 0.0031557735 0.0009951367 0.0033906607

action_model._continuous_distribution.mu.bias f4 [2]
000000 b1 f3 79 bb ae 47 18 3b
       -0.0038139636 0.0023236084

exp_avg f4 [128, 35]
000000 00 00 00 00 00 00 00 00 7f cd 50 b6 89 47 df b6
       0.0 0.0 -3.111403e-06 -6.6542457e-06
000010 00 00 00 00 00 00 00 00 a8 12 65 b7 65 ee 42 b7
       0.0 0.0 -1.3653807e-05 -1.1618807e-05
000020 00 00 00 00 00 00 00 00 2f 68 77 b7 c2 dd 79 b7
       0.0 0.0 -1.4746604e-05 -1.4893189e-05
000030 00 00 00 00 00 00 00 00 31 de 10 b7 94 80 17 b7
       0.0 0.0 -8.634802e-06 -9.030238e-06
000040 00 00 00 00 00 00 00 00 17 53 8b b7 63 65 6d b7
       0.0 0.0 -1.6608783e-05 -1.4149907e-05
000050 00 00 00 00 00 00 00 00 b6 1f 90 b6 67 04 07 35
       0.0 0.0 -4.295226e-06 5.0297825e-07
000060 00 00 00 00 00 00 00 00 c7 8b 92 b6 08 f3 63 b6
       0.0 0.0 -4.3674113e-06 -3.3967099e-06
000070 00 00 00 00 00 00 00 00 5c 99 28 35 dc de 59 36
       0.0 0.0 6.2808044e-07 3.246524e-06
000080 8a 01 d3 b6 9c 52 92 b5 47 8b 31 b7 00 00 00 00
       -6.288469e-06 -1.090189e-06 -1.058245e-05 0.0
000090 00 00 00 00 13 b2 b3 37 a7 b8 a3 37 00 00 00 00
       0.0 2.1421385e-05 1.95171e-05 0.0
0000a0 00 00 00 00 77 d8 43 b6 0f fe cd 35 00 00 00 00
       0.0 -2.9183263e-06 1.5347631e-06 0.0
0000b0 00 00 00 00 60 a4 a1 37 d6 cb 89 37 00 00 00 00
       0.0 1.9269239e-05 1.6426591e-05 0.0
0000c0 00 00 00 00 ac 2a f2 36 b4 0b e2 36 00 00 00 00
       0.0 7.2171297e-06 6.7366873e-06 0.0
0000d0 00 00 00 00 93 7b 10 36 c9 8e 63 36 00 00 00 00
       0.0 2.1529602e-06 3.3908748e-06 0.0
0000e0 00 00 00 00 f5 ca 4e 37 c3 a2 9d 37 00 00 00 00
       0.0 1.2325811e-05 1.879165e-05 0.0
0000f0 00 00 00 00 2d 47 5d 37 55 f2 73 37 00 00 00 00
       0.0 1.3189198e-05 1.4540351e-05 0.0
000100 00 00 00 00 b3 8f 9d 37 e5 d5 be 37 a6 41 19 36
       0.0 1.8782774e-05 2.2749367e-05 2.283699e-06
000110 2d c0 90 36 78 c1 11 38 00 00 00 00 00 00 00 00
       4.3139066e-06 3.4750876e-05 0.0 0.0
000120 ef 10 b5 37 9b ef bf 37 00 00 00 00 00 00 00 00
       2.1584767e-05 2.288055e-05 0.0 0.0
000130 78 93 ba 37 89 ae b6 37 00 00 00 00 00 00 00 00
       2.2241598e-05 2.1777365e-05 0.0 0.0
000140 d8 57 e4 37 ec eb e0 37 00 00 00 00 00 00 00 00
       2.7220623e-05 2.681274e-05 0.0 0.0
000150 f2 29 41 37 21 90 79 37 00 00 00 00 00 00 00 00
       1.1513463e-05 1.4875114e-05 0.0 0.0
000160 98 35 b3 37 cb bd aa 37 00 00 00 00 00 00 00 00
       2.136342e-05 2.0353958e-05 0.0 0.0
000170 96 fe fc 33 38 1d d5 36 00 00 00 00 00 00 00 00
       1.1780973e-07 6.351296e-06 0.0 0.0
000180 a2 a7 ce b4 e5 cb db 36 00 00 00 00 00 00 00 00
       -3.849246e-07 6.550445e-06 0.0 0.0
000190 d2 8d 99 b6 b6 19 d1 35 9c 26 c2 36 70 f1 4d b5
       -4.5762654e-06 1.5579196e-06 5.7861453e-06 -7.671979e-07
0001a0 f0 6f ee 37 00 00 00 00 00 00 00 00 21 d3 30 37
       2.8423936e-05 0.0 0.0 1.0539575e-05
0001b0 cb 89 13 37 00 00 00 00 00 00 00 00 80 1e f5 36
       8.793965e-06 0.0 0.0 7.3051197e-06
0001c0 2e 71 02 37 00 00 00 00 00 00 00 00 47 08 49 37
       7.7749555e-06 0.0 0.0 1.1982461e-05
0001d0 2a f2 1f 37 00 00 00 00 00 00 00 00 b7 e9 d0 36
       9.533522e-06 0.0 0.0 6.226091e-06
0001e0 90 de d5 36 00 00 00 00 00 00 00 00 cc 50 f3 36
       6.3738044e-06 0.0 0.0 7.2513703e-06
0001f0 8d f0 d1 36 00 00 00 00 00 00 00 00 40 39 5a 36
       6.256689e-06 0.0 0.0 3.2517855e-06
000200 5f 72 90 36 00 00 00 00 00 00 00 00 a9 cb 2b 36
       4.304849e-06 0.0 0.0 2.5599531e-06
000210 a3 17 8b 36 00 00 00 00 00 00 00 00 38 69 cb b5
       4.1452745e-06 0.0 0.0 -1.5155301e-06
000220 7d 29 93 33 ee 9c 28 36 01 12 06 b5 32 b8 08 37
       6.8527676e-08 2.5125296e-06 -4.994509e-07 8.149118e-06
000230 00 00 00 00 00 00 00 00 ab 4e 18 38 b1 1d 16 38
       0.0 0.0 3.631289e-05 3.579044e-05
000240 00 00 00 00 00 00 00 00 95 f3 24 38 fc 90 18 38
       0.0 0.0 3.93275e-05 3.637465e-05
000250 00 00 00 00 00 00 00 00 89 82 2a 38 30 f8 1c 38
       0.0 0.0 4.065273e-05 3.742444e-05
000260 00 00 00 00 00 00 00 00 79 bf d0 37 e6 fa de 37
       0.0 0.0 2.4884694e-05 2.6581296e-05
000270 00 00 00 00 00 00 00 00 37 6f eb 37 6d 7f d5 37
       0.0 0.0 2.8065971e-05 2.5450916e-05
000280 00 00 00 00 00 00 00 00 4d c4 49 36 28 f8 27 37
       0.0 0.0 3.0065596e-06 1.0011754e-05
000290 00 00 00 00 00 00 00 00 e7 b3 d2 36 de 27 74 37
       0.0 0.0 6.279431e-06 1.4552816e-05
0002a0 00 00 00 00 00 00 00 00 e1 80 2f b7 aa d0 92 b5
       0.0 0.0 -1.046082e-05 -1.0938577e-06
0002b0 e1 55 bc 36 3b a0 36 b5 bc 2b 79 37 00 00 00 00
       5.6128342e-06 -6.803345e-07 1.4851739e-05 0.0
0002c0 00 00 00 00 14 73 2e b6 06 76 66 b6 00 00 00 00
       0.0 -2.5995005e-06 -3.434137e-06 0.0
0002d0 00 00 00 00 20 82 b5 b6 02 ac a8 b6 00 00 00 00
       0.0 -5.409369e-06 -5.0268145e-06 0.0
0002e0 00 00 00 00 ab 7b 21 b6 6b 96 24 b6 00 00 00 00
       0.0 -2.4062854e-06 -2.452546e-06 0.0
0002f0 00 00 00 00 b8 97 8d b6 ee 05 8e b6 00 00 00 00
       0.0 -4.21979e-06 -4.23262e-06 0.0
000300 00 00 00 00 48 4b b2 b6 1c f0 a3 b6 00 00 00 00
       0.0 -5.3135773e-06 -4.885731e-06 0.0
000310 00 00 00 00 e8 dd c1 33 e2 4d 90 34 00 00 00 00
       0.0 9.0276274e-08 2.6878757e-07 0.0
000320 00 00 00 00 ed bf 9f b2 94 50 35 b5 00 00 00 00
       0.0 -1.8597314e-08 -6.754501e-07 0.0
000330 00 00 00 00 02 c3 fa 35 22 4c d9 35 b5 46 60 b5
       0.0 1.8683206e-06 1.6189917e-06 -8.3549395e-07
000340 a7 b2 a2 b4 21 ce 95 b6 00 00 00 00 00 00 00 00
       -3.0304838e-07 -4.4645426e-06 0.0 0.0
000350 d2 25 c1 35 0c 57 36 35 00 00 00 00 00 00 00 00
       1.4390628e-06 6.7926953e-07 0.0 0.0
000360 2f 3f 8f b6 a9 2d 34 b6 00 00 00 00 00 00 00 00
       -4.2690876e-06 -2.6848668e-06 0.0 0.0
000370 00 d1 43 b4 ff 86 fb b2 00 00 00 00 00 00 00 00
       -1.8236824e-07 -2.9281635e-08 0.0 0.0
000380 dd df 37 36 17 9e 33 36 00 00 00 00 00 00 00 00
       2.739943e-06 2.67651e-06 0.0 0.0
000390 ac 8d 9a b5 c9 6b d8 b4 00 00 00 00 00 00 00 00
       -1.1515126e-06 -4.031156e-07 0.0 0.0
0003a0 69 13 a5 36 41 c0 8f 36 00 00 00 00 00 00 00 00
       4.919643e-06 4.2841134e-06 0.0 0.0
0003b0 85 ac 9c 36 63 2e 55 36 00 00 00 00 00 00 00 00
       4.669246e-06 3.1766474e-06 0.0 0.0
0003c0 2b 4b 00 37 ae dc d6 36 d9 f7 7f b5 b5 3c 1b 36
       7.646896e-06 6.4033875e-06 -9.535557e-07 2.3132136e-06
0003d0 2f c4 7b 36 00 00 00 00 00 00 00 00 7e f9 c2 37
       3.7516108e-06 0.0 0.0 2.3242781e-05
0003e0 24 d8 b7 37 00 00 00 00 00 00 00 00 1e 53 9a b7
       2.1915948e-05 0.0 0.0 -1.8396935e-05
0003f0 79 61 1d b7 00 00 00 00 00 00 00 00 f1 b6 f7 36
       -9.380624e-06 0.0 0.0 7.382471e-06

exp_avg_sq f4 [128, 35]
000000 00 00 00 00 00 00 00 00 16 de 34 2e b7 2d 58 2e
       0.0 0.0 4.1124514e-11 4.9153317e-11
000010 00 00 00 00 00 00 00 00 52 38 75 2e 78 4a 6f 2e
       0.0 0.0 5.5756573e-11 5.440845e-11
000020 00 00 00 00 00 00 00 00 e4 ce 44 2e 72 7e 56 2e
       0.0 0.0 4.4748996e-11 4.8770273e-11
000030 00 00 00 00 00 00 00 00 22 5e 85 2e ef ce 7e 2e
       0.0 0.0 6.064861e-11 5.7936708e-11
000040 00 00 00 00 00 00 00 00 d1 39 81 2e 7b c2 7d 2e
       0.0 0.0 5.876511e-11 5.7698273e-11
000050 00 00 00 00 00 00 00 00 85 a8 8c 2d c7 e3 b7 2d
       0.0 0.0 1.5990995e-11 2.0905845e-11
000060 00 00 00 00 00 00 00 00 b8 72 85 2d 7c 3e 99 2d
       0.0 0.0 1.5171295e-11 1.7421835e-11
000070 00 00 00 00 00 00 00 00 a2 d5 9e 2d ec a1 af 2d
       0.0 0.0 1.8057392e-11 1.9967104e-11
000080 07 0a a2 2c 7f 39 f7 2b b6 4c ab 2e 00 00 00 00
       4.60543e-12 1.7566364e-12 7.789806e-11 0.0
000090 00 00 00 00 a7 d9 39 2f a9 b6 3c 2f 00 00 00 00
       0.0 1.6902978e-10 1.7163394e-10 0.0
0000a0 00 00 00 00 6a 09 37 2f a0 e3 3e 2f 00 00 00 00
       0.0 1.6647098e-10 1.7361268e-10 0.0
0000b0 00 00 00 00 dd 50 39 2f 31 00 3e 2f 00 00 00 00
       0.0 1.685438e-10 1.7280467e-10 0.0
0000c0 00 00 00 00 83 a2 05 2f d8 66 1b 2f 00 00 00 00
       0.0 1.2154015e-10 1.4133705e-10 0.0
0000d0 00 00 00 00 36 68 43 2f 18 b0 45 2f 00 00 00 00
       0.0 1.777217e-10 1.7979607e-10 0.0
0000e0 00 00 00 00 d8 14 c4 2e 3d 21 e5 2e 00 00 00 00
       0.0 8.916751e-11 1.04196186e-10 0.0
0000f0 00 00 00 00 d4 e6 a6 2e f0 cc cc 2e 00 00 00 00
       0.0 7.589809e-11 9.31325e-11 0.0
000100 00 00 00 00 7b 3a ef 2e 66 d3 00 2f d1 e6 6a 2d
       0.0 1.087885e-10 1.1716636e-10 1.33526116e-11
000110 83 83 1a 2d c5 91 de 2f 00 00 00 00 00 00 00 00
       8.783088e-12 4.048514e-10 0.0 0.0
000120 46 9b cc 2e 73 b0 ea 2e 00 00 00 00 00 00 00 00
       9.304428e-11 1.0672432e-10 0.0 0.0
000130 9b f1 e3 2e 4c 44 e7 2e 00 00 00 00 00 00 00 00
       1.03656826e-10 1.0516796e-10 0.0 0.0
000140 22 6f de 2e 44 49 ee 2e 00 00 00 00 00 00 00 00
       1.0115132e-10 1.08360015e-10 0.0 0.0
000150 12 a8 ed 2e b8 8e f1 2e 00 00 00 00 00 00 00 00
       1.08073675e-10 1.0984763e-10 0.0 0.0
000160 2c 1b d0 2e e7 d6 d2 2e 00 00 00 00 00 00 00 00
       9.4635716e-11 9.587869e-11 0.0 0.0
000170 13 25 93 2e ea 02 a4 2e 00 00 00 00 00 00 00 00
       6.691372e-11 7.458374e-11 0.0 0.0
000180 16 4b 83 2e bf d2 91 2e 00 00 00 00 00 00 00 00
       5.970528e-11 6.6312726e-11 0.0 0.0
000190 27 ac 93 2e f1 28 96 2e 39 6c b8 2c d1 99 09 2d
       6.7153665e-11 6.828483e-11 5.2416097e-12 7.8217025e-12
0001a0 4a 0d 85 2f 00 00 00 00 00 00 00 00 07 b3 09 2f
       2.4202002e-10 0.0 0.0 1.2523681e-10
0001b0 55 00 15 2f 00 00 00 00 00 00 00 00 75 59 13 2f
       1.3551589e-10 0.0 0.0 1.3401354e-10
0001c0 1e 99 1a 2f 00 00 00 00 00 00 00 00 a5 d4 e7 2e
       1.4060617e-10 0.0 0.0 1.0542437e-10
0001d0 f9 31 0f 2f 00 00 00 00 00 00 00 00 1c 0e 17 2f
       1.3023528e-10 0.0 0.0 1.3738383e-10
0001e0 7a 17 1c 2f 00 00 00 00 00 00 00 00 69 ad 27 2f
       1.4196458e-10 0.0 0.0 1.5250169e-10
0001f0 1d a8 29 2f 00 00 00 00 00 00 00 00 ca 67 c1 2e
       1.5430186e-10 0.0 0.0 8.7950605e-11
000200 d1 93 e1 2e 00 00 00 00 00 00 00 00 f1 a2 ba 2e
       1.0258073e-10 0.0 0.0 8.487245e-11
000210 fd 81 d5 2e 00 00 00 00 00 00 00 00 66 b5 db 2e
       9.709209e-11 0.0 0.0 9.99119e-11
000220 c2 5f e1 2e 52 5c 09 2d 87 c0 46 2d 02 b6 b1 2f
       1.02488254e-10 7.808048e-12 1.1297747e-11 3.2325437e-10
000230 00 00 00 00 00 00 00 00 f0 61 31 30 57 5b 3e 30
       0.0 0.0 6.45314e-10 6.92514e-10
000240 00 00 00 00 00 00 00 00 47 9a 3b 30 7b df 3e 30
       0.0 0.0 6.8249445e-10 6.943918e-10
000250 00 00 00 00 00 00 00 00 29 4f 36 30 0b cd 42 30
       0.0 0.0 6.632371e-10 7.086817e-10
000260 00 00 00 00 00 00 00 00 62 11 50 30 cd f3 49 30
       0.0 0.0 7.569466e-10 7.3469836e-10
000270 00 00 00 00 00 00 00 00 b9 5d 3e 30 76 80 40 30
       0.0 0.0 6.9254785e-10 7.0031747e-10
000280 00 00 00 00 00 00 00 00 fd a3 3f 30 a5 2e 43 30
       0.0 0.0 6.9718437e-10 7.100687e-10
000290 00 00 00 00 00 00 00 00 d5 0c 30 30 ab 20 32 30
       0.0 0.0 6.404666e-10 6.4802447e-10
0002a0 00 00 00 00 00 00 00 00 81 6d 3d 30 5e d1 39 30
       0.0 0.0 6.8913414e-10 6.7600137e-10
0002b0 0b 05 85 2e 1d 6a bc 2e c9 5d cf 30 00 00 00 00
       6.0490356e-11 8.5681e-11 1.5087888e-09 0.0
0002c0 00 00 00 00 69 7a ac 2c f6 a5 ae 2c 00 00 00 00
       0.0 4.9021243e-12 4.963803e-12 0.0
0002d0 00 00 00 00 8b 82 d9 2c 89 3f ca 2c 00 00 00 00
       0.0 6.182004e-12 5.748239e-12 0.0
0002e0 00 00 00 00 d3 f4 b3 2c 57 f9 b1 2c 00 00 00 00
       0.0 5.114667e-12 5.058325e-12 0.0
0002f0 00 00 00 00 1a 3a b1 2c ec a3 bc 2c 00 00 00 00
       0.0 5.037093e-12 5.3614804e-12 0.0
000300 00 00 00 00 3e 56 f8 2c c2 d4 ea 2c 00 00 00 00
       0.0 7.0581587e-12 6.674301e-12 0.0
000310 00 00 00 00 17 a1 b1 2c 7c 96 ba 2c 00 00 00 00
       0.0 5.048527e-12 5.303145e-12 0.0
000320 00 00 00 00 37 cf 9a 2c 46 b5 9e 2c 00 00 00 00
       0.0 4.3999487e-12 4.5107555e-12 0.0
000330 00 00 00 00 b8 01 ca 2c f5 1c c7 2c 8d 9d 33 2b
       0.0 5.741376e-12 5.659135e-12 6.381222e-13
000340 2c 68 e1 2a 39 b8 07 2d 00 00 00 00 00 00 00 00
       4.0040313e-13 7.714767e-12 0.0 0.0
000350 e8 d8 3c 2e 27 90 3f 2e 00 00 00 00 00 00 00 00
       4.2938902e-11 4.3556405e-11 0.0 0.0
000360 62 84 66 2e f5 b7 65 2e 00 00 00 00 00 00 00 00
       5.2413525e-11 5.223196e-11 0.0 0.0
000370 24 4f 62 2e 39 aa 5a 2e 00 00 00 00 00 00 00 00
       5.145674e-11 4.971865e-11 0.0 0.0
000380 d2 45 61 2e 42 77 6e 2e 00 00 00 00 00 00 00 00
       5.122109e-11 5.4220857e-11 0.0 0.0
000390 72 de 8c 2e 11 9e 86 2e 00 00 00 00 00 00 00 00
       6.405977e-11 6.121693e-11 0.0 0.0
0003a0 84 a7 62 2e ec 80 68 2e 00 00 00 00 00 00 00 00
       5.1535234e-11 5.28652e-11 0.0 0.0
0003b0 f8 8a 6b 2e 90 10 6c 2e 00 00 00 00 00 00 00 00
       5.3556243e-11 5.3674898e-11 0.0 0.0
0003c0 68 b1 71 2e 1b a1 70 2e df e4 a9 2c 35 dc ce 2c
       5.4954624e-11 5.4712773e-11 4.8286787e-12 5.87932e-12
0003d0 23 fe ad 2e 00 00 00 00 00 00 00 00 a9 48 67 30
       7.912273e-11 0.0 0.0 8.4140567e-10
0003e0 24 a1 6c 30 00 00 00 00 00 00 00 00 f3 be 75 30
       8.6085294e-10 0.0 0.0 8.9401836e-10
0003f0 1e 24 7e 30 00 00 00 00 00 00 00 00 1f 7d 74 30
       9.245599e-10 0.0 0.0 8.894449e-10

exp_avg f4 [128]
000000 6d c6 36 b4 81 f9 44 37 18 44 61 37 95 ef 09 b6
       -1.7022258e-07 1.17406025e-05 1.3426899e-05 -2.0554046e-06
000010 52 19 43 37 c8 f5 de b5 59 51 a8 36 94 83 94 37
       1.1628801e-05 -1.6611821e-06 5.0162603e-06 1.7704246e-05
000020 0b fa 82 b6 4d 2d a0 b6 6a 77 7d 37 af bf c4 b6
       -3.9034107e-06 -4.7736453e-06 1.5107778e-05 -5.86357e-06
000030 83 67 01 b6 d2 08 aa 36 92 c5 54 b7 ef 1e 3d 35
       -1.928275e-06 5.0674216e-06 -1.2682185e-05 7.0453e-07
000040 c6 ae 7c 36 57 81 97 b7 6f 1d f9 b6 44 25 13 b7
       3.7652658e-06 -1.8060831e-05 -7.424205e-06 -8.770559e-06
000050 49 c3 d7 36 6b e9 7d 38 e5 42 2f 37 c9 e2 31 35
       6.4302335e-06 6.0537288e-05 1.0446388e-05 6.6267654e-07
000060 3e 67 00 b7 de 4e d9 36 60 67 0e 38 c9 1e eb b6
       -7.6534325e-06 6.4762853e-06 3.3951714e-05 -7.0071296e-06
000070 af 71 8a b7 a7 c2 05 37 e0 c0 2e 37 14 6b cf b7
       -1.650382e-05 7.972739e-06 1.0416115e-05 -2.4726185e-05
000080 87 9e 47 b7 49 98 a2 b7 a1 12 98 37 c9 c7 36 37
       -1.1898234e-05 -1.9382818e-05 1.8128487e-05 1.08945615e-05
000090 09 f7 9a 36 9e 66 85 b7 cd 69 25 b7 33 b1 d9 b5
       4.6183163e-06 -1.590262e-05 -9.8594e-06 -1.6219332e-06
0000a0 9e 9f 07 38 90 93 06 b4 d1 f4 b3 37 37 9d c0 37
       3.2335163e-05 -1.2533405e-07 2.1452464e-05 2.2961392e-05
0000b0 b5 31 30 b6 83 bf 6a 37 78 d7 13 36 39 91 bf 36
       -2.6254977e-06 1.3992077e-05 2.2030126e-06 5.7091497e-06
0000c0 23 83 d8 b5 7f 63 8a b6 12 00 16 37 e3 4a f3 36
       -1.613142e-06 -4.1243034e-06 8.940713e-06 7.2506823e-06
0000d0 1d d2 13 37 bd 5f 94 33 f4 f8 e5 37 17 e7 ba 36
       8.810804e-06 6.909202e-08 2.7414855e-05 5.5701344e-06
0000e0 7a 9f 9f 35 da 8f d4 36 6c 7f 2f 37 f2 4d 5b 37
       1.1892837e-06 6.334839e-06 1.0460481e-05 1.3071565e-05
0000f0 68 5a 83 b6 6b 09 9d 36 1a cb 15 37 ba 1c 1c b8
       -3.914629e-06 4.680061e-06 8.92838e-06 -3.7220052e-05
000100 bc 22 fb 36 55 6d 35 37 f0 b5 94 b6 15 71 23 b7
       7.4844265e-06 1.0813897e-05 -4.431924e-06 -9.741886e-06
000110 4f 3c 42 b7 59 ed 0a 37 64 7f 77 b7 11 5a b3 36
       -1.1577343e-05 8.280703e-06 -1.4752008e-05 5.345101e-06
000120 07 8c 88 b6 96 90 de b7 dc ec 6d b6 fd 9d 73 34
       -4.069417e-06 -2.653179e-05 -3.5453622e-06 2.2688614e-07
000130 60 03 6f 37 3d b3 88 35 61 43 e9 b6 cd eb 39 b6
       1.4246296e-05 1.0184955e-06 -6.951785e-06 -2.7704402e-06
000140 ce 46 3e 36 d9 0c 5e b4 5e f3 42 b7 3d 54 cf b6
       2.835342e-06 -2.0680035e-07 -1.1619964e-05 -6.1788874e-06
000150 45 d0 8d b6 03 ab f4 36 9b 1e a2 36 c6 02 9a b6
       -4.226373e-06 7.291675e-06 4.831539e-06 -4.5898805e-06
000160 ad a0 28 38 d5 b6 15 b7 b1 7f 61 37 fa 56 a0 b7
       4.0203962e-05 -8.923661e-06 1.3440776e-05 -1.9113988e-05
000170 de d9 45 37 e9 8e 3f b6 49 29 99 b6 e9 1f 5c b6
       1.1792841e-05 -2.8544403e-06 -4.5645616e-06 -3.2801129e-06
000180 5f 2c 4f b6 c9 82 15 b8 3e 08 3b b7 f3 2e 0c b6
       -3.087123e-06 -3.564617e-05 -1.1147988e-05 -2.0888954e-06
000190 00 08 fe 36 ad 3f 3a 38 a2 fb 47 b7 eb 6f 15 37
       7.570721e-06 4.440516e-05 -1.1919912e-05 8.90715e-06
0001a0 ee c2 c4 b5 42 a4 e6 b6 e7 e2 6e b5 06 0a 4f b5
       -1.465987e-06 -6.8736563e-06 -8.8992095e-07 -7.7128095e-07
0001b0 d5 61 6d b7 a7 7b 7d b7 0a 4e 1c b7 2f 72 7a b6
       -1.4149079e-05 -1.5108765e-05 -9.3164945e-06 -3.7319367e-06
0001c0 8b 01 ed 35 0f d8 62 36 ce 6e d9 37 58 74 c9 36
       1.7658325e-06 3.3802387e-06 2.5920013e-05 6.003811e-06
0001d0 c3 74 17 37 9c ca 88 37 c4 51 4a b7 fa b1 1b 37
       9.027487e-06 1.630681e-05 -1.2059176e-05 9.280158e-06
0001e0 91 42 4c 36 5b ed 09 37 57 b6 90 37 af 28 ed b3
       3.0437116e-06 8.2211e-06 1.7251046e-05 -1.1043573e-07
0001f0 bf b0 28 38 9e 6e 6a 37 d6 48 81 37 b3 91 89 b6
       4.021893e-05 1.3973242e-05 1.5411915e-05 -4.09988e-06

exp_avg_sq f4 [128]
000000 ff 57 9c 2e e3 c5 5f 2f 4a 76 f9 2e e3 a5 3d 2f
       7.10969e-11 2.0352035e-10 1.13442214e-10 1.7248385e-10
000010 b4 95 52 30 6a 9b c2 2c 16 c0 64 2e d6 f4 88 30
       7.6610296e-10 5.531066e-12 5.2011805e-11 9.964889e-10
000020 13 29 56 2f b8 bc b7 2d 1a ba 6e 30 93 13 49 2d
       1.9477779e-10 2.08885e-11 8.684836e-10 1.14298735e-11
000030 44 d8 32 2f 1a d9 c4 2d 5d d3 22 30 43 cc a2 2f
       1.6265839e-10 2.2379033e-11 5.923562e-10 2.9612765e-10
000040 81 fe 84 2f 54 fa 39 30 3d d9 fc 2f de 33 2a 2e
       2.4191496e-10 6.7658346e-10 4.599289e-10 3.8699592e-11
000050 d4 f0 12 2f 25 bd 18 31 e2 43 8e 2d 01 65 08 2e
       1.3364182e-10 2.2226427e-09 1.6173677e-11 3.101253e-11
000060 b1 d2 14 2d d1 84 8c 2e 8b 6b 6b 30 a7 6a 4a 2d
       8.459609e-12 6.390056e-11 8.564533e-10 1.1506052e-11
000070 e5 da 11 2f 62 95 f6 2d c4 35 c2 2e 8b c9 f5 2f
       1.326544e-10 2.8033301e-11 8.831649e-11 4.4708445e-10
000080 f7 2f a1 2f 78 80 4c 30 88 48 57 31 8f 53 18 2f
       2.931981e-10 7.439733e-10 3.1327847e-09 1.3854005e-10
000090 00 76 17 2d 7d 38 cd 2f 9a 34 a0 2f b3 5f 3f 2d
       8.6095575e-12 3.732942e-10 2.9141206e-10 1.08783425e-11
0000a0 a0 ff c4 30 a2 3a a4 2d 2f 75 21 30 3f 39 a1 2e
       1.433353e-09 1.867068e-11 5.8737987e-10 7.331601e-11
0000b0 9b 3d da 2d c6 e6 ff 2f 11 ff 22 2f 4b 68 bb 2e
       2.4811089e-11 4.6548204e-10 1.4824432e-10 8.5223016e-11
0000c0 1e 02 18 30 f4 4c 0d 2e 93 14 3a 2f 2e 92 a6 2e
       5.5300287e-10 3.2128036e-11 1.6923911e-10 7.574773e-11
0000d0 47 78 63 2f 02 b2 92 2e 87 9d 0d 30 f4 75 69 2f
       2.0688261e-10 6.670932e-11 5.151936e-10 2.1233132e-10
0000e0 cd 21 cc 2f 8b 1b ab 2f b9 9a a6 2f 16 3b fa 2f
       3.71314e-10 3.112429e-10 3.030516e-10 4.5516718e-10
0000f0 72 70 27 2f bd eb 6a 30 a0 92 2f 2e e8 bf d6 30
       1.522851e-10 8.546371e-10 3.9920622e-11 1.5625092e-09
000100 a4 06 35 2f 50 96 bd 2e 6a a0 a8 2d b6 47 be 2e
       1.6464213e-10 8.621426e-11 1.9170627e-11 8.652938e-11
000110 3f c2 ef 2e ac 86 5e 2f 2b fb 6f 30 f1 36 f5 2d
       1.0902967e-10 2.0238627e-10 8.7304625e-10 2.7877674e-11
000120 b5 30 26 2e 1c 9a eb 30 5b 3a f3 2e ce 0a 69 30
       3.778729e-11 1.7142301e-09 1.10607266e-10 8.478026e-10
000130 56 0f 2d 30 22 5d b0 2f f8 69 6a 2e f8 f4 7e 2e
       6.2958827e-10 3.2080388e-10 5.329956e-11 5.797049e-11
000140 1a 72 07 2e e8 19 c1 2d 51 87 cf 2f 35 aa 99 2e
       3.079679e-11 2.1953064e-11 3.774923e-10 6.987869e-11
000150 32 36 03 30 d1 82 7c 2f 0d f8 fe 2f a6 8b 0e 2d
       4.773454e-10 2.2965742e-10 4.6378582e-10 8.102774e-12
000160 07 17 15 31 26 9e b1 2f 6f a7 4a 2f f4 1d 85 30
       2.1695443e-09 3.2308484e-10 1.8431277e-10 9.685537e-10
000170 a8 31 7d 2f b5 75 75 2d 54 88 c8 2e 4d 26 1a 30
       2.3027857e-10 1.3952774e-11 9.119164e-11 5.60793e-10
000180 22 1e 14 2d 62 6c 3c 31 ab d7 2a 2e 77 2d bb 2f
       8.419517e-12 2.741921e-09 3.8845076e-11 3.4047407e-10
000190 a5 1f eb 2e 35 3b 1d 31 fb ae d5 2f 52 08 b1 30
       1.0692184e-10 2.2880162e-09 3.8868805e-10 1.288081e-09
0001a0 8e 17 80 2d 3d 99 c3 2f f0 5f 9e 2d 05 77 63 2d
       1.4562376e-11 3.5579176e-10 1.8005125e-11 1.2929884e-11
0001b0 a9 78 e9 30 11 1d f3 2f 13 d8 66 2f 82 f6 7c 2f
       1.6987275e-09 4.4222095e-10 2.0995143e-10 2.3006844e-10
0001c0 10 c0 91 2d 61 2d fc 2e 3b a3 08 31 6c be c4 2d
       1.6569884e-11 1.1467694e-10 1.988339e-09 2.2367184e-11
0001d0 0c 5d e4 2e 04 f1 43 2f c8 9e 77 30 17 80 84 2e
       1.0384768e-10 1.7820773e-10 9.008372e-10 6.0254184e-11
0001e0 42 1b ab 2b e9 2c 60 30 08 f3 2b 30 64 bd d3 2f
       1.2157846e-12 8.1554546e-10 6.2554806e-10 3.8515247e-10
0001f0 8e 1b 11 31 06 c7 94 2f 0f fc 94 2f 64 4f 72 2e
       2.111594e-09 2.7062458e-10 2.7100142e-10 5.5094942e-11
