results/test3/KartAgent.onnx (onnx, 87568 bytes, 7 tensors)

network_body._body_endoder.seq_layers.0.weight f4 [128, 35]
0	0x3d892525	0.06696538
1	0x3e005f5f	0.12536381
2	0x3e0fedc2	0.14055541
3	0xbd8d7530	-0.06907117
4	0xbdd0d478	-0.10196775
5	0xbdc01390	-0.09378731
6	0x3e1c7326	0.152783
7	0x3df71b26	0.12065725
8	0x3dd048b7	0.10170119
9	0xbaa906ff	-0.0012895762
10	0x3ced3c4d	0.028959418
11	0xbe031ccf	-0.12803958
12	0x3e7ad375	0.24494727
13	0xbe5d91f5	-0.2163771
14	0x3e535b5e	0.20640323
15	0x3e7b95b9	0.24568833
16	0xbdb6768b	-0.08909329
17	0x3e5f8de2	0.21831468
18	0xbbd9ff74	-0.006652767
19	0x3d04fbcd	0.0324667
20	0xbe9c54b3	-0.3053337
21	0xbe44afc2	-0.19207671
22	0xbe410490	-0.18849397
23	0x3e42b43c	0.19014066
24	0x3d70de83	0.058805954
25	0xbcb2fca9	-0.021848993
26	0xbec11980	-0.37714767
27	0xbdd99105	-0.106233634
28	0xbe95ab7e	-0.292324
29	0x3e84b67b	0.25920472
30	0xbb493281	-0.0030700269
31	0x3dc6ce26	0.097072884
32	0xbe6e660e	-0.23281118
33	0xbe75e3e1	-0.2401271
34	0xbce1ea4a	-0.027577538
35	0x3decc37d	0.11560724
36	0xbe9c6d0f	-0.30551955
37	0xbe6cc4e6	-0.23121986
38	0x3e7d150c	0.2471506
39	0x3e0891a7	0.13336812
40	0xbd4f01e8	-0.050538927
41	0x3e9eca57	0.31013748
42	0x3e6ae8be	0.22940347
43	0xbd664f75	-0.05622812
44	0xbe5daf1c	-0.2164883
45	0x3ed15166	0.40882415
46	0xbe3d4aa9	-0.18485512
47	0xbdf2a263	-0.11847379
48	0x3e966c24	0.2937938
49	0xbde59ac2	-0.11211158
50	0xbe1369c9	-0.14395823
51	0xbe776a47	-0.24161635
52	0xbcf6f077	-0.03014396
53	0xbb0cb0e3	-0.0021467737
54	0x3e075cf2	0.1321905
55	0xbe3b9755	-0.18319447
56	0x3dd5a047	0.10430961
57	0xbdd7d61b	-0.10538884
58	0xbdb6dc65	-0.08928756
59	0x3e0b3d74	0.13597661
60	0xbe21bd5b	-0.1579489
61	0x3c687d6e	0.014190061
62	0xbdf391a7	-0.11893015
63	0xbdcf48f0	-0.101213336
64	0xbf14aec3	-0.58079165
65	0xbdfcf67e	-0.12351702
66	0xbe454275	-0.19263633
67	0x3e2cc980	0.16873741
68	0xbe07ae3e	-0.13250062
69	0x3d8acc7b	0.06777283
70	0xbe1c4f1e	-0.15264556
71	0xbd831b17	-0.06401651
72	0x3d8a16ba	0.06742616
73	0xbd50832a	-0.050906338
74	0x3d709196	0.05873259
75	0x3d8d55e0	0.06901145
76	0xbe9dbcd0	-0.30808115
77	0xbe3a8b88	-0.1821729
78	0x3e7b35de	0.24532267
79	0x3e140a77	0.14457117
80	0xbd92fb0a	-0.07176788
81	0x3d2ff81c	0.042961225
82	0x3e2edbf7	0.17076097
83	0x3dfd6681	0.12373067
84	0xbdfe2959	-0.1241023
85	0x3e5e049b	0.21681444
86	0xbe1ff06f	-0.15619062
87	0xbd34379b	-0.043998342
88	0xbdf3f79d	-0.11912463
89	0x3df297da	0.1184537
90	0xbdc27bc7	-0.09496265
91	0xbd8be011	-0.06829847
92	0xbe0c0972	-0.13675478
93	0xbe74c5c5	-0.23903568
94	0xbdadda2c	-0.084888786
95	0x3e0a4520	0.13502932
96	0x3e186f54	0.14886218
97	0x3daab549	0.08335359
98	0x3e8cf829	0.2753308
99	0xbe4f5dd0	-0.2025063
100	0xbdcb5dab	-0.09929975
101	0xbe017070	-0.12640548
102	0xbcf3b83f	-0.029750941
103	0xbe941f8c	-0.28930318
104	0x3c3389e3	0.010958168
105	0x3e221b14	0.15830642
106	0x3ec23ef4	0.37938654
107	0xbdf0df4c	-0.117613405
108	0xbeb54ad0	-0.3540864
109	0x3d18497e	0.037179463
110	0x3eda0c19	0.42587355
111	0xbd0fc28c	-0.035097644
112	0x3d7af7cb	0.06127147
113	0xbe70a060	-0.23498678
114	0x3d3d7def	0.046262678
115	0x3e6e2f6c	0.23260278
116	0xbe6511df	-0.22370099
117	0x3d4023ba	0.04690907
118	0xbd7128af	-0.05887669
119	0xbeb7d8a2	-0.35907465
120	0x3e9dbd1e	0.30808347
121	0xbd1c088c	-0.03809409
122	0xbd927fb2	-0.07153262
123	0x3e7f9750	0.24960065
124	0xbdfa49c9	-0.12221105
125	0x3e395b87	0.18101321
126	0xbe075879	-0.13217343
127	0xbe97b1d2	-0.29627854
128	0x3d86d48f	0.06583511
129	0x3c441f9b	0.011970426
130	0xbd56f977	-0.052484002
131	0x3d9eed1c	0.07760069
132	0x3d976771	0.07392777
133	0xbe63cca5	-0.22246034
134	0xbe2f6c96	-0.17131266
135	0xbe20f08e	-0.15716764
136	0x3cdf45db	0.02725499
137	0x3c8b4714	0.017001666
138	0x3e3bde44	0.18346506
139	0x3b834d6b	0.0040070317
140	0x3ed71a06	0.42012042
141	0xbc004f7a	-0.007831449
142	0x3e9ecb72	0.3101459
143	0xbcf2259d	-0.029558951
144	0x3dc4a298	0.09601325
145	0x3e39dfa9	0.18151726
146	0x3daa02b0	0.08301294
147	0xbe8fdeed	-0.28099766
148	0xbe569563	-0.20955424
149	0xbbae8433	-0.005325818
150	0x3e5fc714	0.21853286
151	0x3ed72f2f	0.42028186
152	0x3e24ba25	0.16086634
153	0xbd426728	-0.04746166
154	0xbe19b0bb	-0.15008824
155	0x3e39b6ae	0.18136093
156	0x3d3315c7	0.04372194
157	0x3e8a22ca	0.26979667
158	0xbdb7a82d	-0.08967624
159	0xbe481d95	-0.19542535
160	0xbcdf1fc2	-0.027236823
161	0xbbe88489	-0.0070958775
162	0xbe9b633b	-0.30349144
163	0x3e9351b8	0.28773284
164	0xbe32276c	-0.17397851
165	0xbe234723	-0.15945105
166	0xbe9457f4	-0.28973353
167	0xbe581bf0	-0.21104407
168	0xbdb26f1a	-0.08712597
169	0xbd8743c7	-0.066047244
170	0x3ea82fa5	0.3284885
171	0x3c0b26f1	0.008493171
172	0xbe4ed213	-0.20197324
173	0xbcd9fa6c	-0.026608668
174	0xbd33f68e	-0.043936305
175	0x3e69e4de	0.22841212
176	0xbe9816ed	-0.2970499
177	0x3da498c5	0.08036951
178	0xbdb05a1a	-0.086109355
179	0xbd733f74	-0.059386685
180	0x3c816e31	0.015799614
181	0xbc49326c	-0.012280088
182	0xbe8525a0	-0.26005268
183	0xbdfdda44	-0.123951465
184	0x3df9b847	0.12193351
185	0x3e141336	0.14460453
186	0x3e0a5e8b	0.13512628
187	0x3e2373c7	0.15962134
188	0x3e4c80f0	0.19971061
189	0x3de890a3	0.11355712
190	0xbe765e9b	-0.24059527
191	0xbe93928d	-0.28822747
192	0x3d915e76	0.07098095
193	0xbe388ffb	-0.18023674
194	0xbde0e18c	-0.1098052
195	0xbd2e9557	-0.04262289
196	0xbe378864	-0.17923123
197	0xbe096621	-0.13417865
198	0x3d798ed2	0.06092722
199	0x3e6d7093	0.23187475
200	0x3e3c449e	0.1838555
201	0xbe6a6e8c	-0.22893733
202	0xbde7939c	-0.11307451
203	0xbe53c8fb	-0.20682137
204	0xbd37e60c	-0.044897124
205	0xbf27d9aa	-0.65566504
206	0x38495e9c	4.8010246e-05
207	0xbe1693d8	-0.14704835
208	0x3d9f11ac	0.077670425
209	0xbe129736	-0.14315495
210	0x3e0a8a4e	0.13529322
211	0xbd9ff153	-0.07809701
212	0x3e0e649e	0.1390557
213	0x3d1c8a22	0.03821767
214	0x3d32f8d0	0.043694317
215	0xbe541e65	-0.2071472
216	0x3dd9d654	0.10636583
217	0x3e36b91b	0.1784405
218	0x3e281e5a	0.16417828
219	0xbda81925	-0.08207921
220	0xbca1de56	-0.019759338
221	0x3de11bae	0.109916076
222	0xbe04a045	-0.12951763
223	0xbdb18ab7	-0.08669036
224	0xbdb8f3f2	-0.09030904
225	0xbe00a236	-0.12561879
226	0x3c27e603	0.01024771
227	0x3e40c050	0.18823361
228	0x3d65a0c1	0.05606151
229	0x3e25eb37	0.16203009
230	0xbe88e723	-0.26738843
231	0xbe05978a	-0.13046089
232	0xbe334862	-0.1750808
233	0x3cf56a10	0.029957801
234	0x3d8a4c0a	0.067527846
235	0x3c8d6cbc	0.017263763
236	0xbea2bb42	-0.3178349
237	0xbd163d45	-0.036679525
238	0xbe6b2732	-0.2296417
239	0xbda3c6f1	-0.079969294
240	0x3e6c47d4	0.23074275
241	0xbddb3a71	-0.10704506
242	0x3eb4ab4b	0.35286936
243	0xbcccce6c	-0.025000773
244	0xbe136944	-0.14395624
245	0x3e688937	0.22708593
246	0x3ec3a0f7	0.38208744
247	0xbe1fef03	-0.1561852
248	0xbe214cd0	-0.15751958
249	0xbdea01a7	-0.114260964
250	0x3e09e848	0.13467515
251	0xbebd77f0	-0.37005568
252	0x3e1cc926	0.15311107
253	0xbe11b026	-0.14227352
254	0x3c5b70cd	0.013393593
255	0xbe581e15	-0.21105225

network_body._body_endoder.seq_layers.0.bias f4 [128]
0	0xbafe1f21	-0.0019387939
1	0xbc67af09	-0.014140853
2	0xba8b5a1d	-0.0010631714
3	0xb9c1c7ab	-0.00036960593
4	0x3b6a779c	0.003577686
5	0xb92d2a19	-0.00016514248
6	0x3bac0a1b	0.005250228
7	0xbb387766	-0.002814734
8	0xba9fd63e	-0.0012194586
9	0xbbf5cfb4	-0.007501567
10	0x3ab465fe	0.0013763306
11	0xbc1a85d0	-0.009431317
12	0x3a51cfee	0.0008003701
13	0x3b6ff6ae	0.0036615538
14	0x3ba346d7	0.00498281
15	0x3a30d9b5	0.0006746308
16	0xbac75049	-0.0015206422
17	0xbb23ef15	-0.002501433
18	0x3c261c77	0.0101386225
19	0x3beff93e	0.007323413
20	0x3bcbe822	0.0062227407
21	0xba8202e6	-0.0009919077
22	0xbae80879	-0.001770272
23	0x3a969510	0.0011488516
24	0xbb0ab357	-0.0021164024
25	0xbb515761	-0.003194295
26	0xb90bb2de	-0.00013322706
27	0x3b3f2902	0.002916873
28	0x3c87c3fb	0.016572943
29	0xb9d767d9	-0.00041085368
30	0xb9f27f92	-0.00046252884
31	0xbb96145b	-0.0045800633
32	0xbaec095d	-0.0018008162
33	0xb8b9bcce	-8.856655e-05
34	0x3b5949dc	0.0033155596
35	0xba4f03f8	-0.0007897015
36	0x3aa95a09	0.0012920509
37	0x3a2a049a	0.0006485671
38	0x3b1dc7c6	0.0024075373
39	0xbb2d5013	-0.0026445433
40	0xb9c8edfa	-0.0003832428
41	0x3ad17ce5	0.0015982656
42	0x39f7cba0	0.00047263224
43	0x3bc16836	0.0059023155
44	0xb92a60dc	-0.00016248546
45	0xb9acf6f8	-0.00032990403
46	0x3c1ab388	0.009442218
47	0xba9fbed3	-0.0012187607
48	0xbbb7f730	-0.005614184
49	0xbbbc5405	-0.0057473206
50	0xbb52994f	-0.0032134836
51	0xbad708de	-0.0016405841
52	0xbafd0c25	-0.0019305988
53	0xba357316	-0.0006921751
54	0x3b94cb16	0.0045408113
55	0x3b435570	0.0029805563
56	0x39b32b23	0.0003417368
57	0xb9f15c0f	-0.0004603569
58	0xbb1fe8d7	-0.0024400258
59	0xbab9b42e	-0.0014168078
60	0x3a68d262	0.0008881447
61	0xbbcd1cb2	-0.0062595243
62	0x3b373730	0.0027956478
63	0xba7cdeb0	-0.000964622
64	0xbb13be23	-0.002254375
65	0x3b898ca5	0.0041976743
66	0xbc0f0eb6	-0.008731535
67	0x3bc06294	0.0058711264
68	0x3ae529bd	0.0017483752
69	0x3b911ec8	0.0044287182
70	0xb97b20b7	-0.00023949413
71	0x3bb3a72c	0.005482575
72	0xbbd0f13b	-0.006376413
73	0x3b8ab21e	0.004232659
74	0xba6afcb7	-0.0008964049
75	0x3b1a3e2a	0.0023535588
76	0x3ae01850	0.001709709
77	0xbb1ecf37	-0.0024232396
78	0xbb7d5098	-0.0038652774
79	0x3b945aca	0.0045274245
80	0x3b5d1f95	0.0033740748
81	0xbb813a88	-0.003943745
82	0x3af38b70	0.0018580984
83	0xbab1d67f	-0.0013567953
84	0x398a8d0a	0.00026426493
85	0x3b28f48e	0.0025780532
86	0x3b04c9a6	0.0020261793
87	0xbae370a2	-0.0017352293
88	0x3a98f20b	0.0011668814
89	0xbbe69558	-0.007036846
90	0x3b82db94	0.003993461
91	0xbad8aa95	-0.001653033
92	0x39e9cc97	0.00044593654
93	0xb954c65f	-0.00020291794
94	0xbbce6602	-0.0062987814
95	0xbbfab84e	-0.0076513654
96	0xbb9e81af	-0.004837237
97	0x3a28b4c4	0.00064356276
98	0xbb7c7552	-0.0038522077
99	0x3a818ddb	0.0009884195
100	0xbb0c053f	-0.0021365432
101	0xb9ff2079	-0.00048661584
102	0x3b920462	0.004456089
103	0x3bef207c	0.0072975736
104	0x3a796be4	0.0009514673
105	0xba3a54e2	-0.00071079854
106	0x3bd95455	0.0066323676
107	0x3b2ab9e5	0.0026050743
108	0x3af5c147	0.0018749618
109	0x3a0403f1	0.00050359877
110	0x3bb5c6e9	0.0055473936
111	0x3bebff46	0.007202062
112	0x3a5ce7d8	0.00084268814
113	0xbaed4dab	-0.0018104812
114	0x3ae0684c	0.0017120927
115	0xbb8311e5	-0.003999936
116	0xbaa435c6	-0.0012528233
117	0xbae37937	-0.001735485
118	0x3bdda02c	0.0067634787
119	0x3c11283c	0.00885969
120	0x3bc8e123	0.006130354
121	0x3ae4bae8	0.0017450722
122	0x3b58e32a	0.0033094385
123	0xbba17dc5	-0.004928323
124	0x3a1f6792	0.0006080802
125	0xbab7d0d8	-0.0014024032
126	0x3b696dfb	0.0035618532
127	0x3b94088c	0.0045176204

network_body._body_endoder.seq_layers.2.weight f4 [128, 128]
0	0x3c9dc84b	0.019260546
1	0xbe011d38	-0.12608802
2	0x3c8d3928	0.017239168
3	0x3b6be7ad	0.0035996244
4	0xbd0c2dd8	-0.034223408
5	0xbe0c65c7	-0.137107
6	0x3d9edf6a	0.077574566
7	0xbd98395d	-0.07432816
8	0xbd351515	-0.04420956
9	0xbd8cd530	-0.068766
10	0xbe7818a7	-0.24228154
11	0xbd341b85	-0.043971557
12	0x3e548d90	0.20757127
13	0xbe65c60d	-0.22438832
14	0xbcbb5c6d	-0.02287122
15	0x3d9016f0	0.07035625
16	0xbdd6fe93	-0.10497775
17	0x3e4068e5	0.18790014
18	0x3d90ef45	0.07076887
19	0x3df0cd4d	0.11757908
20	0x3d816cf1	0.06319607
21	0xbb2f0dee	-0.0026711184
22	0x3dc08de2	0.09402062
23	0xbd67c5fa	-0.05658529
24	0xbdbb1475	-0.09134761
25	0xbc934196	-0.01797561
26	0x3dbe01d4	0.092776924
27	0x3bbae6a0	0.005703762
28	0x3c70ea51	0.014704303
29	0xbd9d1f7c	-0.07672021
30	0x3c878588	0.016543165
31	0xbce77a7d	-0.02825665
32	0xbdfa4b13	-0.122213505
33	0x3d94fe06	0.072750136
34	0xbd1e8b82	-0.038707264
35	0x3d8f27ed	0.06990037
36	0xbd25db8d	-0.040492583
37	0xbde6f787	-0.11277681
38	0x3d824885	0.06361488
39	0xbcf63998	-0.03005676
40	0x3dd35c84	0.1032038
41	0x3cf9d222	0.030495707
42	0x3db9a0be	0.09063862
43	0xbe2b941e	-0.16755721
44	0xbdf8df57	-0.12151974
45	0xbdc5559a	-0.09635468
46	0xbc1d7e79	-0.009612673
47	0x3db79b77	0.089651994
48	0x3d5fc0f7	0.054627385
49	0x3dde8781	0.10865689
50	0x3d52c0b1	0.051453296
51	0x3d5ea8bf	0.054360148
52	0xbd117df1	-0.035520498
53	0x3d1e8ed1	0.03871042
54	0xbda20c4d	-0.079125024
55	0xbdb4a09d	-0.08819697
56	0x3d5de050	0.054169
57	0x3c9a9a8b	0.01887252
58	0xbd07ce94	-0.033155993
59	0x3e0f2ea2	0.13982633
60	0x3e1fe469	0.15614475
61	0xbbd93bb4	-0.0066294316
62	0xbd8ef7b1	-0.06980837
63	0xbd5cf56f	-0.053945
64	0xbe430138	-0.19043434
65	0xbdb4589d	-0.08805964
66	0xbd65fbc0	-0.05614829
67	0x3c92ce10	0.017920524
68	0xbd1bcbd6	-0.03803619
69	0x3ce06def	0.02739617
70	0x3c87c78b	0.016574642
71	0xbc89d1e6	-0.01682372
72	0x3e016a57	0.12638222
73	0xbc6c9dd6	-0.014441928
74	0xbcefb540	-0.029261231
75	0xbc52270f	-0.012826695
76	0xbd2d2ed4	-0.042280987
77	0x3cb27b96	0.021787446
78	0x3db2aaa5	0.08723954
79	0x3de2b8f9	0.11070437
80	0x3db90598	0.0903427
81	0xbbbeddbd	-0.005824773
82	0x3e215ec4	0.15758806
83	0xbe4ccae8	-0.19999278
84	0x3d5b693e	0.053567164
85	0x3d517823	0.051139962
86	0xbd6c86cf	-0.05774575
87	0xbd8bee21	-0.06832529
88	0xbcc13870	-0.023586482
89	0xbd4515a7	-0.048116352
90	0x3d81e56a	0.063425854
91	0x3dedae87	0.11605554
92	0x3c768def	0.015048488
93	0xbd6d4a2f	-0.057932075
94	0xbdbffec1	-0.09374762
95	0xbe112523	-0.14174323
96	0x3d817581	0.0632124
97	0x3d8c2aa7	0.06844073
98	0xbcf460dd	-0.029831344
99	0x3e13a00a	0.14416519
100	0x3db24d4f	0.08706152
101	0x3caafa31	0.020871254
102	0x3d96e534	0.07367936
103	0xbd136ceb	-0.035992544
104	0x3d970d43	0.07375576
105	0x3e51ac52	0.20475891
106	0x3d77cfc5	0.06050088
107	0x3d860d4c	0.06545505
108	0xbde58e57	-0.1120879
109	0x3ddc3e9e	0.10754131
110	0x3d8a868f	0.06763946
111	0xbd966ac0	-0.0734458
112	0xbab20b3a	-0.0013583668
113	0xbd4f34ba	-0.050587393
114	0xbdb5f196	-0.088839695
115	0xbcf52bbf	-0.029928086
116	0xbde71783	-0.112837814
117	0x3e136914	0.14395553
118	0xbd8f34b2	-0.06992473
119	0x3d4b2163	0.049592387
120	0x3def751b	0.11692258
121	0xbc2365c3	-0.009972992
122	0x3cffc7de	0.031223234
123	0x3d40791d	0.046990503
124	0xbd5b89aa	-0.053598084
125	0xbdb67a02	-0.0890999
126	0x3e00d020	0.12579393
127	0x3cb3dd4d	0.02195611
128	0xbcfce374	-0.030870177
129	0xbd842bdb	-0.06453677
130	0x3d52ea23	0.05149282
131	0x3d8199fb	0.063281976
132	0xbda207b5	-0.07911626
133	0x3d7f2eb1	0.062300388
134	0x3e26280e	0.16226217
135	0x3db64367	0.08899575
136	0xbd6d6484	-0.057957187
137	0xbe386be4	-0.18009907
138	0x3df78271	0.120854266
139	0xbe7c2018	-0.24621618
140	0x3d6bc858	0.05756411
141	0xbd0f4a91	-0.03498322
142	0x3cca29d3	0.024678146
143	0xbbaf611b	-0.005352152
144	0x3c8d39f7	0.017239554
145	0xbb08bb8d	-0.0020863742
146	0x3c4fcca8	0.012683071
147	0xbd7f59ab	-0.062341373
148	0x3d30e73b	0.04318927
149	0xbd137932	-0.036004253
150	0xbc46a415	-0.012124081
151	0xbe0f7281	-0.14008524
152	0x3d03b4ae	0.03215473
153	0x3e073df1	0.13207223
154	0xbd7cf7b5	-0.06175967
155	0x3e2722f7	0.16321932
156	0xbe018d83	-0.12651639
157	0x3e220619	0.15822639
158	0x3e1473f0	0.14497352
159	0xbdbea0cd	-0.09308014
160	0xbda22daf	-0.0791887
161	0x3bfe5f15	0.0077627995
162	0x3db62582	0.08893873
163	0xbd805ef4	-0.06268111
164	0x3e3a7b3d	0.18211074
165	0xbd451e9d	-0.0481249
166	0x3e13f8f6	0.1445044
167	0xbd97c6e8	-0.07410985
168	0x3dc86230	0.09784353
169	0xbe01c0d3	-0.12671213
170	0x3b18a794	0.0023293244
171	0x3c4d62bd	0.012535748
172	0xbe30ad30	-0.17253566
173	0x3c900d6d	0.017584527
174	0xbdd6e06b	-0.10492023
175	0xbd2001e0	-0.03906429
176	0x3dd2257d	0.102610566
177	0xbca1fd2f	-0.019774048
178	0xbd28806a	-0.04113809
179	0x3d46cf7f	0.048537727
180	0x3d730833	0.05933399
181	0xbd8df0f2	-0.06930722
182	0x3dcf8dca	0.10134466
183	0x3deb94ea	0.115030125
184	0x3d91007e	0.07080172
185	0xbd51fab5	-0.051264483
186	0x3de9cc72	0.11415948
187	0xbdb668c2	-0.089067
188	0xbc6627e2	-0.014047595
189	0xbdfd23f3	-0.123603724
190	0xbd92302e	-0.07138096
191	0xbcd3f826	-0.025875162
192	0x3d0d90df	0.034561988
193	0x3e702fe1	0.23455764
194	0x3c050115	0.008117934
195	0xbe10119f	-0.14069222
196	0x3cdccb26	0.026952337
197	0x3ceb684e	0.02873626
198	0xbdbeeb07	-0.09322172
199	0x3c5f1db4	0.013617922
200	0xbdddbe20	-0.10827279
201	0x3d4557d2	0.048179455
202	0x3c63667c	0.013879415
203	0x3c1876ee	0.009305699
204	0xbdfaa862	-0.12239148
205	0x3d55a1b2	0.052156158
206	0x3d49279a	0.049110033
207	0x3dc5e230	0.096622825
208	0xbd9f77ff	-0.07786559
209	0xbd077dd3	-0.03307898
210	0x3e45e97a	0.19327345
211	0x3d5abadc	0.05340086
212	0x3d0ff2ef	0.03514379
213	0x3d4f9599	0.050679777
214	0xbc63916a	-0.01388965
215	0x3c25c29d	0.0101172
216	0x3e267bcc	0.16258162
217	0xbd067fcb	-0.032836717
218	0x3c2bb12d	0.010479254
219	0x3ddea95b	0.10872146
220	0x3ddc9b76	0.10771839
221	0xbe251eba	-0.16125003
222	0xbbcd4fe7	-0.0062656286
223	0x3d9cae9d	0.07650492
224	0xbdcc5a65	-0.09978179
225	0xbe3d5c1f	-0.18492173
226	0xbd44dd55	-0.04806264
227	0xbcc08400	-0.023500443
228	0x3deef93b	0.11668631
229	0x3d25c25e	0.040468566
230	0xbe78aa7d	-0.24283786
231	0x3d9d1712	0.07670416
232	0x3a9d6cac	0.0012010536
233	0xbd8ee613	-0.06977477
234	0x3d9b9fd0	0.07598841
235	0x3d5dec4a	0.05418042
236	0xbe1c8f0c	-0.15288943
237	0xbc180770	-0.009279117
238	0xbe85f4d4	-0.26163352
239	0x3d7e55ca	0.062093534
240	0x3d0d0eba	0.034437872
241	0x3da64a96	0.08119695
242	0x3dadbfa6	0.0848382
243	0x3dde7dc1	0.108638294
244	0xbdde70cf	-0.1086136
245	0x3d8a06bf	0.06739568
246	0x3d74665b	0.059667926
247	0x3bdea64f	0.006794728
248	0x3b1be73a	0.0023788945
249	0x3c1f2cb7	0.009715251
250	0x3c0ae8e9	0.008478382
251	0x3b86b8a4	0.0041113663
252	0xbd2e6329	-0.042575035
253	0xbd853f1f	-0.0650618
254	0xbbaeaf1a	-0.0053309323
255	0xbe8f6757	-0.2800853

network_body._body_endoder.seq_layers.2.bias f4 [128]
0	0x3af25d5d	0.0018490959
1	0x3a834a11	0.001001658
2	0x3af390d7	0.0018582594
3	0x38fbf7b7	0.00012014753
4	0xba7d9315	-0.0009673101
5	0xbadc1b05	-0.001679272
6	0x3b041bd1	0.0020158181
7	0x3a8bae20	0.0010656752
8	0x3a30d307	0.0006745313
9	0xbb4b9af0	-0.0031067692
10	0x3a3ae4b9	0.0007129419
11	0x3aa74234	0.0012760819
12	0x3a1895f3	0.0005820684
13	0x3a0706af	0.0005150837
14	0xbaeebe09	-0.0018214594
15	0xbb8fba9d	-0.0043862597
16	0xba73fa3f	-0.0009307004
17	0x3a3c299e	0.00071778323
18	0xbae84d53	-0.001772324
19	0x3b140f2d	0.0022592053
20	0x3a054c65	0.0005084931
21	0x3b1c1230	0.0023814552
22	0x3ac3a870	0.0014927518
23	0x3b67f11c	0.0035391515
24	0xbbcdcf43	-0.006280811
25	0xb9ab42c1	-0.00032665397
26	0xba93735c	-0.001124959
27	0xb9bc3a4d	-0.00035901592
28	0xbb4fe086	-0.003171952
29	0x3bc6129b	0.0060446984
30	0xbb5ccd75	-0.0033691798
31	0xbb4c32db	-0.0031158242
32	0xba8edfad	-0.0010900401
33	0xb9c8353b	-0.00038186632
34	0xb9df7c18	-0.00042626332
35	0x3b67eedb	0.0035390172
36	0x3b193f48	0.0023383666
37	0x3bc5e608	0.0060393848
38	0x3919e892	0.00014677856
39	0x3bb9597c	0.0056564193
40	0x3b1386d1	0.0022510777
41	0x3a957648	0.0011403048
42	0x3b7d3bfb	0.0038640487
43	0x3aa28839	0.0012400217
44	0x3acc12f6	0.0015569616
45	0x3a898ffa	0.0010495179
46	0x3b1c5d12	0.0023859185
47	0x3add9782	0.0016906115
48	0x389a2526	7.350212e-05
49	0x3af1f53c	0.0018459926
50	0xb920f6d4	-0.0001535074
51	0xbadae966	-0.0016701638
52	0x3aa3ebcc	0.0012506186
53	0x3a20766d	0.00061211624
54	0xbaa44971	-0.0012534094
55	0x3bb41b32	0.005496406
56	0xb9bcac16	-0.00035986368
57	0xbb37dc4c	-0.002805489
58	0x3abe552e	0.0014521235
59	0xbb3c19a0	-0.0028701797
60	0xba51e0e7	-0.00080062303
61	0x384ff0ab	4.9576785e-05
62	0x39900b4e	0.00027474243
63	0xba086cf1	-0.0005204222
64	0x3b8af02a	0.0042400556
65	0x3a86c8e7	0.0010283262
66	0x3b16518e	0.0022936794
67	0xb92141d1	-0.00015378675
68	0xbb437d22	-0.0029829224
69	0x372e2b8c	1.0381347e-05
70	0x3b1c8286	0.002388151
71	0xbb4af315	-0.0030967642
72	0xbb84cadb	-0.0040525026
73	0x3ae6ed9b	0.0017618419
74	0xbb1ea57b	-0.002420752
75	0xba6c1bbf	-0.000900682
76	0xbbb82a36	-0.0056202663
77	0xb9ccc945	-0.0003905987
78	0xbaea7155	-0.0017886559
79	0xbb84eee6	-0.004056799
80	0x398a4edf	0.00026380175
81	0x382acbd1	4.0720977e-05
82	0xba52f882	-0.0008047895
83	0xbb100fb6	-0.002198202
84	0xbb5309a4	-0.0032201791
85	0x3a4b042a	0.0007744456
86	0x3b190471	0.0023348595
87	0xbb23d6bd	-0.002499982
88	0xb8bc84e6	-8.989293e-05
89	0xb8ab8efa	-8.180547e-05
90	0xba8c2cd6	-0.0010694514
91	0x3a243251	0.0006263601
92	0xbb86a4be	-0.0041089943
93	0x3aad43fd	0.0013219115
94	0x3b079f31	0.002069425
95	0x3bc7bc7f	0.0060954685
96	0xbb0bf421	-0.002135523
97	0x3b164f07	0.0022935288
98	0xbabbb4bd	-0.0014320832
99	0xba851cac	-0.001015564
100	0xbb0f6b08	-0.0021883864
101	0x3a336b21	0.00068442716
102	0x3b32488d	0.0027203888
103	0xba9e92ca	-0.001209819
104	0x3a17c294	0.0005789187
105	0x3b1ab4e8	0.0023606364
106	0x3a008b00	0.0004903525
107	0x3ad1cbb5	0.0016006144
108	0xba0107af	-0.00049221044
109	0x3a677d38	0.000883061
110	0x39d4c80b	0.00040584835
111	0xbb2e2a38	-0.0026575457
112	0x3abef3bd	0.0014568489
113	0xb87fd1de	-6.099219e-05
114	0xbb87bb5d	-0.0041422085
115	0xba84bd0d	-0.0010127142
116	0xba74cfba	-0.0009338815
117	0x3adff2d7	0.0017085922
118	0xba042680	-0.00050411373
119	0xbba3a9a0	-0.004994586
120	0xb9dd9309	-0.00042261955
121	0x3a52e4be	0.00080449495
122	0x3a33340d	0.0006836064
123	0x3a947ac2	0.0011328089
124	0x3b9cb959	0.0047828373
125	0x3b0dd4bd	0.0021641694
126	0x3aa397b8	0.0012481129
127	0xbb6b3723	-0.0035891018

action_model._continuous_distribution.log_sigma f4 [1, 2]
0	0xba7300c1	-0.00092698267
1	0xbab2928f	-0.0013624

action_model._continuous_distribution.mu.weight f4 [2, 128]
0	0xbb90d068	-0.004419375
1	0x3a3f1825	0.00072896696
2	0x3cb11e9d	0.021621043
3	0x3c9801a1	0.018555464
4	0xbcf0e541	-0.029406192
5	0xbb165386	-0.0022937967
6	0x3b903e07	0.0044019255
7	0x3c58ea31	0.013239429
8	0xbb92086e	-0.0044565713
9	0x3ccd0dd4	0.025031008
10	0xbcc76bc1	-0.024343373
11	0x3c8393f5	0.016061762
12	0x3c18077a	0.009279126
13	0xbc915f02	-0.017745499
14	0x3c898658	0.016787693
15	0x38a398de	7.8009194e-05
16	0xbd13a2ea	-0.03604404
17	0x3cfc13bf	0.030771134
18	0x3a6337ba	0.00086676667
19	0xbc7ededd	-0.015556064
20	0xbd248bce	-0.04017239
21	0xbb16209e	-0.0022907625
22	0x3c325ee3	0.010886881
23	0xbbb76445	-0.00559667
24	0x3b47092b	0.0030370455
25	0x3b6c828b	0.0036088552
26	0xbc643d59	-0.013930642
27	0x3cb1e9b4	0.021717884
28	0xbbb18ab0	-0.005418144
29	0xbae93317	-0.0017791715
30	0x3cb3787d	0.02190804
31	0x3c9f736e	0.01946422
32	0xbc30f543	-0.010800662
33	0xbaab6849	-0.0013077344
34	0x3c89bc9b	0.016813567
35	0x3c8f2315	0.017472783
36	0xbcd94fd3	-0.026527321
37	0xbd14e87d	-0.03635453
38	0x3c27e3f4	0.010247219
39	0xba04f2f4	-0.0005071603
40	0xbbbc4329	-0.005745311
41	0x3ca685da	0.020327497
42	0xbca6995b	-0.020336797
43	0x3bebbed4	0.0071943793
44	0x3c43223c	0.011910018
45	0x3b298903	0.002586902
46	0xbc49d7fa	-0.012319559
47	0xbc241ab8	-0.010016136
48	0x3cbea36f	0.02327129
49	0x3c31e706	0.010858303
50	0xbc21f4bc	-0.009885009
51	0x3c24088e	0.010011805
52	0xbd11d82e	-0.035606556
53	0xbcdc9fd1	-0.026931675
54	0x3caa3a59	0.020779775
55	0x3bbec162	0.005821393
56	0x3cbd27b4	0.023090221
57	0x3a504fc1	0.00079464546
58	0xbcd0cbc9	-0.025487797
59	0xbba25d9e	-0.0049550077
60	0xbbbecc07	-0.005822662
61	0x3b183efb	0.0023230899
62	0x3cbcccab	0.023046812
63	0x3cd9a99c	0.026570134
64	0xbc6fca43	-0.014635625
65	0xbd485e7b	-0.04891823
66	0x3d11c78a	0.035590686
67	0x3d0cd86f	0.034386095
68	0xbbf4a83c	-0.007466344
69	0x3c15e7e8	0.009149529
70	0xbb9f082a	-0.004853268
71	0x3c1c133d	0.009526071
72	0x3c5bea7a	0.013422603
73	0xbbafd093	-0.00536544
74	0xb9b147d4	-0.00033813587
75	0xbcd39458	-0.025827572
76	0x3c0016c7	0.007817931
77	0xbcc843a1	-0.02444631
78	0x3cef7b2f	0.029233543
79	0xbc477834	-0.012174655
80	0xbc3b65df	-0.011437862
81	0x3cad0e0a	0.021124858
82	0xbb5cc505	-0.0033686769
83	0x3c831115	0.015999356
84	0xbb2dc23e	-0.0026513482
85	0x3b4ba31b	0.003107256
86	0xbbb46bf6	-0.005506034
87	0x3cb431b4	0.021996357
88	0x3d009280	0.031389713
89	0xbc9d6755	-0.019214312
90	0x3cdb8f54	0.026801743
91	0xbcbe1175	-0.023201684
92	0xbb1b52db	-0.0023700509
93	0xbcb75ba4	-0.022382565
94	0xbb055ddc	-0.0020350134
95	0x3a73f1d5	0.000930575
96	0x3d0e08a6	0.034676217
97	0xbc425e6f	-0.011863335
98	0x3be5d3c6	0.0070137708
99	0x3b5ef63d	0.0034021281
100	0x3aa49d70	0.0012559127
101	0xbc52e011	-0.012870804
102	0x3af88cd6	0.0018962871
103	0xbc08f5bc	-0.008359369
104	0xbbd42fbc	-0.006475417
105	0xbc16e2dc	-0.009209361
106	0xbc7ec3a6	-0.015549576
107	0x3c4ab0e4	0.012371276
108	0x3c180b94	0.009280104
109	0xbc2c55f9	-0.010518544
110	0x3c7ee28e	0.0155569445
111	0xbac55228	-0.0015054392
112	0x3c3df8ad	0.011594933
113	0xbcdc7094	-0.02690915
114	0x3bc02cee	0.005864731
115	0x3ce1cb61	0.027562799
116	0xbc5c3393	-0.013440031
117	0xbca0bdd5	-0.019621769
118	0xbd00bf51	-0.031432454
119	0x3cb7d8e4	0.022442289
120	0x392655c5	0.00015862945
121	0xbd0899e6	-0.033349894
122	0x3cff723e	0.031182405
123	0xbcd7e05a	-0.026352096
124	0xbb3215d1	-0.0027173648
125	0xbbc8d6cf	-0.006129123
126	0x3c92496b	0.017857274
127	0x3c5b2b83	0.013377073
128	0x3cdc620f	0.026902227
129	0x3c8547a7	0.016269518
130	0x3cde8c52	0.02716652
131	0x3c95faa7	0.018307997
132	0xbba57be3	-0.005050169
133	0xbc2cca49	-0.010546275
134	0x3cdd1d8f	0.026991634
135	0x3c11f91e	0.008909492
136	0x3c73cbf8	0.014880173
137	0xbc277f07	-0.010223157
138	0xbd32b8c7	-0.04363325
139	0x3d2a31ff	0.041551586
140	0x3b931236	0.004488255
141	0xbc1b2cfd	-0.009471175
142	0x3c2345b9	0.009965354
143	0xbbfc6516	-0.00770248
144	0xbb813947	-0.0039435956
145	0x3c95c0b5	0.018280366
146	0xbbe346e3	-0.0069359406
147	0x3c7a4bc0	0.015276849
148	0x3bbbeb3d	0.0057348297
149	0x3c41b50c	0.01182295
150	0xbc5adb9e	-0.013358025
151	0xbb7491ef	-0.0037318429
152	0xb6f8ff81	-7.4207205e-06
153	0xbc7062f7	-0.014672033
154	0xbcb0b085	-0.021568546
155	0x3caf8849	0.02142729
156	0x3a19d8a9	0.00058687717
157	0x3b447a3e	0.0029980089
158	0xbc4d2124	-0.012520108
159	0xbc265215	-0.010151406
160	0xbb7a0430	-0.0038149469
161	0x3c420380	0.011841655
162	0x3c8e02c6	0.017335307
163	0x3c8ddcd4	0.017317213
164	0x3c94107e	0.01807427
165	0x3d0cebc6	0.03440454
166	0x3bca1988	0.0061675943
167	0x3cbcf2aa	0.02306493
168	0x3cab4396	0.02090625
169	0x3cb5bfe0	0.02218622
170	0x3c964600	0.018343925
171	0x3cd59338	0.026071176
172	0x3c4129fd	0.011789796
173	0x3b0511db	0.0020304832
174	0x3c0cd5eb	0.008595924
175	0x3c963be2	0.018339101
176	0xbce241d7	-0.027619286
177	0x3ba00567	0.0048834565
178	0xbc9c4dc2	-0.019080047
179	0x3aa1e9fc	0.0012353058
180	0x3c11c854	0.00889786
181	0xbbd25111	-0.0064183553
182	0x3afee848	0.0019447887
183	0x3c6b83d9	0.014374697
184	0xbd6c513b	-0.057694655
185	0xbc07d76c	-0.008291107
186	0xbc306646	-0.010766571
187	0xbb5d543e	-0.0033772136
188	0xbd0960b8	-0.033539504
189	0x3d2a8c9d	0.041638006
190	0xbd27bedb	-0.0409535
191	0x3c494ea5	0.012286817
192	0x3cd7dccd	0.026350403
193	0xbcedae1b	-0.029013684
194	0x3c183d75	0.009291996
195	0xbcf96057	-0.030441446
196	0xbcfef69e	-0.031123456
197	0x3bf1eb65	0.0073827975
198	0xbb051aec	-0.0020310236
199	0xbc2fa84e	-0.010721279
200	0xbc0e284d	-0.008676601
201	0x3c3b9b69	0.011450627
202	0xbc422a46	-0.011850899
203	0x3b1ac181	0.0023613872
204	0x3ab53489	0.0013824861
205	0xbb2066c3	-0.0024475313
206	0xbc35d538	-0.011098199
207	0xbc6ca174	-0.01444279
208	0xba8153d0	-0.0009866897
209	0x3bd28c86	0.006425443
210	0xbc430731	-0.01190357
211	0xbd095e99	-0.03353748
212	0xbbf4dc90	-0.007472582
213	0x3cde565b	0.027140787
214	0x3c833062	0.016014282
215	0x3a0d07f5	0.0005379909
216	0xbcb805c2	-0.022463683
217	0xbc630a70	-0.013857469
218	0xbc3b4b98	-0.011431597
219	0x3c1fa5da	0.009744132
220	0xbacd71d2	-0.001567418
221	0xbc7316ce	-0.01483698
222	0x3c54e717	0.012994549
223	0x3a8fe8fd	0.001097947
224	0xbcb23a9b	-0.02175646
225	0x3c52f83c	0.0128765665
226	0xbcf68d60	-0.03009671
227	0xbc424c15	-0.01185896
228	0xbcacb6e3	-0.021083301
229	0xbc827668	-0.015925601
230	0x3d076ec7	0.03306463
231	0xbbf7e3ee	-0.007565013
232	0x3949b3d8	0.00019235851
233	0x3c278a9f	0.010225921
234	0xbcc033a7	-0.02346213
235	0x3cdc507f	0.026893852
236	0xbceb7f5e	-0.028747257
237	0xbc784d57	-0.015155158
238	0xbcb11db4	-0.021620609
239	0xbcd140dd	-0.025543625
240	0x3c4ec20c	0.012619507
241	0xbce638fe	-0.028103348
242	0xbb1e478e	-0.0024151537
243	0x3c3b97ef	0.011449798
244	0x3a3270e8	0.00068069855
245	0x3c611c23	0.0137396185
246	0xbd0d4a16	-0.034494482
247	0xbcdb76bf	-0.026790021
248	0x3b83b1e6	0.00401901
249	0xbb81766b	-0.003950884
250	0xbd2d57ce	-0.042320065
251	0xbd0d8a41	-0.034555677
252	0x3c9a681e	0.018848475
253	0x3c2e2b60	0.010630459
254	0x3d27ab7d	0.04093503
255	0xbcb6a18f	-0.022293834

action_model._continuous_distribution.mu.bias f4 [2]
0	0x3905f498	0.00012774987
1	0x3b0f333e	0.002185061
