results/test2/KartAgent/KartAgent-10584.pt (torch, 528367 bytes, 36 tensors)

network_body._body_endoder.seq_layers.0.weight f4 [128, 35]
-0.21649234 -0.11362151 -0.10543341 0.057328604 0.34383395 0.18751319 -0.015423829 -0.0812875
0.043734338 -0.098019056 0.09600618 0.15637134 0.06592193 0.19592918 -0.11955143 -0.28650084
0.32766476 0.07130091 -0.058855463 0.028034689 0.20476583 0.35511896 -0.13796638 0.2618643
-0.12724647 -0.087215126 0.012080844 -0.05764339 0.12385037 0.054461904 -0.068223454 0.18153375
0.13935281 -0.2444707 0.10511795 -0.19911617 -0.31196773 -0.36675516 0.0418449 -0.04685849
-0.34564036 -0.2581869 0.13730851 -0.08947593 0.2946471 0.4001917 0.19515306 -0.08533582
-0.018326093 -0.17883752 -0.22647345 0.037535805 0.18740441 -0.030389149 -0.18574932 -0.2159411
-0.23830892 -0.12268052 -0.051487237 0.15939473 0.3718428 0.07284282 0.058414433 0.15738061
-0.06397043 0.38309333 -0.1917999 0.09862391 -0.14656922 0.32136664 -0.17733583 -0.14887917
-0.107172586 -0.24682032 0.13387269 0.24212877 -0.11929786 0.082752466 0.106478974 -0.06241845
-0.20476626 -0.36090007 -0.37251037 -0.22869046 0.15245433 -0.31697237 -0.21010387 -0.47654927
0.13120073 -0.038657945 0.16977744 -0.12731181 0.2010363 -0.24792092 0.18092264 -0.019774402
-0.19125612 0.004300636 -0.14767087 -0.23642497 0.124345064 -0.18946528 0.005635393 0.0745425
0.23997976 -0.18921515 0.1276166 -0.044263054 0.12642771 0.018603845 -0.04973791 -0.016800215
-0.24906608 -0.18747886 0.048581034 -0.19704604 0.14742859 -0.0464052 -0.4179582 -0.13501787
-0.2418322 0.06200647 0.30199423 -0.22135165 -0.0144768385 -0.15252548 0.09108977 -0.24810643
0.034261573 -0.09132345 0.017084112 0.0076566003 0.046650104 -0.082448415 0.20407079 0.0665543
-0.011260035 0.17851892 -0.25240573 0.100889474 0.16773288 0.0065063294 -0.10455443 -0.027767973
0.22848596 0.016974196 0.1657374 0.2571271 0.043331962 -0.19878814 -0.085640974 -0.11866543
0.00674558 0.13751411 0.1276793 -0.08803983 -0.17017317 -0.060717586 0.11553683 0.17697819
-0.19619218 -0.07792376 -0.4297641 -0.062082972 -0.18941529 -0.163931 0.08211819 0.0053688036
-0.025625598 0.18983702 -0.12737337 -0.18782151 0.19766928 0.121086165 -0.07323396 0.26801813
-0.2085191 -0.002880688 -0.1483298 -0.11760765 -0.28578955 0.0074677705 -0.23715001 -0.14253817
-0.11399718 -0.20216963 -0.029214276 0.049999252 -0.02381503 -0.16131681 0.16928263 -0.030830665
-0.106836356 -0.2878484 0.17747332 0.047491748 0.117290206 -0.15331045 0.2630873 0.00968172
0.27064762 0.3172724 0.06949764 -0.028697897 -0.11662088 0.046177063 -0.077864565 0.15698317
0.43244717 -0.11176072 0.02093812 -0.20901625 0.07066371 0.05746246 -0.1524954 0.12696934
-0.20175631 -0.11027197 -0.076473445 -0.16593334 -0.022701059 -0.034469936 0.12046613 -0.021041002
0.05604362 0.27818838 0.021792367 -0.08759976 -0.03995275 0.0091084745 0.31841266 0.1443733
-0.21188791 0.07104835 -0.05817261 0.2735847 -0.16709419 0.17748497 -0.37013832 -0.014577836
0.20452376 0.17228091 0.10504776 -0.13479716 0.004011378 -0.16563289 0.067671016 -0.08285662
-0.027673654 0.04387304 -0.012731525 -0.03512601 -0.12584798 -0.1168426 0.17344832 -0.2744912
00000000: 2bb0 5dbe 65b2 e8bd 79ed d7bd 66d1 6a3d
00000010: 010b b03e 7503 403e 3ab4 7cbc 107a a6bd
00000020: c722 333d 37be c8bd e39e c43d cf1f 203e
00000030: 1402 873d a9a1 483e 61d7 f4bd 3db0 92be
00000040: adc3 a73e 3606 923d 6d12 71bd 01a9 e53c
00000050: 22ae 513e 27d2 b53e 0f47 0dbe 1413 863e
00000060: e64c 02be d89d b2bd bbee 453c 7a1b 6cbd
00000070: 43a5 fd3d 7213 5f3d bdb8 8bbd fce3 393e
00000080: 81b2 0e3e 8756 7abe 1448 d73d 1ce5 4bbe
00000090: 3cba 9fbe 55c7 bbbe 8f65 2b3d b0ee 3fbd
000000a0: c6f7 b0be 1331 84be 9a9a 0c3e 283f b7bd
000000b0: fcdb 963e ede5 cc3e 34d6 473e 8cc4 aebd
000000c0: 9a20 96bc 2f21 37be a8e8 67be 25bf 193d
000000d0: f1e6 3f3e aaf2 f8bc 1235 3ebe aa1f 5dbe
000000e0: 4107 74be ed3f fbbd 48e4 52bd 5f38 233e
000000f0: 2e62 be3e 9e2e 953d f943 6f3d 6228 213e
00000100: ee02 83bd cf24 c43e 3167 44be 55fb c93d
00000110: 3e16 16be 2b8a a43e 8697 35be c873 18be
00000120: 4d7d dbbd 77be 7cbe ec15 093e 9bf0 773e
00000130: 7052 f4bd 207a a93d a611 da3d 7daa 7fbd
00000140: 3fae 51be e5c7 b8be aeb9 bebe d52d 6abe
00000150: fd1c 1c3e 344a a2be 7825 57be 44fe f3be
00000160: 7c59 063e cb57 1ebd 23da 2d3e 075e 02be
00000170: 76dc 4d3e fbde 7dbe c943 393e edfd a1bc
00000180: a5d8 43be 59ec 8c3b 0837 17be 6319 72be
00000190: a0a8 fe3d 3003 42be 1aa9 b83b bda9 983d
000001a0: 41bd 753e 9ec1 41be edad 023e 2d4d 35bd
000001b0: 4476 013e 1767 983c fbb9 4bbd 9ba0 89bc
000001c0: 2e0b 7fbe 75fa 3fbe e8fc 463d 70c6 49be
000001d0: 85f7 163e 6113 3ebd 9efe d5be 2042 0abe
000001e0: dca2 77be 7ffa 7d3d fd9e 9a3e 02aa 62be
000001f0: 4330 6dbc a42f 1cbe 468d ba3d 9d0f 7ebe
00000200: dd55 0c3d ca07 bbbd fbf3 8b3c 38e4 fa3b
00000210: 2e14 3f3d b7da a8bd eff7 503e 9f4d 883d
00000220: 037c 38bc aacd 363e 533b 81be 249f ce3d
00000230: 2bc2 2b3e 0c33 d53b a220 d6bd a979 e3bc
00000240: 39f8 693e 780d 8b3c 11b7 293e 2aa6 833e
00000250: db7c 313d 1e8f 4bbe 8964 afbd dc06 f3bd
00000260: 070a dd3b 80d0 0c3e 5dbe 023e 3a4e b4bd
00000270: e041 2ebe 01b3 78bd 939e ec3d c539 353e
00000280: 9ae6 48be 7e96 9fbd 0a0a dcbe b74a 7ebd
00000290: 15f6 41be 87dd 27be 952d a83d caec af3b
000002a0: c6ec d1bc a364 423e 2a6e 02be 4854 40be
000002b0: d169 4a3e 06fc f73d b0fb 95bd ac39 893e
000002c0: 0886 55be edc9 3cbb c4e3 17be 48dc f0bd
000002d0: 0253 92be 33b4 f43b 74d7 72be 87f5 11be
000002e0: 5a77 e9bd 8e05 4fbe c752 efbc 04cc 4c3d
000002f0: bd17 c3bc 3c30 25be 6d58 2d3e 9790 fcbc
00000300: 05cd dabd de60 93be 91bb 353e b586 423d
00000310: d935 f03d 6afd 1cbe 61b3 863e 14a0 1e3c
00000320: 5392 8a3e 8771 a23e c754 8e3d da17 ebbc
00000330: eed6 eebd 2924 3d3d 7577 9fbd 32c0 203e
00000340: b769 dd3e cee2 e4bd 6c86 ab3c 5b08 56be
00000350: 23b8 903d c25d 6b3d c127 1cbe 4004 023e
00000360: 3599 4ebe 45d6 e1bd 1c9e 9cbd 6eea 29be
00000370: 92f7 b9bc 5930 0dbd f2b6 f63d 2e5e acbc
00000380: ff8d 653d b56e 8e3e e885 b23c 8167 b3bd
00000390: 7fa5 23bd b63b 153c fc06 a33e 98d6 133e
000003a0: 25f9 58be cc81 913d 6746 6ebd 4b13 8c3e
000003b0: bd1a 2bbe 9fbe 353e c582 bdbe e0d7 6ebc
000003c0: ad6e 513e 686a 303e 4823 d73d 4408 0abe
000003d0: e171 833b ab9b 29be 1a97 8a3d bbb0 a9bd
000003e0: dcb3 e2bc 37b4 333d e397 50bc 4be0 0fbd
000003f0: 4bde 00be 2c4b efbd 709c 313e 1c8a 8cbe

network_body._body_endoder.seq_layers.0.bias f4 [128]
-0.0026882454 -6.432606e-05 0.0058820643 -0.0048099244 -0.0031081538 0.0025598754 0.0025279783 -0.0016596379
0.0033997227 0.0014414695 0.004365779 -0.0042417236 -0.0014064161 0.003646703 0.0046321047 0.0016754458
-0.0015828871 -0.004760749 -0.0033503114 -0.0019526972 -0.00044070074 3.884943e-05 0.0021791207 -0.003925821
0.0023416544 -0.004910029 -0.00018881577 0.0033116576 0.0017120014 -0.0020948478 0.001881492 -0.00430795
0.0019375685 -0.0021548797 -0.00590585 -0.00027915658 0.00023127097 0.0024174727 -0.0036823456 -0.002386938
-0.0025188357 -0.0027994881 0.0019507987 0.0037652804 -0.00075127906 0.0044395984 0.0032563182 -0.005370353
-0.0021388512 0.0021616758 0.0024501684 0.0028415464 -0.002335397 0.003620762 -0.0031618287 0.0012253956
-0.0028576055 -0.0023370467 -0.00012461626 -0.0025526965 0.0019950534 0.0017636203 0.003244912 -0.0011508325
0.0003465333 0.0024175993 -0.0002790507 0.0018765581 0.0018065873 -0.0019130034 -0.0022363665 -0.0005675631
0.0030416502 -0.001706937 -0.004147987 0.0014057416 -0.0026270691 0.002128137 0.0024651482 0.0017753965
0.002927696 0.0029268076 0.002338271 0.005870022 0.00033630492 0.0011575958 0.00065403146 -0.0015076248
-0.0015816793 -0.0044365483 0.0048006987 -0.0013185581 0.0044596056 0.0015173674 0.0016026823 -0.0023726532
-0.001914909 -0.00085741526 0.00252218 4.7891317e-05 -0.002729849 0.0019756805 0.0032018153 -0.00078055984
0.003007751 -0.0018692449 0.0028740678 -0.0046867435 0.0024837777 0.0017511091 -0.0032263615 -0.0016781095
0.0018084504 -0.0015005356 0.0020818529 -0.0010631626 -0.00036423796 0.0031564706 -0.00070188614 0.0023885358
0.0013140969 -0.0028396929 -0.003003771 -0.004113085 -0.005234636 -0.0016213665 -0.0039357054 8.747917e-05
00000000: 462d 30bb cae6 86b8 55be c03b 929c 9dbb
00000010: 2bb2 4bbb 95c3 273b 70ac 253b 3588 d9ba
00000020: e2cd 5e3b b1ef bc3a cf0e 8f3b 28fe 8abb
00000030: 7e57 b8ba 86fd 6e3b e9c8 973b a29a db3a
00000040: e178 cfba 0f00 9cbb e690 5bbb a5f1 ffba
00000050: da0d e7b9 42f2 2238 94cf 0e3b 2ca4 80bb
00000060: 7176 193b 4fe4 a0bb d9fc 45b9 6508 593b
00000070: 3c65 e03a b749 09bb 659c f63a b429 8dbb
00000080: 03f6 fd3a e238 0dbb dc85 c1bb c35b 92b9
00000090: 5481 7239 766e 1e3b 8253 71bb 2d6e 1cbb
000000a0: 0d13 25bb 9e77 37bb f1b1 ff3a ecc2 763b
000000b0: 7cf1 44ba 0d7a 913b f467 553b c9f9 afbb
000000c0: f82b 0cbb e7aa 0d3b 0193 203b 3d39 3a3b
000000d0: 760d 19bb 4e4a 6d3b af36 4fbb 749d a03a
000000e0: aa46 3bbb 2329 19bb 6cab 02b9 244b 27bb
000000f0: 71bf 023b 4729 e73a 97a8 543b 88d7 96ba
00000100: eaae b539 9670 1e3b 8d4d 92b9 d7f6 f53a
00000110: 03cb ec3a bebd faba 0190 12bb 84c8 14ba
00000120: 6c56 473b 4dbb dfba d6eb 87bb dc40 b83a
00000130: e82a 2cbb 3778 0b3b 538e 213b 6cb4 e83a
00000140: 97de 3f3b afcf 3f3b ad3d 193b 5059 c03b
00000150: 1552 b039 78ba 973a 4f73 2b3a 7e9b c5ba
00000160: 5a50 cfba 7760 91bb 2e4f 9d3b 78d3 acba
00000170: e221 923b 67e2 c63a 1811 d23a 847e 1bbb
00000180: affd faba 2ac4 60ba 294b 253b e9de 4838
00000190: 44e7 32bb 6b7a 013b 8cd5 513b 7c9e 4cba
000001a0: b01d 453b 7301 f5ba db5a 3c3b 4193 99bb
000001b0: e0c6 223b 7985 e53a 5d71 53bb 03f4 dbba
000001c0: 8709 ed3a 9fad c4ba b26f 083b d159 8bba
000001d0: 31f7 beb9 cadc 4e3b c8fe 37ba fb88 1c3b
000001e0: c63d ac3a 241a 3abb eada 44bb 0fc7 86bb
000001f0: 4f87 abbb 0884 d4ba 17f7 80bb 0675 b738

network_body._body_endoder.seq_layers.2.weight f4 [128, 128]
-0.036378328 0.040153902 -0.12386363 0.016592834 0.051903013 0.085862935 0.011832115 0.017513625
-0.032011542 -0.016737971 -0.055445466 0.10626933 -0.079608746 -0.22296183 0.13437521 -0.014560561
-0.050706718 -0.06875371 -0.04011799 0.0973292 0.12786834 0.21527627 -0.03957693 0.015727814
-0.11862475 0.016516576 -0.05340618 0.026596319 0.05146938 0.008389308 0.08163908 0.041227262
0.06977203 0.16580977 -0.016560862 -0.06742915 -0.024374396 -0.12343725 0.017539566 -0.018546576
-0.02703726 0.0109539395 -0.016869904 0.0065525235 0.13400787 -0.12838113 -0.12180662 -0.088942334
0.103096746 -0.106022514 0.032212034 -0.05366283 -0.049611 -0.03281793 -0.042505514 -0.12777494
-0.005041314 0.090191506 -0.022831913 0.07846956 0.025677 -0.044641886 -0.1157304 -0.017874159
-0.0044865357 -0.044412706 0.11668567 -0.067982815 0.021696458 0.1415457 -0.024015145 -0.08321049
-0.021538295 -0.042705704 0.036854945 -0.054608755 0.077463865 -0.17313802 -0.0917826 -0.04426455
-0.118433274 0.041004583 -0.0790484 -0.13222666 -0.005668964 -0.0027108525 -0.02534275 -0.068958715
0.050543953 -0.01142205 -0.14557064 0.0056364094 0.09965504 0.052078582 -0.026761891 -0.019457616
0.18177457 -0.0670822 -0.06021103 0.009442231 -0.15791401 -0.047576547 0.04510515 0.082746714
0.089078724 -0.11624578 -0.040668063 0.09438524 -0.088643484 -0.03578745 -0.030375564 -0.03914406
-0.0031885859 0.15122002 -0.0035985447 -0.042176392 0.0024420563 -0.16438462 0.009319575 0.14367522
0.13009018 0.0392276 -0.0677183 -0.07059786 0.080399066 -0.0753937 -0.04815797 0.06655123
-0.0724516 -0.034150247 0.026310528 -0.04024024 -0.009566707 0.06957196 -0.07462315 -0.0636893
-0.086323 0.069774725 0.036703084 0.09023517 -0.08524896 0.12943862 -0.039778784 0.074216284
-0.006108444 -0.0496377 0.18153013 0.042476155 -0.027441341 -0.06899549 0.042339254 0.100647114
-0.011508151 0.034761813 0.06134247 0.11890375 0.009911804 0.15844652 -0.010617363 0.081694536
-0.10712696 -0.05820643 -0.08865774 0.0032621534 -0.025815506 0.24659915 0.15214339 0.041153148
0.06930462 -0.0491815 -0.061968446 -0.12755814 0.042448353 -0.12320894 0.04974774 0.108492896
0.090680644 -0.0028829048 -0.04475405 0.11594748 -0.10269828 0.12682639 -0.022798354 0.12114347
0.019059261 0.044587303 -0.03317224 -0.008878295 0.038897865 -0.028158315 -0.13249137 0.20153494
-0.006459902 -0.16581732 0.013979233 0.01745031 0.07446905 -0.1052137 -0.028706603 0.0652701
-0.015246077 0.028147683 0.012986519 0.049680334 -0.037298966 -0.028684862 0.03688168 0.019854313
-0.15348372 0.010281202 -0.082314 0.02859523 -0.20030576 -0.22811323 0.1871018 -0.11928557
0.06821846 -0.05532413 0.005416728 -0.0138122635 -0.15257695 0.04918027 -0.022737423 -0.008349096
-0.13806534 -0.04486407 0.21609731 -0.038447298 -0.0135402875 -0.11337932 -0.067061305 0.11897117
-0.0017248902 -0.08221037 -0.115552716 0.025373613 -0.061436586 -0.02560392 -0.13604224 0.04708227
0.119563304 0.12237996 0.16322833 -0.045027237 0.021387745 -0.049126882 -0.104119055 -0.061967257
-0.03002017 -0.14461923 -0.05907752 -0.06793992 -0.09868103 -0.089647755 0.019311588 -0.018617034
00000000: 7101 15bd 6b78 243d 37ac fdbd b2ed 873c
00000010: 4198 543d e8d8 af3d 7ddb 413c bc78 8f3c
00000020: 891e 03bd 121e 89bc c91a 63bd bca3 d93d
00000030: e909 a3bd 1b50 64be a899 093e 6b8f 6ebc
00000040: d9b1 4fbd bfce 8cbd c352 24bd 8854 c73d
00000050: ebef 023e 6271 5c3e 6b1b 22bd 9ed7 803c
00000060: 88f1 f2bd c54d 873c 70c0 5abd 86e0 d93c
00000070: 8ed1 523d 4f73 093c 6432 a73d ebdd 283d
00000080: a3e4 8e3d 09ca 293e a5aa 87bc 4b18 8abd
00000090: d0ac c7bc abcc fcbd 23af 8f3c fdee 97bc
000000a0: 3e7d ddbc 2778 333c c132 8abc 8db6 d63b
000000b0: 5c39 093e 5876 03be c075 f9bd 6627 b6bd
000000c0: 6324 d33d 5522 d9bd c4f0 033d 8ecd 5bbd
000000d0: e734 4bbd 186c 06bd 431a 2ebd 6fd7 02be
000000e0: 9b31 a5bb 53b6 b83d fe09 bbbc a6b4 a03d
000000f0: 9258 d23c 69da 36bd 0f04 edbd d46c 92bc
00000100: ca03 93bb 19ea 35bd e6f8 ee3d 933a 8bbd
00000110: c5bc b13c 5bf1 103e 69bb c4bc 436a aabd
00000120: 1471 b0bc 2dec 2ebd 36f5 163d 6ead 5fbd
00000130: 60a5 9e3d 184b 31be 84f8 bbbd bf4e 35bd
00000140: 258d f2bd 6cf4 273d 21e4 a1bd 6d66 07be
00000150: b7c2 b9bb 8fa8 31bb 999b cfbc 3a3a 8dbd
00000160: 2d07 4f3d 8d23 3bbc 7810 15be a1b1 b83b
00000170: f117 cc3d 5a50 553d c13b dbbc 9465 9fbc
00000180: 1d23 3a3e 6462 89bd d79f 76bd 96b3 1a3c
00000190: 36b4 21be a0df 42bd 2ec0 383d 1c77 a93d
000001a0: e86e b63d 4412 eebd 8e93 26bd 0c4d c13d
000001b0: b78a b5bd dc95 12bd 2dd6 f8bc 8655 20bd
000001c0: 98f7 50bb 6cd9 1a3e 90d5 6bbb 27c1 2cbd
000001d0: e80a 203b 7154 28be 21b1 183c 991f 133e
000001e0: 5c36 053e 1fad 203d e4af 8abd 9c95 90bd
000001f0: 44a8 a43d 0368 9abd 4b41 45bd 034c 883d
00000200: 8161 94bd 21e1 0bbd 2d89 d73c f3d2 24bd
00000210: adbd 1cbc be7b 8e3d 06d4 98bd 896f 82bd
00000220: 1dca b0bd 0de6 8e3d f955 163d 38cd b83d
00000230: 0297 aebd 8f8b 043e 14ef 22bd b5fe 973d
00000240: 5829 c8bb e750 4bbd 09e3 393e 7afb 2d3d
00000250: aacc e0bc 824d 8dbd ed6b 2d3d 1320 ce3d
00000260: af8c 3cbc 6762 0e3d 3e42 7b3d cf83 f33d
00000270: 1f65 223c ce3f 223e 73f4 2dbc 774f a73d
00000280: 6165 dbbd de69 6ebd 3092 b5bd dac9 553b
00000290: 0a7b d3bc 7d84 7c3e 7acb 1b3e 3490 283d
000002a0: 95ef 8d3d 8a72 49bd a0d2 7dbd 9a9e 02be
000002b0: 53de 2d3d f854 fcbd 49c4 4b3d 8631 de3d
000002c0: c6b6 b93d 1eef 3cbb 0650 37bd df75 ed3d
000002d0: 7a53 d2bd c7de 013e 9dc3 babc 111a f83d
000002e0: 2b22 9c3c 2da1 363d 9ddf 07bd 4576 11bc
000002f0: 5e53 1f3d 44ac e6bc d1ab 07be 2d5f 4e3e
00000300: 96ad d3bb 04cc 29be 2709 653c f4f3 8e3c
00000310: 3b83 983d 487a d7bd 1c2a ebbc 55ac 853d
00000320: afca 79bc f895 e63c 69c5 543c 9b7d 4b3d
00000330: cdc6 18bd 84fc eabc 3f11 173d 83a5 a23c
00000340: d62a 1dbe 7d72 283c 3e94 a8bd 8b40 ea3c
00000350: f41c 4dbe 8496 69be 9d97 3f3e fe4b f4bd
00000360: 1fb6 8b3d 8e9b 62bd cf7e b13b d54c 62bc
00000370: 223d 1cbe 4071 493d d543 babc a6ca 08bc
00000380: 0061 0dbe 63c3 37bd 9d48 5d3e ea7a 1dbd
00000390: 15d8 5dbc 6b33 e8bd 7057 89bd 28a7 f33d
000003a0: b615 e2ba e95d a8bd e7a6 ecbd 53dc cf3c
000003b0: eea4 7bbd 50bf d1bc a84e 0bbe 57d9 403d
000003c0: 9bdd f43d 58a2 fa3d 5425 273e 7b6e 38bd
000003d0: 5a35 af3c 4539 49bd 5f3c d5bd 61d1 7dbd
000003e0: dcec f5bc 1017 14be 45fb 71bd 1624 8bbd
000003f0: 4819 cabd 3e99 b7bd 5633 9e3c c082 98bc

network_body._body_endoder.seq_layers.2.bias f4 [128]
-0.0025278167 0.0010148389 -0.0030575723 0.0032662994 0.002776303 0.002163324 -0.0033095405 -0.0027754488
0.0023023211 0.0029877275 0.002184329 -0.0025992217 -0.0034691654 0.0037665926 -0.0021670926 -0.002997621
0.00051738555 -0.002503793 0.00011648019 0.00041439198 0.0009872154 0.002513596 0.00285803 -0.00029192507
-0.0033971223 -0.002499864 0.002160289 -0.0025254032 -0.00056590844 -0.0018007983 -0.00066323497 -0.0032293051
0.00315161 0.0006593677 -0.0009940861 0.00087800476 0.0025191035 -0.0026510074 -0.0035717778 -0.0027471997
0.0043650838 0.0023691754 0.0022182148 0.0023876557 0.003398946 -0.0027943703 -0.0024080775 0.003200619
-0.0014143578 0.00177277 -0.0008401483 0.00268937 0.002517564 0.002567598 -0.0024487805 -0.0033392906
0.0025600032 -0.0027356984 0.002335552 -0.0040863086 0.0036079062 0.0013191378 -0.0015462383 0.002344138
-0.0023922818 -0.0045883884 -0.00020891978 -0.0026901404 7.60763e-05 0.0019667144 -0.0025320544 0.002742754
-0.004454268 0.0018689986 -0.0020239153 0.000940414 -0.000233027 -0.00028476326 0.0010901446 0.0031561214
0.0025262116 -0.0030497792 -0.0019019111 0.00034822163 0.0016993333 -0.00061323185 -0.0025236537 -0.0018962539
-0.0028901952 6.069871e-05 -0.00049852626 -0.0023170295 0.0025792741 0.0026202854 0.0019929912 0.002425917
0.003110286 -0.002840431 0.0026040447 -0.0008600932 0.002461043 0.0015764779 -0.0025938735 0.0026318934
0.0030482132 -0.0025031124 0.0014201171 -0.0020765336 -0.0017856292 0.0023040974 0.002338223 0.0025972717
0.0038078867 -0.0029135703 -0.0025657066 -0.0040685427 -0.0032876094 -0.0022219652 -0.0027349896 -1.8472643e-05
0.003078091 0.0027016704 -0.0032391734 -0.00354618 0.0024507917 -0.0026580368 0.0028961115 -0.004377292
00000000: baa9 25bb 5804 853a 8d61 48bb 690f 563b
00000010: a3f2 353b 8ec6 0d3b e0e4 58bb 4ee4 35bb
00000020: 8ae2 163b c0cd 433b f626 0f3b b457 2abb
00000030: f05a 63bb f0d8 763b c805 0ebb bc73 44bb
00000040: 28a1 073a ad16 24bb d346 f438 c042 d939
00000050: 7465 813a 25bb 243b c94d 3b3b 850d 99b9
00000060: 41a2 5ebb c2d4 23bb a393 0d3b 3c81 25bb
00000070: 7959 14ba c408 ecba f2dc 2dba c0a2 53bb
00000080: 3e8b 4e3b 6bd9 2c3a ff4b 82ba e729 663a
00000090: 8b17 253b 86bc 2dbb 7d14 6abb 5d0a 34bb
000000a0: fa08 8f3b 2b44 1b3b 785f 113b 377a 1c3b
000000b0: dac0 5e3b c121 37bb d6d0 1dbb 7ac1 513b
000000c0: f961 b9ba 4a5c e83a 663d 5cba 2440 303b
000000d0: b7fd 243b 2545 283b b87b 20bb 00d8 5abb
000000e0: bac5 273b 6749 33bb 0f10 193b 71e6 85bb
000000f0: 9f72 6c3b ebe6 ac3a 26ab caba 1ca0 193b
00000100: d4c7 1cbb 315a 96bb 7a11 5bb9 114d 30bb
00000110: 278b 9f38 fee3 003b d3f0 25bb c7bf 333b
00000120: 1cf5 91bb 30f9 f43a aaa3 04bb 1d86 763a
00000130: b658 74b9 474c 95b9 2fe3 8e3a eed6 4e3b
00000140: cc8e 253b cede 47bb 8c49 f9ba 8491 b639
00000150: 2abc de3a 4bc1 20ba e263 25bb b98b f8ba
00000160: 6e69 3dbb be96 7e38 88af 02ba 4ed9 17bb
00000170: 0a09 293b 18b9 2b3b d89c 023b 22fc 1e3b
00000180: f1d5 4b3b 8626 3abb 9fa8 2a3b e177 61ba
00000190: 7349 213b d2a1 ce3a fafd 29bb d87b 2c3b
000001a0: 88c4 473b 420b 24bb 3923 ba3a 7416 08bb
000001b0: c60b eaba 5700 173b df3c 193b fd36 2a3b
000001c0: bd8d 793b 99f1 3ebb 6a25 28bb 6951 85bb
000001d0: ef74 57bb 649e 11bb 833d 33bb b3f5 9ab7
000001e0: ccb9 493b 820e 313b 5048 54bb 0767 68bb
000001f0: 769d 203b 7532 2ebb b0cc 3d3b 636f 8fbb

action_model._continuous_distribution.log_sigma f4 [1, 2]
-0.00431547 -0.0007504695
00000000: c968 8dbb 28bb 44ba

action_model._continuous_distribution.mu.weight f4 [2, 128]
0.024805013 -0.0022885893 0.01222316 -0.012014296 -0.03842164 -0.0046098037 0.026432129 0.013491184
-0.016379127 -0.029611984 -0.005902076 0.002101073 0.041397043 -0.026927182 0.0012563711 0.035876956
-0.004388237 0.011101747 0.014770767 -0.011020023 -0.0014866488 -0.01926617 -0.0045054196 0.004969257
0.014600145 0.028675076 -0.02019306 0.007189792 0.011680728 0.016206026 0.0006189958 0.01078677
-0.011625325 -0.0022023914 -0.00074709277 -0.015509959 -0.0075034187 0.02879839 0.022662273 0.038981926
-0.037603743 -0.0071819536 -0.004373254 -0.023737513 -0.023952326 0.033163216 0.014635652 -0.024918944
0.005540404 -0.028121002 0.010381679 -0.012174677 -0.015718307 -0.02878124 0.028952219 0.016738828
-0.025947928 0.018964944 -0.0069210627 0.02490595 -0.02734894 -0.0011257377 0.0044651274 -0.007966563
0.02651186 0.0042145844 -0.01839756 0.0040985732 0.006396608 -0.0077693146 0.029722903 -0.004728779
0.040926114 -0.0069063455 0.004622525 -0.012033546 1.6665761e-05 -0.008360435 -0.009028224 -0.034108613
-0.035653014 0.010086163 0.023881936 0.0007690257 -0.0046870746 0.002411187 0.011151041 0.03318268
0.014624069 0.005193163 0.012822834 0.012856838 -0.05004382 -0.025848988 -0.009814903 -0.037578776
-0.007822559 0.017944591 -0.013520651 0.0024871351 -0.020638134 -0.003028454 0.011381345 -0.023802005
-0.053911194 0.023060149 0.0038218827 0.012101464 0.012764254 -0.009727692 -0.0040171985 -0.00695089
-0.013983614 0.011093999 0.055794466 0.015334094 0.032076534 0.0034491995 0.014983863 0.007608451
-0.043726474 -0.0141629 0.03763819 0.020622695 -0.015802257 0.0026573255 -0.030502966 0.026784878
0.030878006 -0.016995233 -1.92051e-05 0.007982462 0.020056425 -0.0001598722 -0.013906493 0.01514659
0.0059583904 -0.010117468 -0.012123376 0.008995791 -0.0059233904 -0.017693147 -0.003332105 0.005184429
0.020158466 -0.007121473 -0.033506922 0.021183759 -0.04018417 0.0037662324 -0.015690545 -0.021560216
0.004863832 -0.020535044 -0.02456532 0.040377192 -0.022071537 -0.013963189 0.024341112 0.014920382
-0.0041197846 0.0019454325 0.022788292 0.014004353 -0.009315994 0.00078846514 0.0045852885 0.0060820165
0.0073318654 -0.0077825873 -0.023164215 0.0033354855 -0.012228179 -0.007770349 -0.016188439 -0.014498397
0.017247008 0.015640242 -0.021429865 0.012306478 -0.03208715 -0.019487612 0.012120174 0.0060478724
-0.00450395 0.04488554 -0.022142747 0.0031674302 -0.009879246 -0.006310598 0.021366375 -0.019164966
0.03122671 0.0023340385 0.039444122 0.0042893942 -0.012879215 -0.021087827 0.023296792 -0.0017796869
0.0167903 -0.016142769 0.014446438 0.021555273 0.026405035 0.036356073 0.024215745 -0.011583742
0.009844964 0.007189553 -0.017830985 0.009331451 0.0011971265 -0.007771037 0.015771894 -0.01642898
0.017489767 -0.007146671 -0.022655517 0.0249468 0.0010388367 -0.0013136523 0.0060458556 -0.009890751
0.00068493234 0.008409453 0.013716276 0.0003320343 -0.014291884 -0.014692786 0.00906703 0.008048998
0.003323933 0.0340058 -0.024148237 -0.013152981 0.038931087 -0.016896898 -0.00971283 -1.30099825e-05
0.004683515 0.006596892 -0.02574031 0.005524156 0.015768588 0.006921106 0.02172916 -0.031690795
0.0059311227 -0.00042606724 0.0017985429 0.009825885 -0.02439833 -0.0005068615 0.0067497185 0.0021798706
00000000: e233 cb3c 28fc 15bb a643 483c 9cd7 44bc
00000010: 0260 1dbd d60d 97bb 3188 d83c 210a 5d3c
00000020: 852d 86bc d594 f2bc 3466 c1bb 28b2 093b
00000030: f28f 293d 6596 dcbc d2ac a43a b7f3 123d
00000040: 33cb 8fbb 1ae4 353c 1601 723c 548d 34bc
00000050: a8db c2ba 16d4 9dbc 33a2 93bb 26d5 a23b
00000060: 7235 6f3c fee7 ea3c eb6b a5bc 5998 eb3b
00000070: 8660 3f3c 80c2 843c 1b44 223a feba 303c
00000080: 2678 3ebc ff55 10bb 8cd8 43ba 7c1d 7ebc
00000090: 3ddf f5bb 9aea eb3c 3ba6 b93c 83ab 1f3d
000000a0: 6206 1abd 9856 ebbb 834d 8fbb 2c75 c2bc
000000b0: ab37 c4bc 27d6 073d 60ca 6f3c d022 ccbc
000000c0: 478c b53b 045e e6bc eb17 2a3c 4c78 47bc
000000d0: aec3 80bc a3c6 ebbc 342d ed3c de1f 893c
000000e0: c090 d4bc 5f5c 9b3c 15ca e2bb 9007 cc3c
000000f0: e20a e0bc 7d8d 93ba 3450 923b 3086 02bc
00000100: 662f d93c 7f1a 8a3b 7bb6 96bc 534d 863b
00000110: a39a d13b bc95 febb 727d f33c e0f3 9abb
00000120: 24a2 273d a04e e2bb 8d78 973b 5a28 45bc
00000130: 73cd 8b37 35fa 08bc 1eeb 13bc 79b5 0bbd
00000140: e508 12bd 6f40 253c 0da4 c33c 7198 493a
00000150: 0896 99bb 0105 1e3b dbb2 363c 90ea 073d
00000160: cb99 6f3c 692b aa3b dd16 523c 7da5 523c
00000170: c0fa 4cbd 42c1 d3bc b0ce 20bc 34ec 19bd
00000180: 312a 00bc 8900 933c b885 5dbc 34ff 223b
00000190: 4e11 a9bc 0779 46bb d278 3a3c 6cfc c2bc
000001a0: fcd1 5cbd a3e8 bc3c 8d78 7a3b 3845 463c
000001b0: 2921 513c e660 1fbc b4a2 83bb 4bc4 e3bb
000001c0: 871b 65bc 9bc3 353c bd88 643d da3b 7b3c
000001d0: af62 033d f70b 623b e07e 753c 5050 f93b
000001e0: 881a 33bd 820b 68bc 812a 1a3d edf0 a83c
000001f0: bc73 81bc 8626 2e3b 5be1 f9bc f66b db3c
00000200: dff3 fc3c 9639 8bbc a31a a1b7 dfc8 023c
00000210: 5f4d a43c 5ea3 27b9 0fd8 63bc 6729 783c
00000220: 9a3e c33b bdc3 25bc 20a1 46bc 1563 133c
00000230: 0019 c2bb 38f1 90bc 725f 5abb 25e2 a93b
00000240: 5e23 a53c 3f5b e9bb 8e3e 09bd 9089 ad3c
00000250: 2898 24bd e5d2 763b 7589 80bc 0d9f b0bc
00000260: c860 9f3b 1c39 a8bc 363d c9bc 8e62 253d
00000270: 5ecf b4bc dcc5 64bc 0367 c73c 9e74 743c
00000280: 42ff 86bb e2fd fe3a 83ae ba3c 8472 653c
00000290: 1ca2 18bc 00b1 4e3a 3040 963b a74b c73b
000002a0: 2540 f03b 1305 ffbb e1c2 bdbc 2998 5a3b
000002b0: b358 48bc 699e febb 9e9d 84bc af8a 6dbc
000002c0: 9949 8d3c f71f 803c af8d afbc 1ca1 493c
000002d0: d16d 03bd 7ca4 9fbc b293 463c 3b2d c63b
000002e0: df95 93bb e6d9 373d b564 b5bc a994 4f3b
000002f0: 90dc 21bc 22c9 cebb 8908 af3c d9ff 9cbc
00000300: 28cf ff3c abf6 183b 2990 213d 0c8e 8c3b
00000310: 5803 53bc 61c0 acbc ead8 be3c 6244 e9ba
00000320: d08b 893c d73d 84bc c1b0 6c3c af94 b03c
00000330: 5f4f d83c 1bea 143d 1960 c63c bcc9 3dbc
00000340: c64c 213c 5896 eb3b 4912 92bc f1e2 183c
00000350: e6e8 9c3a 2fa4 febb 0f34 813c 1196 86bc
00000360: b346 8f3c 9f2e eabb 1098 b9bc 3b5d cc3c
00000370: 9329 883a db2e acba 501c c63b d10c 22bc
00000380: 088d 333a cdc7 093c 3bba 603c e414 ae39
00000390: 8228 6abc 03ba 70bc e18d 143c f2df 033c
000003a0: 58d6 593b aa49 0b3d 86d2 c5bc 9a7f 57bc
000003b0: 3476 1f3d 5d6b 8abc 9022 1fbc 7345 5ab7
000003c0: 2c78 993b be2a d83b 58dd d2bc fb03 b53b
000003d0: 202d 813c 72ca e23b 5a01 b23c 35ce 01bd
000003e0: dd59 c23b c761 dfb9 16bd eb3a c0fc 203c
000003f0: 02df c7bc e6de 04ba be2c dd3b 29dc 0e3b

action_model._continuous_distribution.mu.bias f4 [2]
-0.0028832473 -0.0010420181
00000000: ddf4 3cbb 5394 88ba

exp_avg f4 [128, 35]
0.0 0.0 7.3888928e-06 1.291457e-05 0.0 0.0 3.198767e-07 7.1126933e-06
0.0 0.0 1.0540084e-05 1.9008097e-05 0.0 0.0 1.3482202e-05 1.4818876e-05
0.0 0.0 2.4221015e-05 2.4298935e-05 0.0 0.0 2.2656618e-06 2.6022215e-06
0.0 0.0 -7.329092e-07 1.0393156e-06 0.0 0.0 1.994906e-06 3.1252425e-06
5.1616203e-06 -1.5921554e-06 4.924993e-06 0.0 0.0 2.2744205e-06 5.1607544e-06 0.0
0.0 1.3260907e-05 1.2280767e-05 0.0 0.0 4.922872e-06 4.480425e-06 0.0
0.0 1.2082809e-05 1.15913535e-05 0.0 0.0 6.718826e-06 3.0909687e-06 0.0
0.0 3.043948e-06 4.0409473e-06 0.0 0.0 6.3764155e-06 6.941664e-06 0.0
0.0 3.1159661e-06 3.738459e-06 -4.495384e-06 3.831383e-06 7.489951e-06 0.0 0.0
-7.875218e-06 -1.052195e-05 0.0 0.0 -3.0011283e-06 -8.664569e-06 0.0 0.0
-3.5285486e-06 -1.2456559e-05 0.0 0.0 -2.0671327e-05 -2.2464124e-05 0.0 0.0
-2.07313e-05 -2.5732128e-05 0.0 0.0 1.133054e-06 -1.4974746e-06 0.0 0.0
3.5303183e-06 7.9576824e-07 0.0 0.0 -6.274205e-07 -2.8309532e-06 1.4494899e-06 -2.8495825e-07
-4.0059414e-05 0.0 0.0 6.3639027e-06 9.605911e-06 0.0 0.0 5.843071e-06
7.447916e-06 0.0 0.0 6.645999e-06 1.1025625e-05 0.0 0.0 1.0654378e-05
1.0835773e-05 0.0 0.0 1.2890913e-05 1.4583563e-05 0.0 0.0 9.03302e-07
1.9385166e-06 0.0 0.0 1.4151553e-08 1.5658486e-06 0.0 0.0 1.2176731e-06
2.429496e-06 1.3798735e-06 5.1621055e-07 2.044379e-05 0.0 0.0 -1.0886115e-07 1.9387071e-05
0.0 0.0 3.1770727e-05 2.9340556e-05 0.0 0.0 2.234315e-05 2.5556392e-05
0.0 0.0 2.4759456e-05 2.350033e-05 0.0 0.0 2.7719569e-05 2.1221651e-05
0.0 0.0 -2.6919936e-06 4.549609e-06 0.0 0.0 -4.837964e-07 8.09813e-06
0.0 0.0 -2.2486722e-06 4.839885e-06 2.8454242e-06 6.716037e-07 8.2349925e-06 0.0
0.0 -2.6608454e-06 -4.6067244e-06 0.0 0.0 5.009902e-07 -2.2636484e-06 0.0
0.0 -3.2988617e-06 -6.6744556e-06 0.0 0.0 -5.4010407e-06 -5.771122e-06 0.0
0.0 -8.725505e-06 -9.982147e-06 0.0 0.0 -1.3833034e-06 -2.1712308e-06 0.0
0.0 -3.058687e-07 -1.37157e-06 0.0 0.0 -1.6734948e-06 -2.5578756e-06 -2.5580464e-06
1.2523205e-06 -5.587687e-06 0.0 0.0 -2.7758082e-05 -2.9589506e-05 0.0 0.0
1.5198496e-05 -7.364854e-06 0.0 0.0 -2.7709357e-06 -3.1974916e-05 0.0 0.0
-3.9908347e-05 -4.2509735e-05 0.0 0.0 -4.9691367e-05 -6.0201743e-05 0.0 0.0
-1.7717798e-06 2.9208385e-07 0.0 0.0 1.6465556e-05 1.6107402e-05 0.0 0.0
-5.3784315e-06 -5.2539617e-06 -7.720451e-06 5.9880517e-06 -2.858159e-05 0.0 0.0 -8.477461e-06
5.201851e-06 0.0 0.0 1.0398654e-06 6.4350666e-06 0.0 0.0 3.0586796e-06
00000000: 0000 0000 0000 0000 1bee f736 a8ab 5837
00000010: 0000 0000 0000 0000 85bb ab34 92a9 ee36
00000020: 0000 0000 0000 0000 51d5 3037 9473 9f37
00000030: 0000 0000 0000 0000 9e31 6237 969e 7837
00000040: 0000 0000 0000 0000 3c2e cb37 91d5 cb37
00000050: 0000 0000 0000 0000 c60b 1836 d3a1 2e36
00000060: 0000 0000 0000 0000 23bd 44b5 9d7e 8b35
00000070: 0000 0000 0000 0000 39e0 0536 42bb 5136
00000080: fb31 ad36 0bb2 d5b5 5e41 a536 0000 0000
00000090: 0000 0000 3fa2 1836 8b2a ad36 0000 0000
000000a0: 0000 0000 297b 5e37 7e09 4e37 0000 0000
000000b0: 0000 0000 262f a536 8f56 9636 0000 0000
000000c0: 0000 0000 45b7 4a37 7c78 4237 0000 0000
000000d0: 0000 0000 4772 e136 706e 4f36 0000 0000
000000e0: 0000 0000 a146 4c36 7997 8736 0000 0000
000000f0: 0000 0000 fef4 d536 71ec e836 0000 0000
00000100: 0000 0000 e41b 5136 3de2 7a36 0ed7 96b6
00000110: 548f 8036 3052 fb36 0000 0000 0000 0000
00000120: ce1f 04b7 6e87 30b7 0000 0000 0000 0000
00000130: fe66 49b6 0a5e 11b7 0000 0000 0000 0000
00000140: 01cc 6cb6 83fc 50b7 0000 0000 0000 0000
00000150: 5667 adb7 5771 bcb7 0000 0000 0000 0000
00000160: 21e8 adb7 53db d7b7 0000 0000 0000 0000
00000170: 7013 9835 d6fc c8b5 0000 0000 0000 0000
00000180: 68ea 6c36 c79c 5535 0000 0000 0000 0000
00000190: 026c 28b5 68fb 3db6 188c c235 5dfc 98b4
000001a0: 7805 28b8 0000 0000 0000 0000 8289 d536
000001b0: 1329 2137 0000 0000 0000 0000 990f c436
000001c0: 1ce9 f936 0000 0000 0000 0000 b200 df36
000001d0: b3fa 3837 0000 0000 0000 0000 34c0 3237
000001e0: 4acb 3537 0000 0000 0000 0000 0d46 5837
000001f0: edab 7437 0000 0000 0000 0000 717a 7235
00000200: 7617 0236 0000 0000 0000 0000 301f 7332
00000210: 262a d235 0000 0000 0000 0000 ee6e a335
00000220: 6c0a 2336 1834 b935 b891 0a35 b47e ab37
00000230: 0000 0000 0000 0000 0dc7 e9b3 6ba1 a237
00000240: 0000 0000 0000 0000 8f41 0538 5d20 f637
00000250: 0000 0000 0000 0000 8d6d bb37 ef61 d637
00000260: 0000 0000 0000 0000 87b2 cf37 9322 c537
00000270: 0000 0000 0000 0000 5287 e837 2605 b237
00000280: 0000 0000 0000 0000 19a8 34b6 d8a8 9836
00000290: 0000 0000 0000 0000 3cde 01b5 34dd 0737
000002a0: 0000 0000 0000 0000 e5e7 16b6 4c66 a236
000002b0: 04f4 3e36 4148 3435 0629 0a37 0000 0000
000002c0: 0000 0000 fa90 32b6 7693 9ab6 0000 0000
000002d0: 0000 0000 c97b 0635 2fe9 17b6 0000 0000
000002e0: 0000 0000 0362 5db6 23f5 dfb6 0000 0000
000002f0: 0000 0000 963a b5b6 8fa5 c1b6 0000 0000
00000300: 0000 0000 c263 12b7 ff78 27b7 0000 0000
00000310: 0000 0000 f1a9 b9b5 76b5 11b6 0000 0000
00000320: 0000 0000 4636 a4b4 c916 b8b5 0000 0000
00000330: 0000 0000 d89c e0b5 f8a7 2bb6 e7aa 2bb6
00000340: 6815 a835 de7d bbb6 0000 0000 0000 0000
00000350: 07da e8b7 fb36 f8b7 0000 0000 0000 0000
00000360: 0bfd 7e37 9d1f f7b6 0000 0000 0000 0000
00000370: 50f4 39b6 ce1c 06b8 0000 0000 0000 0000
00000380: 4363 27b8 7b4c 32b8 0000 0000 0000 0000
00000390: b36b 50b8 2181 7cb8 0000 0000 0000 0000
000003a0: e4cd edb5 b3cf 9c34 0000 0000 0000 0000
000003b0: 831f 8a37 621e 8737 0000 0000 0000 0000
000003c0: 6078 b4b6 304b b0b6 1687 01b7 f9ec c836
000003d0: 7fc2 efb7 0000 0000 0000 0000 6b3a 0eb7
000003e0: 8f8b ae36 0000 0000 0000 0000 8191 8b35
000003f0: cdec d736 0000 0000 0000 0000 b743 4d36

exp_avg_sq f4 [128, 35]
0.0 0.0 1.7856853e-10 2.0367887e-10 0.0 0.0 1.606772e-10 1.692313e-10
0.0 0.0 2.2868661e-10 2.3594066e-10 0.0 0.0 1.8269611e-10 1.91951e-10
0.0 0.0 2.5325786e-10 2.6090025e-10 0.0 0.0 1.4006495e-10 1.4856463e-10
0.0 0.0 1.4210318e-10 1.5087591e-10 0.0 0.0 1.4183296e-10 1.5065946e-10
9.772402e-12 1.7039935e-11 3.9811426e-10 0.0 0.0 4.3747915e-11 4.2269684e-11 0.0
0.0 2.5623049e-11 2.8555533e-11 0.0 0.0 4.5443527e-11 4.400709e-11 0.0
0.0 3.1673417e-11 3.376674e-11 0.0 0.0 3.1056636e-11 3.6052338e-11 0.0
0.0 3.6720717e-11 3.66892e-11 0.0 0.0 3.6424086e-11 3.6757836e-11 0.0
0.0 3.604084e-11 3.6052054e-11 5.6801642e-12 3.471303e-12 1.696927e-10 0.0 0.0
1.5733602e-11 1.839309e-11 0.0 0.0 1.6972123e-11 2.1449216e-11 0.0 0.0
1.8767958e-11 2.4552568e-11 0.0 0.0 4.1346763e-11 4.346758e-11 0.0 0.0
4.4546426e-11 5.300947e-11 0.0 0.0 7.826165e-12 8.490994e-12 0.0 0.0
7.523114e-12 8.126421e-12 0.0 0.0 7.972326e-12 8.4771825e-12 2.0667584e-12 9.886019e-13
1.362315e-10 0.0 0.0 1.411742e-11 1.6509358e-11 0.0 0.0 8.316678e-12
9.587789e-12 0.0 0.0 1.5480828e-11 1.932278e-11 0.0 0.0 1.1341208e-11
1.2448885e-11 0.0 0.0 1.9221508e-11 2.3584065e-11 0.0 0.0 6.7552964e-12
7.38286e-12 0.0 0.0 6.726233e-12 7.205308e-12 0.0 0.0 6.851864e-12
7.550693e-12 6.351553e-13 5.6648376e-13 5.5854432e-11 0.0 0.0 1.3676017e-10 1.9627193e-10
0.0 0.0 2.423108e-10 2.4399613e-10 0.0 0.0 1.7512053e-10 2.1626037e-10
0.0 0.0 2.4160904e-10 2.4661034e-10 0.0 0.0 2.9643518e-10 2.6328092e-10
0.0 0.0 8.689453e-11 9.548966e-11 0.0 0.0 8.45253e-11 9.947114e-11
0.0 0.0 7.5413724e-11 8.6334224e-11 1.486108e-11 9.928341e-12 3.1683128e-10 0.0
0.0 5.588061e-11 5.982478e-11 0.0 0.0 4.7464043e-11 4.8426728e-11 0.0
0.0 6.251889e-11 6.547607e-11 0.0 0.0 5.298371e-11 5.507786e-11 0.0
0.0 6.70188e-11 7.212948e-11 0.0 0.0 4.820333e-11 4.9980065e-11 0.0
0.0 4.8593598e-11 5.0326833e-11 0.0 0.0 4.8613884e-11 5.0447695e-11 2.5687878e-12
6.6789014e-12 1.0310085e-10 0.0 0.0 1.4961618e-09 1.4707742e-09 0.0 0.0
8.730076e-10 1.0238476e-09 0.0 0.0 1.5389923e-09 1.4770923e-09 0.0 0.0
1.1965416e-09 1.2651027e-09 0.0 0.0 1.2357098e-09 1.3964877e-09 0.0 0.0
1.1236184e-09 1.1628968e-09 0.0 0.0 1.125382e-09 1.1821374e-09 0.0 0.0
1.1142669e-09 1.1653942e-09 1.4933352e-10 1.0118643e-10 3.1424383e-09 0.0 0.0 5.9369737e-10
6.2723843e-10 0.0 0.0 5.9597677e-10 5.9263044e-10 0.0 0.0 6.377339e-10
00000000: 0000 0000 0000 0000 9356 442f 81f2 5f2f
00000010: 0000 0000 0000 0000 9caa 302f 6012 3a2f
00000020: 0000 0000 0000 0000 8f71 7b2f b2b5 812f
00000030: 0000 0000 0000 0000 62e0 482f 670d 532f
00000040: 0000 0000 0000 0000 e03a 8b2f 726e 8f2f
00000050: 0000 0000 0000 0000 c700 1a2f 3a59 232f
00000060: 0000 0000 0000 0000 7d3e 1c2f cbe3 252f
00000070: 0000 0000 0000 0000 6ef2 1b2f dea6 252f
00000080: fcea 2b2d 86e2 952d 9add da2f 0000 0000
00000090: 0000 0000 c667 402e 6fe7 392e 0000 0000
000000a0: 0000 0000 fa61 e12d 582d fb2d 0000 0000
000000b0: 0000 0000 dddc 472e 948b 412e 0000 0000
000000c0: 0000 0000 194d 0b2e f881 142e 0000 0000
000000d0: 0000 0000 aa96 082e 538f 1e2e 0000 0000
000000e0: 0000 0000 da7f 212e 5e5c 212e 0000 0000
000000f0: 0000 0000 e031 202e a5a9 212e 0000 0000
00000100: 0000 0000 6182 1e2e 018f 1e2e 5fda c72c
00000110: 7045 742c 4094 3a2f 0000 0000 0000 0000
00000120: ec64 8a2d 8ec9 a12d 0000 0000 0000 0000
00000130: d349 952d 57ab bc2d 0000 0000 0000 0000
00000140: af15 a52d 78f7 d72d 0000 0000 0000 0000
00000150: 51d8 352e 252c 3f2e 0000 0000 0000 0000
00000160: d1ea 432e 5b23 692e 0000 0000 0000 0000
00000170: eaad 092d 0a60 152d 0000 0000 0000 0000
00000180: 1859 042d 26f6 0e2d 0000 0000 0000 0000
00000190: 2a40 0c2d d621 152d 696f 112c 2322 8b2b
000001a0: c2c9 152f 0000 0000 0000 0000 355b 782d
000001b0: c537 912d 0000 0000 0000 0000 fd4e 122d
000001c0: 90ab 282d 0000 0000 0000 0000 ba2b 882d
000001d0: 08f7 a92d 0000 0000 0000 0000 4384 472d
000001e0: cb00 5b2d 0000 0000 0000 0000 fd12 a92d
000001f0: 9872 cf2d 0000 0000 0000 0000 4dae ed2c
00000200: 72e1 012d 0000 0000 0000 0000 85a8 ec2c
00000210: a583 fd2c 0000 0000 0000 0000 1b14 f12c
00000220: 4cd5 042d c3c7 322b 7573 1f2b 80a6 752e
00000230: 0000 0000 0000 0000 915e 162f a3cd 572f
00000240: 0000 0000 0000 0000 3736 852f 6723 862f
00000250: 0000 0000 0000 0000 0c8c 402f e2c7 6d2f
00000260: 0000 0000 0000 0000 73d3 842f 5293 872f
00000270: 0000 0000 0000 0000 8bf7 a22f 7fbd 902f
00000280: 0000 0000 0000 0000 4615 bf2e e6fb d12e
00000290: 0000 0000 0000 0000 84df b92e 46bd da2e
000002a0: 0000 0000 0000 0000 27d6 a52e d9d9 bd2e
000002b0: 2db8 822d 46a9 2e2d 0a2e ae2f 0000 0000
000002c0: 0000 0000 f9c3 752e 5b8e 832e 0000 0000
000002d0: 0000 0000 c3bf 502e a6fb 542e 0000 0000
000002e0: 0000 0000 027b 892e c0fb 8f2e 0000 0000
000002f0: 0000 0000 5b06 692e 283c 722e 0000 0000
00000300: 0000 0000 3b60 932e 4a9d 9e2e 0000 0000
00000310: 0000 0000 2000 542e 8dd0 5b2e 0000 0000
00000320: 0000 0000 87b7 552e fa56 5d2e 0000 0000
00000330: 0000 0000 5ece 552e 0edf 5d2e 2bc3 342c
00000340: 32fe ea2c 9eb8 e22e 0000 0000 0000 0000
00000350: 83a1 cd30 4424 ca30 0000 0000 0000 0000
00000360: 73f8 6f30 6fb7 8c30 0000 0000 0000 0000
00000370: 7a84 d330 9102 cb30 0000 0000 0000 0000
00000380: 9173 a430 d8df ad30 0000 0000 0000 0000
00000390: acd5 a930 8bee bf30 0000 0000 0000 0000
000003a0: cf6d 9a30 cbd3 9f30 0000 0000 0000 0000
000003b0: dcab 9a30 c378 a230 0000 0000 0000 0000
000003c0: c824 9930 aa2b a030 a631 242f e582 de2e
000003d0: 5cf2 5731 0000 0000 0000 0000 bd31 2330
000003e0: fb69 2c30 0000 0000 0000 0000 23d2 2330
000003f0: a9e6 2230 0000 0000 0000 0000 894c 2f30

exp_avg f4 [128]
2.5038305e-05 -7.7738457e-07 -3.3852088e-05 1.672643e-05 1.5827143e-05 -1.1471652e-05 -7.660657e-05 1.5552232e-05
-3.26787e-05 -1.6500397e-05 -4.759902e-05 5.5356297e-05 -3.951697e-06 -4.4894252e-05 -1.8967641e-05 -6.8686104e-06
3.3212367e-05 9.164452e-05 2.8477218e-05 2.1641114e-05 -4.561187e-06 2.4687205e-07 -4.596219e-05 1.6438384e-05
-2.29786e-05 5.9355836e-05 -4.3241154e-05 -1.958492e-05 -3.163889e-05 1.182494e-05 -1.9505354e-05 2.2228789e-05
-7.943165e-06 3.6810066e-05 1.1828421e-05 1.5373341e-06 -3.6049155e-07 -3.120833e-05 6.624959e-05 4.240829e-06
1.3891402e-05 5.8258993e-05 -9.732048e-06 -9.577627e-05 4.578938e-06 -7.0770257e-06 -3.585549e-05 1.0856773e-05
5.018275e-05 -1.2108606e-05 -2.0415438e-05 -3.1938387e-05 1.9913345e-05 -2.9209341e-05 2.0760785e-05 -1.2990637e-05
2.6285077e-05 3.0374258e-05 -9.527619e-06 3.8244503e-05 -2.5580528e-06 -1.6463078e-05 -3.6949354e-05 9.195833e-06
-1.6072598e-05 -3.2247674e-05 1.3568983e-05 -4.7404774e-05 -2.347799e-05 2.1320599e-05 1.7036175e-05 1.28272795e-05
-5.8375368e-05 1.8964853e-05 6.8548675e-06 -2.159031e-05 2.1264403e-05 1.6787693e-06 -1.8346675e-05 -1.8369938e-05
-2.8796854e-05 -2.0039262e-05 -4.5880257e-05 -8.32852e-06 -4.1025103e-07 -1.0148073e-05 -1.7429937e-05 1.0808616e-05
5.842475e-06 1.7888062e-05 -2.484053e-05 6.1353658e-06 -9.577355e-06 -2.2550674e-05 -2.0509371e-05 8.384096e-06
2.588251e-05 1.8259849e-06 -2.0631944e-05 -3.9996517e-06 2.2447115e-05 2.962799e-06 -4.619243e-05 3.0804458e-06
-1.0980292e-05 2.3838666e-05 -6.536171e-05 2.067918e-05 -2.0164362e-05 -2.564987e-05 3.6364763e-05 1.1347558e-05
-1.365238e-05 1.352899e-05 -2.2598118e-05 1.7184186e-05 -1.0173197e-05 -2.6477432e-05 1.2556774e-06 -3.5469395e-05
-6.9367557e-06 4.4607146e-05 3.289532e-05 3.9372803e-06 9.634112e-06 2.3188759e-06 4.5789602e-05 2.7206697e-06
00000000: 5a09 d237 76ad 50b5 67fc 0db8 bc4f 8c37
00000010: 88c4 8437 5f76 40b7 d7a7 a0b8 2a76 8237
00000020: 7d10 09b8 556a 8ab7 0fa5 47b8 5f2e 6838
00000030: d298 84b6 d64c 3cb8 b31c 9fb7 ea78 e6b6
00000040: 824d 0b38 4731 c038 5ce2 ee37 f089 b537
00000050: 4c0c 99b6 d689 8434 87c7 40b8 29e5 8937
00000060: 2bc2 c0b7 d8f4 7838 d65d 35b8 4c4a a4b7
00000070: 00b4 04b8 bb63 4637 6e9f a3b7 f677 ba37
00000080: a243 05b7 8264 1a38 ae72 4637 6656 ce35
00000090: 9589 c1b4 b0e5 02b8 7aef 8a38 724c 8e36
000000a0: 1e0f 6937 1e5b 7438 d446 23b7 7edb c8b8
000000b0: c7a4 9936 3077 edb6 8a63 16b8 7c25 3637
000000c0: 517b 5238 1126 4bb7 d241 abb7 95f5 05b8
000000d0: 950b a737 9506 f5b7 7227 ae37 5cf2 59b7
000000e0: c67e dc37 39cc fe37 d0d8 1fb7 b968 2038
000000f0: 03ab 2bb6 311a 8ab7 11fa 1ab8 cd47 1a37
00000100: a4d3 86b7 ad41 07b8 57a6 6337 7dd4 46b8
00000110: 9af2 c4b7 a3d9 b237 e8e8 8e37 bf34 5737
00000120: 13d8 74b8 b616 9f37 dd02 e636 d61c b5b7
00000130: f560 b237 1352 e135 2fe7 99b7 2419 9ab7
00000140: c690 f1b7 fd19 a8b7 8d6f 40b8 b9ba 0bb7
00000150: 7940 dcb4 a441 2ab7 8136 92b7 a756 3537
00000160: 7a0a c436 520e 9637 a260 d0b7 64de cd36
00000170: 6dae 20b7 342b bdb7 8a0b acb7 6ba9 0c37
00000180: 441e d937 5d14 f535 c312 adb7 bf34 86b6
00000190: d04c bc37 80d4 4636 bebe 41b8 a8b9 4e36
000001a0: ff37 38b7 25f9 c737 cd12 89b8 3378 ad37
000001b0: a326 a9b7 ad2a d7b7 5e86 1838 6461 3e37
000001c0: 870c 65b7 92fa 6237 1791 bdb7 c226 9037
000001d0: 8cad 2ab7 da1b deb7 bf88 a835 f9c4 14b8
000001e0: 47c2 e8b6 8f18 3b38 15f9 0938 fb1c 8436
000001f0: 32a2 2137 fc9d 1b36 360e 4038 c094 3636

exp_avg_sq f4 [128]
2.667616e-10 4.1313737e-11 7.0383074e-11 2.947411e-11 2.5426258e-10 7.6356164e-11 1.5614775e-09 7.0175565e-10
1.8558238e-10 1.7972708e-10 3.2650302e-10 4.916024e-10 3.8071463e-10 3.9089815e-10 1.7639064e-11 1.6185912e-11
1.1164994e-09 7.4100415e-10 1.4390467e-10 4.4626963e-10 1.8800975e-11 1.058337e-11 1.891571e-09 3.6661642e-11
2.2307534e-10 2.998161e-10 3.0858938e-09 1.2392792e-10 5.8657684e-10 2.3556113e-10 3.8274636e-10 4.82095e-11
8.1534814e-11 8.5498153e-10 9.713297e-12 8.759567e-11 4.737007e-11 5.307973e-10 6.67448e-10 8.976307e-12
4.0835633e-11 1.7155133e-09 4.1329018e-10 1.5495183e-09 8.213511e-11 9.46879e-12 2.8381808e-10 5.8637045e-12
1.2695061e-09 1.2874934e-10 4.143597e-10 2.9431435e-10 3.3165612e-10 1.4331417e-10 6.240886e-11 1.0884265e-09
2.2661013e-10 9.1199764e-10 6.3630856e-10 8.806644e-10 1.2229925e-11 7.83722e-10 4.734546e-10 1.3636081e-10
3.035068e-11 8.9308255e-10 7.7809065e-10 3.6132595e-09 4.935641e-10 3.1902225e-10 2.7496358e-10 9.781975e-10
9.702211e-10 7.70155e-10 2.5336871e-11 5.358256e-10 1.6555639e-10 1.3649509e-11 2.4471963e-10 7.732896e-10
7.995001e-10 1.520559e-10 9.380842e-10 6.7343284e-12 6.814796e-10 1.6411626e-10 1.7007102e-09 3.7861164e-10
8.237486e-11 3.7237283e-11 5.9131464e-11 1.9673159e-10 1.1150136e-11 3.4841965e-10 1.1461712e-09 3.0274325e-11
6.2547434e-10 1.5698876e-11 3.4997205e-10 5.5266697e-11 3.882026e-10 2.7164263e-12 6.75683e-10 7.5408004e-12
4.801484e-11 4.7559967e-10 2.3558313e-09 3.2744276e-11 2.278131e-10 2.6180597e-10 3.2628533e-10 1.7364049e-10
1.6767324e-10 6.5904143e-10 6.9344014e-10 2.1426431e-10 1.3722155e-09 2.9264915e-10 3.289354e-11 1.1751875e-09
1.5754693e-11 1.7053482e-09 4.0649573e-10 1.2076951e-12 8.14561e-12 2.874137e-10 3.944877e-10 4.648535e-12
00000000: 5ca7 922f 22b3 352e 26c6 9a2e e6a0 012e
00000010: 47c8 8b2f b3e8 a72e 9b9b d630 aae5 4030
00000020: cc0c 4c2f ad9c 452f 377f b32f 7221 0730
00000030: d24c d12f 06e6 d62f a427 9b2d 6f5f 8e2d
00000040: 5573 9930 88af 4b30 9039 1e2f de56 f52f
00000050: 0860 a52d 432f 3a2d defc 0131 573d 212e
00000060: 2046 752f 5dd3 a42f 9e0f 5431 9c42 082f
00000070: ad3c 2130 4880 812f c36a d22f 1207 542e
00000080: 054c b32e fa03 6b30 cde0 2a2d fa9f c02e
00000090: f555 502e 8ae7 1130 7a77 3730 b1e9 1d2d
000000a0: d698 332e 42c7 eb30 6c35 e32f d4f6 d430
000000b0: f59d b42e a493 262d d807 9c2f 8e4f ce2c
000000c0: c67a ae30 b88f 0d2f f2cb e32f 10cd a12f
000000d0: 7354 b62f 5a93 1d2f 113d 892e 9a97 9530
000000e0: 1529 792f 21b0 7a30 3ce8 2e30 3f13 7230
000000f0: b026 572d 886d 5730 6824 0230 28ee 152f
00000100: d47b 052e 197d 7530 43e1 5530 224d 7831
00000110: 7cab 0730 6462 af2f af29 972f 4471 8630
00000120: 9f58 8530 d7b2 5330 90dd de2d 6049 1330
00000130: fb07 362f ec1f 702d 3a89 862f 6b8f 5430
00000140: d1c3 5b30 ee2f 272f e7ed 8030 70f1 ec2c
00000150: dd52 3b30 9f72 342f 6cbe e930 da24 d02f
00000160: ec24 b52e 74c5 232e 0e08 822e 054f 582f
00000170: c027 442d b58b bf2f 5087 9d30 dc25 052e
00000180: d8ed 2b30 ba16 8a2d 3066 c02f c510 732e
00000190: a96a d52f c926 3f2c f7ba 3930 bfa8 042d
000001a0: e72b 532e 5abb 0230 39e4 2131 c702 102e
000001b0: b07b 7a2f eaed 8f2f 9460 b32f 74eb 3e2f
000001c0: d25b 382f eb27 3530 839c 3e30 0b96 6b2f
000001d0: 8a98 bc30 b5e2 a02f d5aa 102e 3c84 a130
000001e0: 6a94 8a2d 9b61 ea30 3079 df2f cdf7 a92b
000001f0: 914c 0f2d e201 9e2f 35df d82f 488e a32c
