results/sometest/KartAgent/checkpoint.pt (torch, 528373 bytes, 36 tensors)

network_body._body_endoder.seq_layers.0.weight f4 [128, 35]
0.13579202 -0.07993799 0.22235787 0.10941034 0.048557483 0.107214876 -0.11181562 0.027592847
-0.0679104 -0.006604798 -0.3465615 0.5501898 -0.17887633 0.15391086 0.011647127 -0.072458625
0.07742673 0.056209225 -0.29038933 0.13548507 0.1990987 -0.37871337 0.27527073 -0.15038003
0.03198148 0.013190827 0.039919667 -0.083307855 -0.14985783 -0.003664198 -0.025465066 -0.21636534
-0.12376994 -0.067611136 0.12253608 0.23167963 0.19727686 -0.0036526355 0.033015084 0.024638534
0.18167473 0.03146147 0.31497204 0.082156464 0.15712345 0.20143513 -0.01961859 -0.19279231
0.19884792 -0.39892283 0.20895787 -0.005771495 0.3118129 0.24485058 0.058412902 -0.051111195
0.044200554 0.03951168 0.1690402 0.11700623 -0.016156893 0.12829696 0.20633765 0.07737604
-0.19785601 0.10798556 -0.05930229 -0.021456046 -0.06334343 0.058377467 0.20553249 -0.15100609
0.06612763 -0.02014468 -0.0025673886 0.029842736 -0.089879505 0.030752001 -0.02873099 0.091175176
-0.015127365 -0.2031467 0.08256822 0.2059389 -0.08974851 -0.11225667 0.107513204 0.06751326
0.083422184 0.21133469 -0.060946785 0.20308821 -0.036310427 0.09898779 -0.1902491 -0.15869372
-0.25262484 0.36054355 -0.2033942 -0.121958934 -0.17808686 0.33531377 -0.08985753 -0.20063788
-0.26005945 0.078274295 -0.16201106 0.31091273 0.41401395 0.002543876 -0.09741312 0.17552055
0.002449215 0.07606 0.17357098 -0.34843376 -0.0578717 -0.020961974 0.0085487645 0.04612569
-0.16435966 -0.16351601 -0.041782897 0.14820746 0.13104244 0.1263235 -0.008725116 -0.16177166
-0.14499824 0.037133522 0.3305995 0.040210277 0.15073176 -0.024995448 0.18794934 0.51960725
-0.25292015 -0.087406605 -0.03394852 0.17619675 -0.28021964 0.36007133 0.06313555 -0.17888844
-0.16663489 0.26757234 0.13703117 -0.008462506 -0.059911143 -0.076169915 0.090339035 -0.15523063
0.14554493 0.06712057 -0.388761 -0.15628424 -0.07736031 0.08878624 0.26939994 0.09851361
0.028072637 -0.21338227 0.12388346 -0.17676367 -0.0678396 -0.23124018 -0.18144028 -0.08418512
-0.2780166 0.18910591 -0.00834252 0.018139573 -0.22310077 -0.2370245 0.15763143 0.12703446
0.034215584 -0.12870754 -0.0015710673 0.07521188 0.03870597 -0.03664116 -0.12839013 0.2841059
-0.014536341 -0.14276534 -0.32766986 -0.28810704 0.05436408 -0.005901727 -0.3360325 -0.27075392
-0.12953389 -0.09412587 -0.013108493 -0.15572123 0.07347641 0.09174273 -0.14087781 -0.078930005
-0.14540623 0.13516417 0.032890618 -0.19489783 0.081418686 -0.08154473 0.013636683 0.06907044
-0.09846342 0.12431705 -0.47249773 -0.07289455 -0.113684714 0.14018917 0.03335606 0.13443156
0.12847094 -0.20160179 0.17598434 -0.15440387 0.14456266 0.06404433 -0.062985025 -0.10826135
0.09254397 0.064600885 0.03790104 0.31257838 0.30817315 -0.18643339 0.08855122 -0.33148307
0.024416387 0.016625201 -0.2487058 -0.05063296 0.16289945 -0.27494308 -0.010143405 0.094947234
-0.015600526 0.6646675 0.17460494 -0.13636832 0.27605152 0.20326518 0.25411263 0.21761699
-0.08483916 -0.17034696 -0.07438026 0.24818753 -0.19943734 -0.35479075 0.11218758 -0.35987738
00000000: 100d 0b3e 87b6 a3bd c8b1 633e 8712 e03d
00000010: 36e4 463d 7993 db3d 96ff e4bd 650a e23c
00000020: 9c14 8bbd 106d d8bb 8270 b1be 3dd9 0c3f
00000030: 5b2b 37be cf9a 1d3e 97d3 3e3c 3065 94bd
00000040: e891 9e3d a53b 663d e9ad 94be 99bc 0a3e
00000050: 88e0 4b3e b8e6 c1be 49f0 8c3e 39fd 19be
00000060: 03ff 023d 571e 583c ce82 233d 4f9d aabd
00000070: 5574 19be 0b23 70bb 1d9c d0bc e08e 5dbe
00000080: 187b fdbd b577 8abd 32f4 fa3d 6d3d 6d3e
00000090: f202 4a3e 0e61 6fbb d33a 073d c0d6 c93c
000000a0: f108 3a3e bedd 003d 0444 a13e a641 a83d
000000b0: f8e4 203e 0345 4e3e 2ab7 a0bc 596b 45be
000000c0: ca9e 4b3e 9d3f ccbe 0df9 553e cf1e bdbb
000000d0: f1a5 9f3e 1cba 7a3e 5e42 6f3d f959 51bd
000000e0: a40b 353d 00d7 213d e018 2d3e f6a0 ef3d
000000f0: 765b 84bc 4760 033e 2d4a 533e 5477 9e3d
00000100: c49a 4abe 8927 dd3d f5e6 72bd 97c4 afbc
00000110: 33ba 81bd 361d 6f3d 1c77 523e 57a1 1abe
00000120: ec6d 873d 7506 a5bc a241 28bb c178 f43c
00000130: bf12 b8bd 9feb fb3c 415d ebbc 0dba ba3d
00000140: c4d8 77bc b005 50be 8719 a93d a6e1 523e
00000150: 11ce b7bd d3e6 e5bd e22f dc3d 6444 8a3d
00000160: 40d9 aa3d 1f68 583e 56a3 79bd 5bf6 4f3e
00000170: 3eba 14bd 1cba ca3d a9d0 42be 9b80 22be
00000180: 0b58 81be 2a99 b83e 9246 50be 9bc5 f9bd
00000190: 675c 36be 3fae ab3e 3a07 b8bd 0474 4dbe
000001a0: 8326 85be 464e a03d 3ae6 25be f42f 9f3e
000001b0: a3f9 d33e 28b7 263b 8880 c7bd a9bb 333e
000001c0: 0283 203b 58c5 9b3d 97bc 313e e965 b2be
000001d0: e00a 6dbd 72b8 abbc 1e10 0c3c 4bee 3c3d
000001e0: e64d 28be be70 27be 8b24 2bbd b2c3 173e
000001f0: fd2f 063e f35a 013e caf3 0ebc 78a7 25be
00000200: 6b7a 14be 5219 183d 5644 a93e 88b3 243d
00000210: 6d59 1a3e 41c3 ccbc cb75 403e fb04 053f
00000220: c07e 81be 3c02 b3bd 9a0d 0bbd ec6c 343e
00000230: f378 8fbe 455b b83e 364d 813d 882e 37be
00000240: 56a2 2abe 3eff 883e e651 0c3e 53a6 0abc
00000250: 6365 75bd f9fe 9bbd ac03 b93d c7f4 1ebe
00000260: bb09 153e 8276 893d af0b c7be fa08 20be
00000270: 156f 9ebd 8fd5 b53d caee 893e 81c1 c93d
00000280: 96f8 e53c e280 5abe 9db6 fd3d 8901 35be
00000290: 7def 8abd 3aca 6cbe 7bcb 39be 4069 acbd
000002a0: 3158 8ebe fba4 413e 11af 08bc 7199 943c
000002b0: 8774 64be 8db6 72be 226a 213e 5215 023e
000002c0: a425 0c3d e9cb 03be 45ec cdba b008 9a3d
000002d0: 278a 1e3d 0a15 16bd b478 03be 5476 913e
000002e0: d529 6ebc 1431 12be 58c4 a7be c482 93be
000002f0: dfac 5e3d 4663 c1bb 740c acbe 42a0 8abe
00000300: 88a4 04be 10c5 c0bd 01c5 56bc 6375 1fbe
00000310: cd7a 963d 9de3 bb3d 4642 10be 0ea6 a1bd
00000320: 5fe5 14be 7a68 0a3e 50b8 063d 4c93 47be
00000330: d7be a63d ec00 a7bd 656c 5f3c ce74 8d3d
00000340: 31a7 c9bd f099 fe3d 39eb f1be bd49 95bd
00000350: 88d3 e8bd c08d 0f3e 5da0 083d 6da8 093e
00000360: e38d 033e b370 4ebe 3d35 343e 0c1c 1ebe
00000370: 3c08 143e ac29 833d 4bfe 80bd 20b8 ddbd
00000380: b187 bd3d 784d 843d 1f3e 1b3d 460a a03e
00000390: dfc8 9d3e 65e8 3ebe 585a b53d 26b8 a9be
000003a0: e004 c83c 9331 883c bcac 7ebe 8264 4fbd
000003b0: 1dcf 263e 57c5 8cbe 8630 26bc b273 c23d
000003c0: 5999 7fbc a627 2a3f a3cb 323e 23a4 0bbe
000003d0: a056 8d3e bf24 503e 0d1b 823e fdd6 5e3e
000003e0: 27c0 adbd 6f6f 2ebe ae54 98bd df24 7e3e
000003f0: 4d39 4cbe 22a7 b5be 9ac2 e53d d941 b8be

network_body._body_endoder.seq_layers.0.bias f4 [128]
-0.009425686 0.019846067 -0.00026389616 0.0045033502 0.024172302 -0.01373235 -0.007826935 -0.02208582
-0.03111315 0.039988656 -0.005898787 0.027152844 -0.0047952277 0.028502593 0.027845852 -0.025902497
0.023556555 0.0051883264 -0.0012323271 0.015179355 0.0028874406 0.0039570774 0.027639998 0.022581507
-0.0048349793 -0.00742298 0.032229222 -0.00078091456 0.0034033447 -0.000293172 0.010722325 0.014693326
0.036328603 0.014965605 0.04348608 -0.0018688284 0.003143134 0.0051262197 0.012642405 -0.0032763255
0.011108516 -0.010450094 0.029831508 0.008773755 0.030158022 0.025238127 0.032403175 0.0051872944
-0.011320274 0.015686607 0.036704034 0.008635581 0.01719707 0.016791949 -0.009352168 0.01961606
-0.0014950428 -0.0072856853 0.0098257465 -0.013782696 -0.024170164 0.029196016 0.022185346 0.021641696
0.044323016 0.017794332 0.019058233 -0.005480888 0.005140519 -0.025796816 0.00990864 -0.001965745
0.02810169 -0.008644456 0.037132174 -0.004627488 0.03546024 0.06248936 0.017846772 0.015877675
0.022841956 -0.020096783 0.030884907 -0.002697289 0.0019046436 -0.01687964 0.013789615 0.004839445
-0.0030831713 0.015885804 -0.020863568 -0.0023972574 8.6871245e-05 0.013462196 0.008765413 0.0059156814
0.015148989 0.0007808209 0.0038235192 0.034715317 0.004753057 0.0011842122 0.03412498 0.028119242
0.0306638 0.026860492 -0.03700705 0.0036303252 0.061368477 0.013807661 0.019957371 0.018298147
-0.0042655505 -0.0012705649 0.010439942 0.00032651806 -0.020334356 0.03837376 0.02955489 0.004109962
0.063122205 0.025943907 -0.0018805099 0.038601562 0.0028514513 0.0015933472 0.030201009 0.03420619
00000000: 316e 1abc 3894 a23c 8b5b 8ab9 d790 933b
00000010: fe04 c63c a7fd 60bc 8b3c 00bc 52ed b4bc
00000020: 01e1 febc 25cb 233d 9d4a c1bb a46f de3c
00000030: 4921 9dbb 457e e93c fc1c e43c 7931 d4bc
00000040: adf9 c03c d602 aa3b 0986 a1ba d4b2 783c
00000050: 373b 3d3b 5faa 813b 476d e23c dafc b83c
00000060: bf6e 9ebb 783c f3bb ca02 043d 4ab6 4cba
00000070: a60a 5f3b e1b4 99b9 b1ac 2f3c 47bc 703c
00000080: 4dcd 143d 4c32 753c 761e 323d 7af3 f4ba
00000090: 0afd 4d3b d9f9 a73b 1722 4f3c 9fb7 56bb
000000a0: 7e00 363c df36 2bbc 3561 f43c ccbf 0f3c
000000b0: f50d f73c 30c0 ce3c 31b9 043d 2efa a93b
000000c0: ac78 39bc 3381 803c f856 163d 407c 0d3c
000000d0: dfe0 8c3c 458f 893c d639 19bc dcb1 a03c
000000e0: 50f5 c3ba c2bc eebb 2bfc 203c d1d0 61bc
000000f0: 8200 c6bc 7c2c ef3c 0bbe b53c ed49 b13c
00000100: 0d8c 353d 6bc5 913c 0320 9c3c 0599 b3bb
00000110: cc71 a83b d853 d3bc d957 223c bad3 00bb
00000120: 8435 e63c 7aa1 0dbc e817 183d 2fa2 97bb
00000130: c23e 113d d8f4 7f3d 6533 923c e611 823c
00000140: 0e1f bb3c 02a2 a4bc 5802 fd3c 00c5 30bb
00000150: 3ca5 f93a 2c47 8abc d6ed 613c 3594 9e3b
00000160: 080f 4abb f222 823c 13ea aabc 4e1b 1dbb
00000170: a52e b638 8b90 5c3c cf9c 0f3c 55d8 c13b
00000180: 7733 783c 01b0 4c3a 0294 7a3b a631 0e3d
00000190: 88bf 9b3b 9137 9b3a a3c6 0b3d 535a e63c
000001a0: a632 fb3c 890a dc3c b494 17bd c0ea 6d3b
000001b0: 835d 7b3d 8739 623c a47d a33c ffe5 953c
000001c0: 08c6 8bbb 1589 a6ba 4a0c 2b3c 8330 ab39
000001d0: 3c94 a6bc ce2d 1d3d 191d f23c dcac 863b
000001e0: 3746 813d 5188 d43c 717b f6ba ac1c 1e3d
000001f0: 6adf 3a3b dcd7 d03a 1b68 f73c ca1b 0c3d

network_body._body_endoder.seq_layers.2.weight f4 [128, 128]
-0.05340915 -0.004133536 -0.11629605 0.01740084 0.0051000095 0.12353494 0.0871584 0.051710907
-0.07795997 0.00051261036 -0.080479324 0.017953735 -0.20102201 0.07502295 -0.016397774 -0.17262423
-0.0031522175 0.09001918 -0.098766685 0.070999995 -0.08312638 0.097466454 0.05470837 -0.124297656
-0.06570757 -0.15704638 0.168362 -0.02061279 -0.06579299 -0.010495747 0.04735241 0.05428802
-0.013149993 0.059916828 0.017237483 -0.040100686 0.16198513 -0.1844094 0.012494655 -0.17996125
-0.07986465 0.11659502 0.07661315 -0.034402493 -0.050977893 -0.056370888 0.06579748 0.16874504
-0.021885248 -0.09999001 -0.101746894 0.016303882 0.14190482 -0.011744884 -0.051639073 -0.069606945
0.23052393 -0.17162995 -0.08105724 -0.07259372 -0.11997729 0.02107202 -0.12820464 0.14162792
0.06897324 -0.09008232 -0.059140578 0.041743807 -0.114645764 0.00879929 0.11679242 -0.19598562
-0.020621955 -0.116844855 -0.2286099 -0.08485921 -0.006314043 -0.054339577 0.0035985701 -0.12766957
-0.096836746 0.018884102 -0.008787497 -0.15611076 0.18965627 -0.11959229 -0.13820267 -0.17956875
0.027824577 0.008934567 0.10216335 0.018660266 -0.00921546 -0.0088797 -0.0013810972 -0.06732853
0.10159672 -0.0696177 0.022243273 0.13860081 0.050027426 0.018357288 0.12907085 -0.02860181
0.106859736 -0.0704436 0.054177295 0.0029572297 -0.033763386 0.09161754 0.18340608 0.049834736
0.031444456 -0.087591715 0.0029695677 -0.023172399 0.14308049 0.06326655 0.040537756 -0.18773575
0.017576411 0.11591964 0.027713249 -0.010448431 0.1360139 -0.16791318 0.0010645121 -0.06310407
0.093610495 0.028420018 0.21029107 -0.049050592 0.019500969 -0.065981776 0.10205387 -0.021373034
0.099506944 -0.05954192 -0.11018279 -0.03745552 -0.02883405 -0.02844904 0.0045684506 -0.10537131
-0.11773332 0.18010154 -0.03323023 0.050760392 0.028929384 -0.09576634 0.090043366 -0.12633093
0.009225793 0.23595558 -0.12210581 -0.06845722 -0.09745611 -0.11400029 0.13936844 -0.12200261
-0.045073636 -0.006150337 0.025353288 0.20668317 0.1254167 -0.07596004 0.14344229 0.14803682
-0.056211736 -0.08769636 0.12898877 0.02701334 0.084110096 0.14121892 -0.039512362 -0.13984355
-0.11296262 -0.10125476 0.032483395 0.09367997 0.11940484 -0.066214904 0.047612257 0.0142338015
0.06251077 -0.016173262 -0.16770056 -0.12943605 0.066477165 0.052285362 0.070946924 0.02430971
0.026319064 0.043514784 -0.1345758 0.15482971 0.011092289 0.067495406 0.020231653 0.23995858
0.06410293 -0.028911578 0.0061129457 -0.06503673 0.06449151 0.18330546 -0.033038788 -0.011731194
0.06570715 0.047630187 0.007492444 0.021713937 -0.10930587 0.06649752 0.04421498 0.16949166
0.077472575 -0.03501892 0.041258104 -0.104031995 -0.015348829 0.103757665 -0.033365026 0.019185305
0.11670448 0.04865126 0.022185106 -0.00075899536 0.08623302 0.21648957 -0.11829701 -0.10446263
0.050679095 -0.022720305 -0.0098578455 0.008790585 -0.055814274 0.11275427 -0.050713956 -0.08243119
-0.024749279 -0.17067952 -0.07890042 -0.03598683 0.08991648 -0.14877185 -0.090714045 -0.16609713
-0.092475146 -0.0012771545 -0.10965329 -0.06644679 -0.12932564 0.039631493 0.03491197 -0.028263198
00000000: 8ec3 5abd 9d72 87bb a02c eebd 358c 8e3c
00000010: fb1d a73b e3ff fc3d 1a80 b23d d1ce 533d
00000020: 7aa9 9fbd b360 063a 58d2 a4bd b613 933c
00000030: b7d8 4dbe a2a5 993d a054 86bc 68c4 30be
00000040: 6f95 4ebb fa5b b83d 3046 cabd 7268 913d
00000050: 2a3e aabd 7e9c c73d e215 603d c58f febd
00000060: b191 86bd c4d0 20be 1767 2c3e 27dc a8bc
00000070: 7abe 86bd 5bf6 2bbc 9af4 413d 1d5d 5e3d
00000080: 1173 57bc 596b 753d 9f35 8d3c 9e40 24bd
00000090: 6edf 253e d1d5 3cbe 62b6 4c3c c347 38be
000000a0: 1490 a3bd 5fc9 ee3d 5be7 9c3d a1e9 0cbd
000000b0: 32ce 50bd 29e5 66bd d4c0 863d 80cb 2c3e
000000c0: b148 b3bc 90c7 ccbd ad60 d0bd b88f 853c
000000d0: 7f4f 113e 9d6d 40bc 7e83 53bd 168e 8ebd
000000e0: 770e 6c3e c3bf 2fbe 5701 a6bd 04ac 94bd
000000f0: a7b6 f5bd 3b9f ac3c 1448 03be e906 113e
00000100: d841 8d3d 147d b8bd 643d 72bd 8efb 2a3d
00000110: 66cb eabd e62a 103c dd30 ef3d 74b0 48be
00000120: 60ef a8bc 5b4c efbd b718 6abe aaca adbd
00000130: 08e6 cebb 2d93 5ebd fdd5 6b3b d0bb 02be
00000140: 5852 c6bd d5b2 9a3c 6ff9 0fbc 80db 1fbe
00000150: 4135 423e cdec f4bd 0085 0dbe dfe0 37be
00000160: 5ef0 e33c 4a62 123c 053b d13d 6add 983c
00000170: 71fc 16bc 297c 11bc ef05 b5ba 8ae3 89bd
00000180: f111 d03d ba93 8ebd 8637 b63c 5fed 0d3e
00000190: 8fe9 4c3d 0662 963c 262b 043e 584e eabc
000001a0: 47d9 da3d bc44 90bd 03e9 5d3d 15ce 413b
000001b0: 7a4b 0abd faa1 bb3d cece 3b3e 821f 4c3d
000001c0: e7cb 003d 4963 b3bd 149d 423b 0bd4 bdbc
000001d0: b183 123e e591 813d eb0a 263d cd3d 40be
000001e0: 68fc 8f3c 4767 ed3d e506 e33c e52f 2bbc
000001f0: 3a47 0b3e 6ff1 2bbe 1987 8b3a b53c 81bd
00000200: dcb6 bf3d 19d1 e83c 8b56 573e 46e9 48bd
00000210: 7fc0 9f3c 7421 87bd 9f01 d13d 8016 afbc
00000220: 4cca cb3d 3ae2 73bd 84a7 e1bd f66a 19bd
00000230: 6335 ecbc f60d e9bc f1b2 953b eacc d7bd
00000240: 2b1e f1bd 8a6c 383e 6c1c 08bd 21ea 4f3d
00000250: 51fd ec3c 2521 c4bd a868 b83d e55c 01be
00000260: c827 173c 579e 713e 9c12 fabd 4d33 8cbd
00000270: 1297 c7bd fc78 e9bd 9ab6 0e3e 81dc f9bd
00000280: 229f 38bd c488 c9bb b3b1 cf3c c1a4 533e
00000290: 3c6d 003e f090 9bbd 89e2 123e f796 173e
000002a0: 473e 66bd 269a b3bd a215 043e 144b dd3c
000002b0: ea41 ac3d b19b 103e b7d7 21bd 2633 0fbe
000002c0: f258 e7bd a85e cfbd 4f0d 053d 49db bf3d
000002d0: 868a f43d ae9b 87bd 1205 433d e434 693c
000002e0: a605 803d ca7d 84bc b2b9 2bbe e28a 04be
000002f0: 2e25 883d 2d29 563d 9f4c 913d 2825 c73c
00000300: 149b d73c 8f3c 323d 3dce 09be ae8b 1e3e
00000310: 6fbc 353c 083b 8a3d dabc a53c b4b7 753e
00000320: 6648 833d f9d7 ecbc 1b4f c83b fa31 85bd
00000330: 2014 843d 6db4 3b3e ae53 07bd 3234 40bc
00000340: 7891 863d df17 433d 2d83 f53b 6de1 b13c
00000350: c2db dfbd da2f 883d c41a 353d 398f 2d3e
00000360: f1a9 9e3d 0070 0fbd 42fe 283d ba0e d5bd
00000370: a879 7bbc e67e d43d c4a9 08bd 802a 9d3c
00000380: c202 ef3d 8b46 473d 8abd b53c 51f7 46ba
00000390: f09a b03d 71af 5d3e b445 f2bd 81f0 d5bd
000003a0: e294 4f3d ef1f babc cd82 21bc 6306 103c
000003b0: 829d 64bd b6eb e63d 70b9 4fbd afd1 a8bd
000003c0: 00bf cabc 9dc6 2ebe 8b96 a1bd ed66 13bd
000003d0: 2226 b83d a657 18be 49c8 b9bd 5e15 2abe
000003e0: 9c63 bdbd 3266 a7ba e791 e0bd 4115 88bd
000003f0: f16d 04be a254 223d dbff 0e3d 3988 e7bc

network_body._body_endoder.seq_layers.2.bias f4 [128]
0.017327951 0.00435375 0.005685888 0.008033418 0.017721832 -0.005800249 0.0071563525 0.005266055
0.009642264 0.0035935943 0.010789855 0.010941178 -0.00688763 0.0033785107 0.011674342 0.011605924
0.007073517 0.0074004373 0.016627721 0.00020952398 -0.0031634823 0.055710543 0.003084202 0.0063942815
0.009805035 0.014062349 0.007852089 0.022513255 0.016219934 0.021280827 0.0015532431 0.0067527266
-0.0033485107 0.016981585 0.0049194684 -0.00030882278 -0.010377313 0.014312562 0.03453525 0.014704878
0.030275472 -0.0015199819 0.009925691 0.010919904 0.0018989616 -0.00040031612 -0.0061582285 0.023305375
0.0053039263 0.016136978 0.0019702767 0.008804863 -0.00946964 0.009636686 0.007194733 0.015069131
0.007700415 -0.0077048508 -0.0058891447 0.01899305 0.01839754 0.022185842 -8.271211e-05 -0.0019870426
-0.006382843 0.015551086 0.030825304 0.010861859 0.0031506459 -0.001802427 0.007470143 -0.005545733
0.006515145 0.020346807 0.01599169 0.009142681 0.019480418 0.0009835521 -0.0021329063 0.0022564817
0.01542422 0.016694954 0.023596488 0.012454852 0.017825617 -0.0040554972 -0.0054037976 0.012118812
0.013977799 -0.0041467585 0.007429054 0.019320145 -0.0006261902 -0.0010179685 0.0062230756 0.015026421
0.013598142 0.02219317 0.017427374 -0.0016225374 -0.0008228591 0.013550698 0.021791678 0.01992607
-0.005574663 -0.0074288445 0.017858483 0.013464255 0.03243246 0.0055972827 0.04083682 -0.0061152093
0.010785881 0.013993703 0.019595819 0.020507107 0.0012729062 0.009174094 -0.0012465008 0.0051352098
0.022823874 0.010248839 0.022557244 -0.008083524 -0.0028641333 0.02048285 0.031682152 0.013279281
00000000: 59f3 8d3c e7a9 8e3b b050 ba3b 999e 033c
00000010: 602d 913c 0410 bebb d67f ea3b df8e ac3b
00000020: 96fa 1d3c 8282 6b3b efc7 303c a042 333c
00000030: a1b1 e1bb 016a 5d3b bd45 3f3c c626 3e3c
00000040: f6c8 e73b 5e7f f23b dc36 883c aab3 5b39
00000050: 6d52 4fbb bd30 643d 5320 4a3b 1f87 d13b
00000060: 4ca5 203c c465 663c 0ca6 003c b86d b83c
00000070: abdf 843c 2155 ae3c 3196 cb3a fa45 dd3b
00000080: b072 5bbb f71c 8b3c 7e33 a13b 7ee9 a1b9
00000090: 9b05 2abc 3c7f 6a3c d674 0d3d bbec 703c
000000a0: 4404 f83c 213a c7ba 5e9f 223c 66e9 323c
000000b0: 94e6 f83a 85e1 d1b9 f7ca c9bb eaea be3c
000000c0: 8fcc ad3b b231 843c c21f 013b 4642 103c
000000d0: 8d26 1bbc 31e3 1d3c cbc1 eb3b 84e4 763c
000000e0: c353 fc3b f978 fcbb baf9 c0bb 5097 9b3c
000000f0: 70b6 963c 15bf b53c ba75 adb8 0b39 02bb
00000100: 2b27 d1bb fbc9 7e3c 5985 fc3c f0f5 313c
00000110: 117b 4e3b 6a3f ecba 1ac8 f43b fbb8 b5bb
00000120: ff7c d53b 59ae a63c 0101 833c 2fcb 153c
00000130: 6695 9f3c 88ea 803a 3bc8 0bbb 7be1 133b
00000140: deb5 7c3c dbc3 883c 6c4d c13c 700f 4c3c
00000150: 0707 923c fae3 84bb 5712 b1bb fb8d 463c
00000160: 2303 653c 88e1 87bb 6c6f f33b 4845 9e3c
00000170: ea26 24ba 5b6d 85ba f1ea cb3b 6131 763c
00000180: beca 5e3c 73ce b53c dac3 8e3c 52ab d4ba
00000190: 24b5 57ba bf03 5e3c 7684 b23c ff3b a33c
000001a0: aaab b6bb aa6d f3bb f44b 923c 2e99 5c3c
000001b0: e6d7 043d 6969 b73b 8244 273d 1862 c8bb
000001c0: 44b7 303c d845 653c 6987 a03c 85fe a73c
000001d0: a5d7 a63a f04e 163c a061 a3ba 4345 a83b
000001e0: 22f9 ba3c bfea 273c f8c9 b83c c270 04bc
000001f0: 2fb4 3bbb a6cb a73c 25c5 013d 5791 593c

action_model._continuous_distribution.log_sigma f4 [1, 2]
0.008718697 -0.020055868
00000000: ded8 0e3c 344c a4bc

action_model._continuous_distribution.mu.weight f4 [2, 128]
0.011741381 -0.026097108 0.008378308 -0.041456353 0.020947328 -0.030980881 0.022406632 0.0139275165
0.005777362 -0.07403146 0.023549823 0.02455359 0.010645067 0.007081064 -0.008531721 0.051699355
0.025284067 -0.031054208 0.044416845 -0.03105756 -0.042037986 0.047313966 -0.031386115 -0.048386015
0.031496078 0.03995635 0.03975806 -0.002810508 -0.012615327 -0.011035102 -0.057586182 -0.02468749
-0.035995618 0.03296527 -0.035023198 -0.054748613 -0.014651701 0.034483146 0.07745697 0.041450366
0.051386293 -0.027413908 0.025080806 0.044163693 0.0021395402 -0.060104366 -0.036159012 -0.024672616
0.019898083 0.034735873 -0.023406584 0.01888013 -0.01764818 -0.08075436 0.0023662467 0.044424485
-0.0811401 -0.0075727487 -0.03274636 0.067271955 -0.030520847 -0.098502785 -0.000100709636 0.0037384052
0.0019180961 0.036747288 0.08841775 -0.06376195 0.006820543 -0.006352609 -0.04541264 -0.042971957
-0.020825263 0.055112515 0.036385193 -0.046930335 -0.031154722 -0.06853388 -0.0026634412 0.0075341184
0.027008437 0.045737207 -0.035038695 0.03770691 0.031260133 -0.030439788 0.0061102044 0.040117968
-0.009408753 -0.06060368 0.010873043 0.00043525064 0.0008207935 -0.00013469504 -0.0038325596 -0.0035380078
0.025931789 -0.010687643 0.043720204 -0.06498464 0.012843948 -0.003030247 0.039514553 -0.016064247
-0.0086840335 -0.018064184 0.035044707 -0.060452618 0.031328604 -0.04087173 0.03769033 -0.032365017
-0.03405733 0.039534006 0.04340408 0.003884399 -0.07974683 -0.027400568 -0.029385993 -0.041430637
-0.030833416 0.029562302 -0.023348596 -0.027714433 -0.028196536 -0.025353923 0.059168007 -0.00585844
0.031333555 -0.058394935 -0.024874752 0.04753379 0.018304963 -0.021154644 -0.0066187857 -0.042853404
-0.026778521 0.014971041 -0.0011343807 0.0010939756 -0.018025197 -0.027966613 0.03781317 -0.04040948
-0.00049702637 0.027707532 0.016939774 0.027737228 0.0058416547 0.052674726 0.026098892 0.0046670507
-0.06037495 0.008222094 -0.014344669 0.042003255 0.024851425 0.0803728 -0.0031647948 0.037032764
-0.025787741 -0.046161454 0.04666223 -0.050911266 -0.026847927 0.033373095 0.022696737 0.034427587
-0.044909 -0.024010545 -0.01344978 0.030736674 -0.032370575 0.00033229604 -0.04624172 0.05012918
0.024814796 -0.035607565 -0.067049265 0.0053304383 -0.02231929 -0.01094574 0.03211835 -0.0400606
0.010580272 -0.008423236 -0.022343073 -0.008471429 0.067790434 0.05102655 0.013362474 -0.025813239
-0.0049917637 -0.013723752 -0.030242858 0.042680193 -0.034610588 -0.041803382 0.011487199 -0.009840375
-0.057830486 0.07172914 0.022948023 0.009442441 0.058168743 0.008161779 0.020532262 0.017026505
0.04275022 -0.063209124 0.07813198 -0.007903574 0.038533352 0.011739703 -0.016506707 -0.018501563
0.036196906 -0.0076325033 0.031950135 0.04393926 -0.03884545 -0.030005245 -0.051950015 -0.08306595
0.0028580837 -0.053361014 0.0031415564 -0.034300644 -0.025184022 0.048347924 -0.0012011826 0.06744208
-0.02218565 -0.028797762 -0.024306485 0.04229083 0.087026976 -0.0065013273 0.013700007 -0.03291041
0.05589093 0.013772638 0.03918642 0.045673758 0.03618837 0.023253465 0.00992041 -0.016039642
0.05234427 0.049348943 0.06621614 -0.01904088 -0.044083595 0.0748226 0.06214654 0.052164983
00000000: ec5e 403c 9ac9 d5bc 2c45 093c 23ce 29bd
00000010: bb99 ab3c 9ecb fdbc 1d8e b73c 3d30 643c
00000020: 0650 bd3b ce9d 97bd 8feb c03c 9c24 c93c
00000030: a668 2e3c 4508 e83b a2c8 0bbc b4c2 533d
00000040: 8820 cf3c 6565 febc 70ee 353d 6d6c febc
00000050: 0630 2cbd 4acc 413d ba8e 00bd 6a30 46bd
00000060: 0802 013d 45a9 233d 59d9 223d 8030 38bb
00000070: 84b0 4ebc 93cc 34bc 7ddf 6bbd 6b3d cabc
00000080: 2470 13bd 9706 073d 7c74 0fbd 1540 60bd
00000090: b00d 70bc 333e 0d3d c3a1 9e3d dcc7 293d
000000a0: 6f7a 523d 2293 e0bc 4376 cd3c fde4 343d
000000b0: 8737 0c3b ff2f 76bd 791b 14bd 3a1e cabc
000000c0: 4e01 a33c 3447 0e3d 2abf bfbc 81aa 9a3c
000000d0: ea92 90bc 8b62 a5bd 0813 1b3b 73f6 353d
000000e0: c82c a6bd d224 f8bb 0c21 06bd e1c5 893d
000000f0: db06 fabc d4bb c9bd 1334 d3b8 0800 753b
00000100: a068 fb3a 5384 163d 5e14 b53d a095 82bd
00000110: dd7e df3b 8c29 d0bb 9b02 3abd 5d03 30bd
00000120: be99 aabc a9bd 613d a408 153d 063a 40bd
00000130: 3038 ffbc 7e5b 8cbd 218d 2ebb c4e0 f63b
00000140: cc40 dd3c f056 3b3d bc84 0fbd 9072 1a3d
00000150: a00a 003d dd5c f9bc 1c38 c83b bd52 243d
00000160: 2c27 1abc 903b 78bd d924 323c 5a32 e439
00000170: 852a 573a ed3c 0db9 ae2b 7bbb ecdd 67bb
00000180: e76e d43c 391b 2fbc f513 333d ab16 85bd
00000190: 6c6f 523c 1c97 46bb 03da 213d 2b99 83bc
000001a0: 7a47 0ebc 57fb 93bc 0a8b 0f3d 2a9d 77bd
000001b0: 6c52 003d 1d69 27bd 2d61 1a3d 2e91 04bd
000001c0: b37f 0bbd 69ee 213d 7ac8 313d 6791 7e3b
000001d0: 4e52 a3bd 2877 e0bc e5ba f0bc 2cb3 29bd
000001e0: 5c96 fcbc a42c f23c 8e45 bfbc 6109 e3bc
000001f0: 6cfc e6bc 08b3 cfbc 275a 723d 28f8 bfbb
00000200: 9d57 003d 872f 6fbd 23c6 cbbc cbb2 423d
00000210: 4af4 953c 814c adbc 66e2 d8bb 0d87 2fbd
00000220: a15e dbbc 1949 753c 80af 94ba bb63 8f3a
00000230: 94a9 93bc 3d1a e5bc fce1 1a3d 6984 25bd
00000240: e04a 02ba e8fa e23c 48c5 8a3c 2f39 e33c
00000250: 5a6b bf3b 74c1 573d 58cd d53c 0fee 983b
00000260: b94b 77bd f6b5 063c e705 6bbc 9b0b 2c3d
00000270: 3795 cb3c 7f9a a43d 7268 4fbb abaf 173d
00000280: d040 d3bc cb13 3dbd e520 3f3d 5588 50bd
00000290: 2ff0 dbbc 3ab2 083d 82ee b93c f103 0d3d
000002a0: 80f2 37bd c3b1 c4bc 775c 5cbc 7acb fb3c
000002b0: 0297 04bd 0538 ae39 f567 3dbd 4154 4d3d
000002c0: 6648 cb3c 3dd9 11bd 2051 89bd f5aa ae3b
000002d0: f2d6 b6bc c355 33bc 888e 033d 9516 24bd
000002e0: e158 2d3c 9d01 0abc d208 b7bc c0cb 0abc
000002f0: b6d5 8a3d 3701 513d 47ee 5a3c 4976 d3bc
00000300: f391 a3bb 97d9 60bc dfbf f7bc 6dd1 2e3d
00000310: d5c3 0dbd 063a 2bbd ce34 3c3c 8639 21bc
00000320: a9df 6cbd bae6 923d 7efd bb3c 78b4 1a3c
00000330: 5942 6e3d fbb8 053c 4633 a83c 2b7b 8b3c
00000340: db1a 2f3d c973 81bd a903 a03d fe7d 01bc
00000350: 26d5 1d3d e257 403c 1339 87bc 9790 97bc
00000360: 3543 143d 141a fabb 25de 023d a7f9 333d
00000370: 681c 1fbd 8fcd f5bc 8ac9 54bd 7b1e aabd
00000380: b04e 3b3b 1491 5abd 92e2 4d3b d57e 0cbd
00000390: b94e cebc 7908 463d 0071 9dba 131f 8a3d
000003a0: aebe b5bc 49e9 ebbc 651e c7bc 2639 2d3d
000003b0: 333b b23d 1609 d5bb ff75 603c 11cd 06bd
000003c0: e3ed 643d a1a6 613c f181 203d 6814 3b3d
000003d0: 423a 143d 0d7e be3c 3789 223c 9165 83bc
000003e0: f266 563d 1e22 4a3d 549c 873d 9ffb 9bbc
000003f0: 0091 34bd 973c 993d 5f8d 7e3d f3aa 553d

action_model._continuous_distribution.mu.bias f4 [2]
0.009870911 0.0041086003
00000000: 9ab9 213c 70a1 863b

exp_avg f4 [128, 35]
0.0 0.0 1.2597024e-05 5.684722e-05 0.0 0.0 0.00018432215 0.00015902905
0.0 0.0 0.00012082612 0.00013489141 0.0 0.0 9.585326e-05 0.0001099488
0.0 0.0 0.00014391822 0.00013958376 0.0 0.0 4.822633e-06 2.0544872e-05
0.0 0.0 2.3124072e-05 4.1202045e-05 0.0 0.0 1.6739878e-05 2.4764986e-05
8.409901e-05 2.7930882e-05 2.29157e-05 0.0 0.0 0.00012632359 0.00014036777 0.0
0.0 5.2694693e-05 9.1330716e-05 0.0 0.0 3.916656e-05 7.807226e-05 0.0
0.0 5.6532735e-05 0.00010806113 0.0 0.0 0.00019399595 0.00016855294 0.0
0.0 0.00010807334 0.00010194753 0.0 0.0 2.5170097e-05 4.7194117e-05 0.0
0.0 0.00010487292 0.00010475524 -1.4048171e-05 -4.2653602e-07 -3.46349e-05 0.0 0.0
0.00023935585 0.0003365622 0.0 0.0 0.00044382495 0.00048255458 0.0 0.0
0.0003214048 0.00039355844 0.0 0.0 0.00032166226 0.00040496347 0.0 0.0
0.0005926247 0.00056624465 0.0 0.0 0.00017815703 0.00020219763 0.0 0.0
0.00012805221 0.00018375675 0.0 0.0 0.00019603217 0.00021434807 0.0002283762 7.7339195e-05
-5.8361875e-06 0.0 0.0 0.00024573397 0.0003645416 0.0 0.0 0.00048321276
0.00050334155 0.0 0.0 0.00030128067 0.0003964831 0.0 0.0 0.00034792023
0.00042377278 0.0 0.0 0.00060045015 0.0005654755 0.0 0.0 0.00021925985
0.00023952636 0.0 0.0 0.00016232405 0.00022260034 0.0 0.0 0.0002462529
0.00025820482 0.00014753814 8.0240156e-05 1.2552421e-05 0.0 0.0 0.00014601075 0.00014143687
0.0 0.0 -1.9413385e-05 4.277439e-05 0.0 0.0 -4.8447393e-05 3.176824e-06
0.0 0.0 3.96627e-05 9.047164e-05 0.0 0.0 0.00017368482 0.00015306685
0.0 0.0 0.00012373991 0.000114799856 0.0 0.0 3.3072367e-05 5.2974145e-05
0.0 0.0 9.442206e-05 9.740228e-05 -1.5919855e-05 -7.0270944e-06 -8.77933e-05 0.0
0.0 2.0114507e-05 2.607414e-05 0.0 0.0 5.1464474e-07 1.3034174e-05 0.0
0.0 6.080364e-06 1.4262876e-05 0.0 0.0 7.0197857e-06 1.7825885e-05 0.0
0.0 3.605435e-05 3.4972167e-05 0.0 0.0 6.4238575e-06 7.0325336e-06 0.0
0.0 -3.0036648e-07 2.005993e-06 0.0 0.0 9.270916e-06 9.581394e-06 1.1425513e-05
-2.5666284e-06 -1.8101765e-06 0.0 0.0 -0.00012267628 -7.100229e-05 0.0 0.0
0.00023129673 0.000181381 0.0 0.0 0.00011128011 0.00010439066 0.0 0.0
9.4966475e-05 6.700298e-05 0.0 0.0 4.7340745e-05 6.6939065e-05 0.0 0.0
-0.00012065309 -9.324513e-05 0.0 0.0 1.6955366e-05 2.0504096e-05 0.0 0.0
-0.000101807156 -9.082679e-05 0.00017435972 3.5738136e-05 5.4574066e-05 0.0 0.0 2.9953e-05
5.879073e-05 0.0 0.0 9.589867e-05 9.616096e-05 0.0 0.0 6.317982e-05
00000000: 0000 0000 0000 0000 ce57 5337 3d6f 6e38
00000010: 0000 0000 0000 0000 9a46 4139 09c1 2639
00000020: 0000 0000 0000 0000 0764 fd38 a371 0d39
00000030: 0000 0000 0000 0000 d404 c938 5094 e638
00000040: 0000 0000 0000 0000 c1e8 1639 3b5d 1239
00000050: 0000 0000 0000 0000 1ad2 a136 c757 ac37
00000060: 0000 0000 0000 0000 91fa c137 5cd0 2c38
00000070: 0000 0000 0000 0000 9d6c 8c37 67be cf37
00000080: 505e b038 1d4d ea37 173b c037 0000 0000
00000090: 0000 0000 bb75 0439 b02f 1339 0000 0000
000000a0: 0000 0000 7f04 5d38 ce88 bf38 0000 0000
000000b0: 0000 0000 c646 2438 baba a338 0000 0000
000000c0: 0000 0000 901d 6d38 e19e e238 0000 0000
000000d0: 0000 0000 646b 4b39 96bd 3039 0000 0000
000000e0: 0000 0000 6fa5 e238 aacc d538 0000 0000
000000f0: 0000 0000 5f24 d337 4cf2 4538 0000 0000
00000100: 0000 0000 38ef db38 0bb0 db38 6fb0 6bb7
00000110: aafe e4b4 f144 11b8 0000 0000 0000 0000
00000120: 99fb 7a39 9d74 b039 0000 0000 0000 0000
00000130: 2db1 e839 61ff fc39 0000 0000 0000 0000
00000140: 3982 a839 8556 ce39 0000 0000 0000 0000
00000150: c7a4 a839 4751 d439 0000 0000 0000 0000
00000160: 5f5a 1b3a 0970 143a 0000 0000 0000 0000
00000170: aacf 3a39 0305 5439 0000 0000 0000 0000
00000180: c145 0639 d4ae 4039 0000 0000 0000 0000
00000190: fc8d 4d39 9fc2 6039 4578 6f39 2a31 a238
000001a0: 78d4 c3b6 0000 0000 0000 0000 dbd5 8039
000001b0: f21f bf39 0000 0000 0000 0000 b857 fd39
000001c0: aef2 033a 0000 0000 0000 0000 35f5 9d39
000001d0: 10df cf39 0000 0000 0000 0000 1069 b639
000001e0: d22d de39 0000 0000 0000 0000 8767 1d3a
000001f0: 6b3c 143a 0000 0000 0000 0000 1ee9 6539
00000200: 5e29 7b39 0000 0000 0000 0000 8835 2a39
00000210: d369 6939 0000 0000 0000 0000 811b 8139
00000220: aa5f 8739 78b4 1a39 9b46 a838 3d98 5237
00000230: 0000 0000 0000 0000 761a 1939 ac4e 1439
00000240: 0000 0000 0000 0000 edd9 a2b7 a768 3338
00000250: 0000 0000 0000 0000 fe33 4bb8 6c31 5536
00000260: 0000 0000 0000 0000 805b 2638 98bb bd38
00000270: 0000 0000 0000 0000 2a1f 3639 9280 2039
00000280: 0000 0000 0000 0000 2ec0 0139 b4c0 f038
00000290: 0000 0000 0000 0000 2fb7 0a38 8e30 5e38
000002a0: 0000 0000 0000 0000 7504 c638 7344 cc38
000002b0: a18b 85b7 48ca ebb6 ab1d b8b8 0000 0000
000002c0: 0000 0000 93bb a837 cab9 da37 0000 0000
000002d0: 0000 0000 1e26 0a35 5aad 5a37 0000 0000
000002e0: 0000 0000 ee05 cc36 964a 6f37 0000 0000
000002f0: 0000 0000 808b eb36 cc88 9537 0000 0000
00000300: 0000 0000 1039 1738 14af 1238 0000 0000
00000310: 0000 0000 848c d736 01f9 eb36 0000 0000
00000320: 0000 0000 0e42 a1b4 b39e 0636 0000 0000
00000330: 0000 0000 488a 1b37 c6bf 2037 34b0 3f37
00000340: 573e 2cb6 31f5 f2b5 0000 0000 0000 0000
00000350: aaa2 00b9 10e7 94b8 0000 0000 0000 0000
00000360: 3e88 7239 1731 3e39 0000 0000 0000 0000
00000370: 0e5f e938 4fec da38 0000 0000 0000 0000
00000380: bd28 c738 f383 8c38 0000 0000 0000 0000
00000390: bd8f 4638 a361 8c38 0000 0000 0000 0000
000003a0: 2207 fdb8 998c c3b8 0000 0000 0000 0000
000003b0: 5f3b 8e37 3600 ac37 0000 0000 0000 0000
000003c0: 4d81 d5b8 437a beb8 55d4 3639 88e5 1538
000003d0: 75e6 6438 0000 0000 0000 0000 9443 fb37
000003e0: 1196 7638 0000 0000 0000 0000 351d c938
000003f0: 06aa c938 0000 0000 0000 0000 687f 8438

exp_avg_sq f4 [128, 35]
0.0 0.0 3.0509977e-08 3.254323e-08 0.0 0.0 4.310661e-08 4.650613e-08
0.0 0.0 3.0553704e-08 3.376602e-08 0.0 0.0 4.1336506e-08 4.2493618e-08
0.0 0.0 4.3044835e-08 4.4389367e-08 0.0 0.0 2.2250145e-08 2.4359233e-08
0.0 0.0 2.1545711e-08 2.3923224e-08 0.0 0.0 2.2716725e-08 2.3905695e-08
1.8700813e-08 2.0895596e-09 1.6085153e-07 0.0 0.0 8.142381e-08 8.886458e-08 0.0
0.0 1.3997365e-07 1.4579719e-07 0.0 0.0 7.847783e-08 8.681621e-08 0.0
0.0 1.0948483e-07 1.17968305e-07 0.0 0.0 1.5128795e-07 1.5042981e-07 0.0
0.0 8.223553e-08 8.631574e-08 0.0 0.0 8.126682e-08 8.59466e-08 0.0
0.0 7.979393e-08 8.4225476e-08 7.56807e-08 8.092737e-09 2.3853778e-07 0.0 0.0
1.6395911e-07 1.7804794e-07 0.0 0.0 2.7455383e-07 3.0345694e-07 0.0 0.0
1.512534e-07 1.6845904e-07 0.0 0.0 2.6879988e-07 2.887647e-07 0.0 0.0
3.4758915e-07 3.4979936e-07 0.0 0.0 1.8501028e-07 1.9428386e-07 0.0 0.0
1.7760163e-07 1.9007362e-07 0.0 0.0 1.9161939e-07 1.9876663e-07 1.5559566e-07 1.60653e-08
2.177594e-07 0.0 0.0 2.4693247e-07 2.6366928e-07 0.0 0.0 3.641135e-07
3.941663e-07 0.0 0.0 1.913392e-07 2.1557219e-07 0.0 0.0 3.3348533e-07
3.5510564e-07 0.0 0.0 4.014635e-07 4.031504e-07 0.0 0.0 2.2240631e-07
2.338289e-07 0.0 0.0 2.1910017e-07 2.3344529e-07 0.0 0.0 2.311401e-07
2.3981647e-07 1.7616298e-07 2.1388784e-08 5.6030444e-07 0.0 0.0 6.225575e-08 7.529693e-08
0.0 0.0 1.4827727e-07 1.5447115e-07 0.0 0.0 8.3411514e-08 9.433722e-08
0.0 0.0 1.01210865e-07 1.106812e-07 0.0 0.0 1.6822386e-07 1.6801573e-07
0.0 0.0 3.849638e-08 4.5507992e-08 0.0 0.0 3.348526e-08 4.0950937e-08
0.0 0.0 3.9830304e-08 4.6471882e-08 6.546083e-08 4.8148077e-09 1.0978694e-06 0.0
0.0 8.0367707e-10 9.685723e-10 0.0 0.0 1.7853382e-09 2.000701e-09 0.0
0.0 7.263883e-10 8.287087e-10 0.0 0.0 1.5689366e-09 1.7114502e-09 0.0
0.0 1.8324771e-09 1.8967157e-09 0.0 0.0 1.0458611e-09 1.0605912e-09 0.0
0.0 1.0650106e-09 1.0837101e-09 0.0 0.0 1.0048169e-09 1.019493e-09 1.5689378e-09
1.1139775e-10 4.520971e-08 0.0 0.0 2.1716926e-07 2.2902411e-07 0.0 0.0
3.6241406e-07 3.6937604e-07 0.0 0.0 2.2531128e-07 2.4218633e-07 0.0 0.0
3.4287382e-07 3.4827033e-07 0.0 0.0 3.5742943e-07 3.6244154e-07 0.0 0.0
2.1707775e-07 2.3092008e-07 0.0 0.0 2.1331854e-07 2.2811744e-07 0.0 0.0
2.183026e-07 2.2874673e-07 1.653126e-07 2.2290855e-08 7.805388e-07 0.0 0.0 7.52121e-09
8.386636e-09 0.0 0.0 2.4751706e-08 2.5838217e-08 0.0 0.0 5.1154174e-09
00000000: 0000 0000 0000 0000 130a 0333 a9c5 0b33
00000010: 0000 0000 0000 0000 3824 3933 08be 4733
00000020: 0000 0000 0000 0000 273a 0333 2206 1133
00000030: 0000 0000 0000 0000 f889 3133 3a82 3633
00000040: 0000 0000 0000 0000 4ce0 3833 a0a6 3e33
00000050: 0000 0000 0000 0000 9620 bf32 853e d132
00000060: 0000 0000 0000 0000 8513 b932 ba7f cd32
00000070: 0000 0000 0000 0000 9b22 c332 2e59 cd32
00000080: 86a3 a032 ec97 0f31 88b6 2c34 0000 0000
00000090: 0000 0000 37db ae33 d2d5 be33 0000 0000
000000a0: 0000 0000 aa4b 1634 6d8c 1c34 0000 0000
000000b0: 0000 0000 a587 a833 b76f ba33 0000 0000
000000c0: 0000 0000 ec1d eb33 c355 fd33 0000 0000
000000d0: 0000 0000 b771 2234 d585 2134 0000 0000
000000e0: 0000 0000 7699 b033 945c b933 0000 0000
000000f0: 0000 0000 e884 ae33 a591 b833 0000 0000
00000100: 0000 0000 2d5b ab33 72df b433 e885 a233
00000110: 3c08 0b32 6210 8034 0000 0000 0000 0000
00000120: bd0c 3034 722d 3f34 0000 0000 0000 0000
00000130: 6466 9334 ceea a234 0000 0000 0000 0000
00000140: 3868 2234 abe1 3434 0000 0000 0000 0000
00000150: 934f 9034 8507 9b34 0000 0000 0000 0000
00000160: 4a9c ba34 0fcc bb34 0000 0000 0000 0000
00000170: 3da7 4634 579c 5034 0000 0000 0000 0000
00000180: c4b2 3e34 0a17 4c34 0000 0000 0000 0000
00000190: f0bf 4d34 8e6c 5534 cf11 2734 f8ff 8932
000001a0: 40d1 6934 0000 0000 0000 0000 2492 8434
000001b0: 6e8e 8d34 0000 0000 0000 0000 617b c334
000001c0: ce9d d334 0000 0000 0000 0000 eb72 4d34
000001d0: 0878 6734 0000 0000 0000 0000 e009 b334
000001e0: 59a5 be34 0000 0000 0000 0000 b988 d734
000001f0: 9270 d834 0000 0000 0000 0000 95ce 6e34
00000200: 6612 7b34 0000 0000 0000 0000 cc41 6b34
00000210: f4a8 7a34 0000 0000 0000 0000 4f2f 7834
00000220: 20c0 8034 5027 3d34 6fba b732 d467 1635
00000230: 0000 0000 0000 0000 76b1 8533 edb2 a133
00000240: 0000 0000 0000 0000 2536 1f34 b5dc 2534
00000250: 0000 0000 0000 0000 f71f b333 6f96 ca33
00000260: 0000 0000 0000 0000 4359 d933 a2af ed33
00000270: 0000 0000 0000 0000 06a1 3434 d067 3434
00000280: 0000 0000 0000 0000 3857 2533 9174 4333
00000290: 0000 0000 0000 0000 6fd1 0f33 08e2 2f33
000002a0: 0000 0000 0000 0000 e211 2b33 6098 4733
000002b0: 7993 8c33 7f6f a531 815a 9335 0000 0000
000002c0: 0000 0000 bfe9 5c30 9c1e 8530 0000 0000
000002d0: 0000 0000 0160 f530 b47c 0931 0000 0000
000002e0: 0000 0000 08ab 4730 31cb 6330 0000 0000
000002f0: 0000 0000 0da2 d730 4d38 eb30 0000 0000
00000300: 0000 0000 8eda fb30 6057 0231 0000 0000
00000310: 0000 0000 f7bd 8f30 3cc4 9130 0000 0000
00000320: 0000 0000 bb5f 9230 a9f1 9430 0000 0000
00000330: 0000 0000 da19 8a30 391e 8c30 17a2 d730
00000340: 5cf7 f42e 9a2c 4233 0000 0000 0000 0000
00000350: 082f 6934 abe9 7534 0000 0000 0000 0000
00000360: cf91 c234 a84e c634 0000 0000 0000 0000
00000370: 18ed 7134 d605 8234 0000 0000 0000 0000
00000380: 3814 b834 e9f9 ba34 0000 0000 0000 0000
00000390: bae4 bf34 9695 c234 0000 0000 0000 0000
000003a0: e115 6934 d4f2 7734 0000 0000 0000 0000
000003b0: 8e0c 6534 72f0 7434 0000 0000 0000 0000
000003c0: 9066 6a34 6c9d 7534 c880 3134 1c7a bf32
000003d0: 3886 5135 0000 0000 0000 0000 a236 0132
000003e0: d114 1032 0000 0000 0000 0000 949d d432
000003f0: d7f2 dd32 0000 0000 0000 0000 b0c3 af31

exp_avg f4 [128]
0.0001702877 0.00012046582 0.0005808595 0.000572385 8.6494765e-05 3.0530286e-05 0.00016291403 0.00012685907
9.695492e-05 -0.00025012397 -8.055662e-05 -0.00015563601 9.329804e-05 -0.00025847874 2.6030406e-05 3.164325e-05
-0.00010204658 0.000511822 0.00016895626 3.426244e-05 6.9660964e-05 0.00020993296 -0.0001129302 -0.00033825324
0.0004810691 0.00048082034 -0.00083661906 -3.0197662e-06 -0.0002336466 0.00022383647 6.149606e-05 -0.00016603652
-0.0008893749 0.0003617022 -5.018206e-06 -3.4593395e-05 0.0004988686 0.00041599484 0.00023181394 0.00057495036
-0.000564706 0.0003360732 -3.4234306e-06 0.0002066923 0.00018577017 -0.0001336229 0.0001015534 -0.00048762534
-0.0001774012 -0.00029341516 -0.0001204472 -0.0001421765 -0.00055358635 -0.00014677724 0.000351406 0.00010387249
-0.00016634127 0.00011386511 -0.00031769052 -3.8220263e-05 3.4111679e-06 -0.0011157683 -0.00032745962 4.352972e-05
-0.0003660571 -0.0002390085 -0.00053128466 0.0001175248 0.0005695258 0.0005639415 -0.00016599553 -0.00016346975
-0.00012503986 0.00052670273 -0.00024973296 -0.000146245 -0.00021916379 -0.0001245164 -0.0005165136 0.0001676432
-0.00011581019 7.148611e-05 -0.00039193328 -2.5452302e-06 -0.00023842654 2.1818496e-05 2.0580383e-05 0.000791007
0.00043162474 -0.000528377 7.5611606e-05 -8.863767e-05 -1.8476028e-05 0.0003196275 -0.00020518954 0.00034481578
-0.00025485034 0.000512093 0.000115501374 -0.00061276235 -0.00021442876 0.000574582 -0.0011288675 -6.262194e-05
-0.00019832552 -0.00018038941 3.492779e-05 -0.00054452673 -0.00035374673 -0.00043406602 -0.0006609821 -0.00042374458
7.636608e-05 -3.2097912e-05 -0.00013667988 5.242085e-06 4.073798e-05 -0.00028034628 -0.00070880604 0.00011730128
4.622945e-05 -8.876684e-05 0.0005073929 -0.0008020183 -0.00051008543 0.00010337403 -0.00042570333 -0.0003357273
00000000: 428f 3239 98a2 fc38 d244 183a 1b0c 163a
00000010: 8664 b538 a50d 0038 e7d3 2a39 7905 0539
00000020: 4754 cb38 1223 83b9 82f0 a8b8 3932 23b9
00000030: 01a9 c338 6e84 87b9 df5b da37 aeb8 0438
00000040: d701 d6b8 cb2b 063a da29 3139 04b5 0f38
00000050: f216 9238 7321 5c39 f1d4 ecb8 9557 b1b9
00000060: 0038 fc39 9d16 fc39 8e50 5bba 30a7 4ab6
00000070: 08ff 74b9 a5b5 6a39 72f7 8038 171a 2eb9
00000080: f024 69ba d9a2 bd39 1062 a8b6 6018 11b8
00000090: 81c6 023a e219 da39 1513 7339 44b8 163a
000000a0: c708 14ba fb32 b039 17be 65b6 8bbb 5839
000000b0: 4dcb 4239 201d 0cb9 11f9 d438 f7a7 ffb9
000000c0: c604 3ab9 84d5 99b9 9998 fcb8 3715 15b9
000000d0: 8d1e 11ba 37e8 19b9 ea3c b839 1ed6 d938
000000e0: e56b 2eb9 deca ee38 b38f a6b9 b24e 20b8
000000f0: 6beb 6436 f93e 92ba e3ae abb9 ae93 3638
00000100: 5aeb bfb9 5b9e 7ab9 e945 0bba a677 f638
00000110: 3b4c 153a 79d5 133a 160f 2eb9 1469 2bb9
00000120: 221d 03b9 6c12 0a3a 97ee 82b9 5859 19b9
00000130: 55cf 65b9 9e90 02b9 a466 07ba 61c9 2f39
00000140: 1fdf f2b8 d0ea 9538 657c cdb9 b9ce 2ab6
00000150: 2302 7ab9 dd06 b737 09a4 ac37 955b 4f3a
00000160: b14b e239 c882 0aba ac91 9e38 fde2 b9b8
00000170: f8fc 9ab7 ad93 a739 2628 57b9 64c8 b439
00000180: 6f9d 85b9 fb3d 063a 5439 f238 c9a1 20ba
00000190: 48d8 60b9 8c9f 163a 82f6 93ba e653 83b8
000001a0: 9af5 4fb9 ea26 3db9 6e7f 1238 92be 0eba
000001b0: 1577 b9b9 5b93 e3b9 c245 2dba 092a deb9
000001c0: ba26 a038 dfa0 06b8 ba51 0fb9 2be5 af36
000001d0: 13de 2a38 71fb 92b9 2bcf 39ba a5ff f538
000001e0: 7ee6 4138 5628 bab8 9002 053a 893e 52ba
000001f0: 41b7 05ba 82ca d838 ef30 dfb9 8e04 b0b9

exp_avg_sq f4 [128]
5.6929274e-08 1.6751831e-07 3.8766717e-07 4.603056e-07 1.8720715e-07 2.7685885e-09 4.2174372e-07 3.183898e-08
1.7414736e-08 2.0730778e-07 2.2013461e-08 8.0360785e-08 7.4699095e-08 1.0629478e-07 4.9233762e-08 1.0314805e-08
3.3560147e-07 4.761773e-07 8.064349e-08 2.8732416e-07 1.2653841e-07 8.1347304e-07 9.049502e-08 2.4066745e-07
3.6284814e-07 4.774777e-07 1.2505043e-06 1.6158966e-08 1.1672507e-07 9.314e-08 3.99595e-07 1.8389697e-07
9.463527e-07 2.267468e-07 9.206222e-08 3.0403186e-07 4.318726e-07 2.6376114e-07 1.3341379e-07 6.758681e-07
6.731043e-07 2.4486678e-07 1.75641e-07 6.2257705e-08 8.4505183e-07 2.0300024e-06 3.9585282e-07 7.7159956e-07
9.2332584e-08 1.8203401e-07 2.8700667e-08 4.178797e-08 5.775268e-07 6.832517e-08 1.9839788e-07 1.4474757e-07
8.5787555e-08 2.5994586e-08 2.6832714e-07 2.1190708e-08 1.2569789e-09 2.2136546e-06 7.8441366e-07 3.438433e-09
3.3768546e-07 8.6264215e-08 4.1734475e-07 2.2572821e-07 7.001801e-07 5.558319e-07 6.3609896e-08 7.528611e-08
2.6700988e-08 6.3112395e-07 3.556772e-06 1.6385668e-07 5.0433517e-08 4.6452936e-08 2.7606498e-07 3.9002694e-07
1.5822036e-07 1.7147673e-07 3.9243554e-07 1.6538458e-08 1.6235145e-07 2.6579874e-08 3.2009112e-08 1.0009492e-06
4.8899034e-07 3.3025825e-07 1.2722418e-08 4.299365e-08 1.1608983e-08 2.1515216e-07 5.010577e-07 5.4212296e-07
7.4991775e-08 3.575704e-07 3.9346486e-07 3.0152484e-07 8.536997e-07 6.507069e-07 1.4494316e-06 3.7712752e-07
7.8954066e-08 1.4955587e-07 2.759469e-09 3.9049212e-07 1.664196e-07 2.9230603e-07 8.5964956e-07 2.4428297e-07
1.4646605e-07 2.4252185e-07 1.1623778e-07 9.61099e-09 1.1128333e-08 1.2667537e-07 1.1126442e-06 3.3626515e-07
8.874204e-08 4.4389577e-07 3.8671263e-07 6.946038e-07 3.5287093e-07 4.6653657e-08 2.292326e-07 1.18867455e-07
00000000: 6682 7433 15df 3334 9220 d034 ec1f f734
00000010: 1c03 4934 8641 3e31 046c e234 54bf 0833
00000020: 6997 9532 5498 5e34 1d18 bd32 cf92 ac33
00000030: 436a a033 2c44 e433 1875 5333 fe34 3132
00000040: b72c b434 4fa5 ff34 3a2e ad33 8841 9a34
00000050: 9dde 0734 715d 5a35 2a56 c233 1535 8134
00000060: 78cd c234 052c 0035 00d7 a735 f1cd 8a32
00000070: 49aa fa33 4204 c833 eb87 d634 3775 4534
00000080: dd08 7e35 b077 7334 beb3 c533 d239 a334
00000090: 1edc e734 0e9b 8d34 8140 0f34 4d6d 3535
000000a0: 60af 3435 3c76 8334 d597 3c34 89b2 8533
000000b0: 85d7 6235 2d3b 0836 9985 d434 eb1f 4f35
000000c0: 6048 c633 2175 4334 6f89 f632 5c7a 3333
000000d0: 5707 1b35 29ba 9233 3207 5534 e96b 1b34
000000e0: 353a b833 b34a df32 9a0e 9034 dc06 b632
000000f0: 03c2 ac30 4c8e 1436 7f90 5235 8e49 6c31
00000100: 234b b534 4140 b933 6d0f e034 b35f 7234
00000110: 03f4 3b35 7a34 1535 e999 8833 faac a133
00000120: 185c e532 826a 2935 e1b0 6e36 95f0 2f34
00000130: 3d9c 5833 8b83 4733 1536 9434 e564 d134
00000140: 48e3 2934 2a1f 3834 eeaf d234 7410 8e32
00000150: d452 2e34 c351 e432 647a 0933 5a58 8635
00000160: 2943 0335 594e b134 c991 5a32 05a8 3833
00000170: d970 4732 9304 6734 6c80 0635 6886 1135
00000180: 2a0b a133 1af8 bf34 663d d334 42e1 a134
00000190: cc29 6535 3dac 2e35 178a c235 0378 ca34
000001a0: 758d a933 9b95 2034 18a1 3d31 d4a4 d134
000001b0: 12b1 3234 3cee 9c34 abc2 6635 ff25 8334
000001c0: 4844 1d34 f333 8234 659e f933 951d 2532
000001d0: ed2e 3f32 4304 0834 2a56 9535 ee87 b434
000001e0: 7492 be33 9250 ee34 619d cf34 cf74 3a35
000001f0: 3672 bd34 3d60 4833 fa22 7634 1344 ff33
