forMeL-1/Assets/MLResults/test1/KartAgent/checkpoint.pt (torch, 528377 bytes, 36 tensors)

network_body._body_endoder.seq_layers.0.weight f4 [128, 35]
000000 2c 3f 8e be 40 59 36 bd 0f b2 94 3d e7 ba 46 3c
       -0.2778257 -0.04451871 0.072605245 0.012129522
000010 8e c2 54 bd bd 08 19 3e 5d 8f 22 bf 9e 11 75 bc
       -0.051943354 0.1494474 -0.63500005 -0.014957814
000020 fd 7b 13 3e 0f 3b c4 bc 2d 24 4a be 63 6d 0b 3e
       0.14402767 -0.023953943 -0.19740362 0.13615946
000030 93 1f c2 3d 65 34 05 bf 8f 05 94 3e 25 83 72 bd
       0.094786786 -0.5203307 0.2891049 -0.0592071
000040 af 8a ff bc a7 fc 5c bd ac 8b 30 be d9 a6 a5 3d
       -0.03119406 -0.053951886 -0.1724078 0.08088464
000050 87 43 1b 3e 37 90 0b be af fe ca 3e 88 e0 39 3e
       0.15162478 -0.13629232 0.39647433 0.18152058
000060 ca 07 48 3e 43 48 4b 3e d1 96 07 be 91 db 64 bd
       0.19534221 0.19851784 -0.13241126 -0.055873457
000070 60 e0 8d be a6 ea 9a 3d 70 25 a7 3e 43 9d 48 3e
       -0.27710247 0.07564287 0.3264575 0.1959124
000080 0c 5c ef 3d 4e bc dc bd 02 06 6a 3d a5 06 10 3d
       0.116874784 -0.10778104 0.057134636 0.035162587
000090 96 63 06 3e cd 43 8b bd 7c d3 f5 bc f4 84 88 3b
       0.13123927 -0.06800041 -0.03000807 0.00416624
0000a0 4f ea 05 3d 9e 9f 50 3e cc ed 4b 3e ff f3 d2 3b
       0.032694157 0.20373389 0.19914931 0.006437778
0000b0 78 39 1d 3e ca ca 45 3c e2 f2 5e 3d 33 33 3a be
       0.15353954 0.012072274 0.05443085 -0.18183593
0000c0 40 1a 74 bd ff 84 f3 bc bb 4f d6 bc d6 a7 06 3e
       -0.059595346 -0.029726503 -0.026161065 0.13149962
0000d0 ce 74 39 bd 0a 4b d6 be 20 08 84 3e c2 8d 80 bd
       -0.04527741 -0.41854125 0.2578745 -0.06277038
0000e0 2f 2b 02 be eb 1b 1a bd 15 68 d7 bd 2f 47 d3 3d
       -0.12711786 -0.03762428 -0.10517899 0.103163116
0000f0 bd 84 eb 3d 29 1e 0f be 7d 6e f4 bd 0e 80 39 3d
       0.11499927 -0.13976349 -0.119351365 0.045288138
000100 65 5e 80 be 79 a0 92 3d 60 9c 1e be 40 b0 d9 bd
       -0.25072017 0.07159514 -0.1548934 -0.1062932
000110 5a ca a3 bd 92 66 c7 bd 7b b9 6f 3e 80 bf a3 3e
       -0.0799758 -0.097363606 0.23410599 0.3198204
000120 7b 9f de bd 0f 1d 6a 3d 10 f2 5c be 57 fc 63 be
       -0.10870262 0.05715662 -0.21576715 -0.22264229
000130 2f fb 53 3d b3 8c 1c 3e 3b 37 1e 3e 7a 0e 5f 3e
       0.05175322 0.15288047 0.15450756 0.21782866
000140 fb 91 cc 3d d5 69 8d 3d bb cd b4 be 25 2b 67 be
       0.09988781 0.069049515 -0.3531321 -0.22575052
000150 4b 9a 45 3e df ba 0d 3e 70 2d 89 bd ad f2 74 be
       0.1929714 0.13840817 -0.0669812 -0.23920698
000160 42 1b 62 3e 6d a5 13 be 4f b9 e1 bb 71 c8 aa 3d
       0.2208071 -0.14418574 -0.0068885456 0.083390124
000170 e2 94 47 3d 7a 29 93 bb c1 85 8b 3d 1f 86 18 be
       0.04872597 -0.0044910284 0.06812621 -0.14894913
000180 44 14 a0 be 2a 73 db bd 37 5d 19 3d 28 57 90 bd
       -0.3126546 -0.10715325 0.037442412 -0.07047874
000190 8c f6 c0 bc e0 c0 22 be af da 23 3e 88 e3 84 3e
       -0.023555063 -0.15893888 0.1600139 0.25954843
0001a0 1e 38 9d bd 04 c6 1f be e9 a4 2e 3d 88 68 13 3e
       -0.07676719 -0.1560288 0.04263774 0.14395344
0001b0 4a 7b a8 3e 49 11 b8 be 6d d7 56 3e b2 0a 90 bd
       0.32906562 -0.35950688 0.20980616 -0.0703329
0001c0 8c fd ea 3c f0 be e3 bc 4e a4 8b 3e e7 c9 48 be
       0.028685354 -0.027801007 0.27273792 -0.1960827
0001d0 33 2f 24 3e dc d5 89 bd 51 39 2d 3d 24 53 19 3d
       0.1603363 -0.067302436 0.04229099 0.037432805
0001e0 f6 da 55 3e a4 8f 9c 3d 7c e4 5a be a5 2b 9c bd
       0.20884308 0.07644585 -0.21376222 -0.07625512
0001f0 46 99 4b 3e 35 fc a5 3d 6f 78 c6 3e 53 07 98 3e
       0.19882688 0.08104745 0.3876376 0.29693088
000200 98 9e 25 3e 27 99 4f 3d 4b 27 38 3e d4 8e 72 bd
       0.1617378 0.050683167 0.17983739 -0.059218243
000210 a3 d4 ea 3d d4 f2 48 be 54 8a b9 be 76 51 a9 3d
       0.114663385 -0.19623882 -0.36238348 0.082674906
000220 54 43 b3 bb 1d 68 dc bd 12 a0 e7 bd bc 18 25 3e
       -0.0054706726 -0.107620455 -0.11309828 0.16122717
000230 aa c0 73 3d 42 85 74 3d 6d 32 8f bd 54 4f 12 be
       0.05950991 0.059697397 -0.0699204 -0.14288074
000240 2a 38 80 bd 6e 77 59 3e 92 58 f8 3e 3c f6 9f 3e
       -0.062607124 0.21236965 0.48505074 0.3124255
000250 b5 a5 2d 3e 01 4a 68 be 5f e8 e0 bb fe ac 1e be
       0.16957743 -0.2268448 -0.0068636383 -0.15495679
000260 0d 00 9c bd 3e 9b b9 3d 56 c5 9f 3c d5 24 72 3e
       -0.07617197 0.09062813 0.019503277 0.23646863
000270 c7 7a 22 3e ff 5f 83 3e d0 92 b5 b8 ce 73 6c bd
       0.15867148 0.25659177 -8.6580985e-05 -0.057727627
000280 54 37 d5 bd 34 5d 86 3d 4e 9a 9d be 83 3b 00 3e
       -0.104109436 0.06560746 -0.30781788 0.12522702
000290 9b 94 16 3e de b0 bc 3b 82 c5 3b be 73 f0 00 3e
       0.14705126 0.005758389 -0.18337062 0.12591724
0002a0 d6 14 72 3d f4 12 95 bd 8e 45 de 3c ab c4 8e bd
       0.059101902 -0.07279006 0.027132776 -0.06971105
0002b0 04 76 49 3d fc f1 0e be a4 07 7f be d2 99 67 3b
       0.049184814 -0.13959497 -0.24905258 0.0035339487
0002c0 de f2 34 bc 46 3b de 3d 23 9f 35 bd 3a 03 58 bd
       -0.011044232 0.10851149 -0.044341218 -0.052737452
0002d0 95 d6 02 be 7d 68 bf be ef 99 b3 3d 4a a5 74 bb
       -0.12777169 -0.37384406 0.08769595 -0.0037329965
0002e0 27 80 18 3e c3 dd 51 3e 18 3c a7 bd 14 3b 57 be
       0.14892636 0.20494752 -0.08165759 -0.2101863
0002f0 1f ef e4 3c 54 e5 a8 3d 04 46 ee bd 38 6c 8c 3d
       0.027946053 0.08246866 -0.11634448 0.068565786
000300 43 60 96 3d dc 0d e1 3e e1 01 98 3e 09 c5 1c be
       0.07342579 0.43955886 0.29688933 -0.15309538
000310 6f 22 47 be e0 a1 15 be 95 57 4c 3c 2c 23 76 be
       -0.19446729 -0.14612532 0.012472053 -0.24036855
000320 0b 37 6c be 21 33 ea bd f1 7a eb bc 10 2c 92 3d
       -0.23067872 -0.11435533 -0.028745146 0.071373105
000330 82 13 1a 3e 23 e8 83 3d a6 42 74 bd 04 ee ef 3e
       0.15046504 0.06440761 -0.059633873 0.4686128
000340 f6 5d d1 bc db ce a5 be 04 86 9a 3e 21 1c 82 3e
       -0.0255575 -0.3238438 0.3018037 0.25412086
000350 3b ec a9 3e 6f cd 84 3e 1a e0 d5 bd 2b d3 2c 3d
       0.33188042 0.25937983 -0.104431346 0.042193573
000360 bb 7b 4d be 05 01 03 3e 1c 41 97 bd 12 ec 31 3d
       -0.2006673 0.12793358 -0.073854655 0.043438025
000370 30 b3 08 3e 6e c0 85 bd 1d 7f d9 be 79 96 1f 3e
       0.13349605 -0.06530844 -0.42479792 0.15584745
000380 03 e6 ba 3d f8 77 37 be a2 36 47 be 83 59 83 3d
       0.091259025 -0.17916858 -0.19454435 0.064135574
000390 c4 f3 1d be ec a6 2a be 87 33 23 be 2d 3e 79 bd
       -0.1542502 -0.16665238 -0.15937625 -0.06085031
0003a0 d7 e2 eb 3d 9c f4 e1 bd 26 d9 1e be 29 01 40 be
       0.11517876 -0.11032984 -0.15512523 -0.18750443
0003b0 05 7d 76 3e 12 4f 0c 3c 4e ba dc bd e6 2c d6 3c
       0.24071129 0.008563774 -0.10777722 0.026144456
0003c0 d9 d6 9d 3d ae 26 b2 bd a5 6f 00 be 70 41 46 be
       0.077069946 -0.08698784 -0.12542589 -0.193609
0003d0 4a 0e de 3d ad 74 e9 3c 6e f4 7a bd ac 5b a3 be
       0.10842569 0.028498018 -0.061268263 -0.31905878
0003e0 2e 59 22 3e b7 da 19 3e 28 5b 95 be 40 fd 7b be
       0.15854332 0.1502484 -0.2917111 -0.24608326
0003f0 63 79 11 bc ab 4d 04 be d7 d3 91 be fc f9 18 be
       -0.0088790385 -0.12920253 -0.28481933 -0.14939111

network_body._body_endoder.seq_layers.0.bias f4 [128]
000000 56 91 86 3c af 06 d7 3c 6f 31 b0 3c 6f c7 9d bb
       0.016426723 0.026248304 0.021507947 -0.004815034
000010 6d ff 84 3c a8 25 8a 3b 45 00 05 bc a2 c2 09 bc
       0.016235078 0.0042159148 -0.00811774 -0.0084082205
000020 97 39 5a 3c 66 ab 22 3d 1d 77 9d 3c 7d d5 73 bc
       0.013319395 0.03971424 0.019221837 -0.014882443
000030 8e 83 41 bc 87 1f e0 3c f5 5c 83 bc 0a d9 33 3d
       -0.01181115 0.027358783 -0.016035536 0.043908156
000040 fd e4 93 3c 7e c5 74 bb 0d 17 b2 3c 89 b8 c8 3c
       0.018053526 -0.003734916 0.021739507 0.024502056
000050 37 18 de 3c c6 45 30 3c fa fb c1 3c 69 72 ed 3c
       0.027111156 0.010758823 0.023679722 0.02898522
000060 48 18 b1 bb 67 cc 8f 3c 39 4a 14 3c a9 b2 79 3b
       -0.005404506 0.017553521 0.009050899 0.0038100875
000070 2b ff b8 bc 35 f5 92 bb b8 7a 34 3b 81 ff 75 bc
       -0.022582611 -0.0044847974 0.0027538966 -0.01501453
000080 29 6a a5 3b 75 43 d8 3b 36 f7 5a 3c e1 49 cb 3b
       0.0050480557 0.0065998384 0.013364604 0.0062038754
000090 d5 48 ce 3c c4 43 8e 3c 96 a6 2f bb 7f b5 6c bc
       0.025181213 0.017366298 -0.0026802174 -0.014447569
0000a0 02 85 0c 3d 39 60 da bb 8d 70 24 bd f0 01 f3 bc
       0.034306534 -0.0066643027 -0.0401464 -0.02966401
0000b0 c7 81 8e bb 4d 1b b7 3c 20 06 ef 3c b1 d8 ce 3b
       -0.0043489668 0.022351885 0.029177725 0.0063124527
0000c0 7f 0d b6 3c 3a 30 c0 bc b2 ca b0 bc a0 28 21 bd
       0.022223232 -0.023460496 -0.021581028 -0.039345384
0000d0 0a dc 0f 3d ec 70 71 bc c5 ea 61 3a a2 49 4a 3d
       0.035121955 -0.014736395 0.0008618052 0.049386628
0000e0 ec 93 9b bb 6d 71 18 bd 5a b4 45 3d ce 7f af bc
       -0.0047478583 -0.037217546 0.0482677 -0.021423247
0000f0 54 17 87 3c 50 b4 96 bc 32 d0 07 3d df 62 c1 3c
       0.016490616 -0.018396527 0.033157535 0.023606716
000100 e8 ae cd bc 60 cf 42 3a 42 d4 51 3c 60 b3 2d 3c
       -0.025107816 0.0007431414 0.012806954 0.010601848
000110 36 b4 9e 3c b6 23 c6 3c 29 3f ad bc 4f ac ce 3b
       0.01937304 0.02418695 -0.021148281 0.006307162
000120 8e 84 51 3c 22 8f 70 b9 26 02 4a 3c b2 e0 bb bb
       0.012787951 -0.00022941505 0.012329614 -0.005733573
000130 75 5b c6 bc ec fb 14 bc 03 b9 90 bc 61 5a 38 bc
       -0.024213532 -0.009093266 -0.017666345 -0.011252017
000140 ef 4c cd 39 e1 89 40 ba 15 81 99 3c de 3f 28 bb
       0.00039157967 -0.00073447643 0.018738309 -0.0025672833
000150 0d 23 d7 3b 3e 4d 1e bc 9a e6 3f bc 63 81 38 bc
       0.0065654577 -0.009661971 -0.011712695 -0.011261317
000160 57 1a cd 3c 52 bc 36 3c 2d b5 ed 3c 99 ca 2b 3c
       0.025036974 0.0111532975 0.029017055 0.010485315
000170 de 9c 23 3d 17 ef 09 3c af fa 85 3c ff 14 01 3d
       0.039944522 0.00841882 0.016354887 0.031514164
000180 04 01 66 3c fe a2 33 3d 4b 5f b0 3a 14 87 e7 3c
       0.014038328 0.043856613 0.0013456134 0.028262652
000190 11 7d 1c bb 2e d2 4c 3c b5 92 d2 3c 7f e0 1c 3d
       -0.0023878256 0.012501283 0.025704721 0.038300034
0001a0 20 44 0a 3d 49 26 91 3c 1e 41 13 bc 30 39 b0 3b
       0.033756375 0.017718451 -0.008987693 0.005377911
0001b0 95 2b cb 3c f4 23 86 3b bd a0 42 3c ed 43 97 3c
       0.024801055 0.0040936414 0.011879143 0.018465007
0001c0 f4 8e 48 3c cb 6a 26 3c bb 76 51 ba 24 6b 17 bb
       0.012241114 0.010157297 -0.00079904095 -0.0023104632
0001d0 7a 22 a6 3c 10 82 85 bc e3 0d e2 3b 8a 0c 0d 3d
       0.020280112 -0.01629737 0.006898628 0.034435786
0001e0 91 5a 61 3d 90 47 1b 3d 11 d9 f8 3a 3b c3 11 3d
       0.05501801 0.037910044 0.0018985589 0.035586577
0001f0 07 d2 ea bb 01 b3 28 3b 78 11 af bb 58 26 e0 3c
       -0.0071661505 0.002574146 -0.0053426586 0.027362034

network_body._body_endoder.seq_layers.2.weight f4 [128, 128]
000000 dc 3c 11 3d d4 57 5c 3d c5 15 44 3e f7 10 f4 3c
       0.03545843 0.053794697 0.1914893 0.029793246
000010 07 08 88 3d d0 24 fa 3d 76 06 4a 3d 0e df d8 3c
       0.06642156 0.12214053 0.049322568 0.026473548
000020 39 aa b1 3d ee fc a8 3d 2b 88 93 3d 16 dc e3 bd
       0.086750455 0.082513675 0.07203706 -0.111259624
000030 8b c6 0d be 1f 21 a2 bc 72 4e 13 be d3 97 e8 3d
       -0.1384527 -0.019791184 -0.14385393 0.11357083
000040 e3 56 72 bd bc 5b 3c bc d1 6d 3b bc fc 48 94 bc
       -0.059164893 -0.011496481 -0.0114397565 -0.018101208
000050 8b 78 c2 3b 4a b6 b9 bc 78 09 8e bd b5 4f 55 ba
       0.00593478 -0.02266993 -0.069354 -0.00081371824
000060 76 c9 44 3d 31 68 ce bd 4f 48 4a 39 4a be 9f 3d
       0.04804369 -0.10078467 0.00019291158 0.07799967
000070 25 23 d5 bc 4b 0a 89 bb 87 e4 39 be b5 13 07 be
       -0.026017735 -0.004182135 -0.18153583 -0.13191111
000080 2a c6 1c be c8 08 eb bd 41 f9 5f bd 75 0a 62 bd
       -0.15309969 -0.11476284 -0.054681066 -0.055185754
000090 dd 5f ac 3d 83 26 18 be 84 b0 10 3d 74 86 96 bd
       0.08416722 -0.14858441 0.03532459 -0.07349864
0000a0 21 6e 85 bc ea 1e 65 3d 8d cd df 3b d0 ef 0c bd
       -0.016287865 0.055937685 0.0068299235 -0.03440839
0000b0 fe b6 dd 3d 2f 07 be bc 14 74 f3 3c 27 bd 01 3d
       0.108259186 -0.023196785 0.029718436 0.03167453
0000c0 53 ff bf bd 6f 53 b3 bd 1f 45 13 bc fc c0 3f 3d
       -0.09374871 -0.08756148 -0.008988648 0.046814904
0000d0 66 db ad 3c 22 62 18 bd 16 88 a9 bb 1c 18 fb 3c
       0.021222781 -0.03720296 -0.0051736934 0.030651145
0000e0 1f ec fc bd ef 85 db 3c bc 9b 8c 3d 1b f6 c7 3b
       -0.12349724 0.026797263 0.068656415 0.006102336
0000f0 09 2d 87 3e 2c 48 15 be 04 c9 49 3d 60 da 82 3d
       0.26401547 -0.14578313 0.04926397 0.06389308
000100 33 cd 31 be e6 4e 66 bc b5 95 9a 3d 1b 32 ef bd
       -0.17363434 -0.014056897 0.075480856 -0.11679479
000110 ee 48 b8 3d 17 53 c8 bd 94 1d c0 3b 9b 6e 97 bd
       0.08998285 -0.09781473 0.005862901 -0.07394143
000120 d4 16 d2 3d 34 c8 5f bb 96 09 58 be 2d ee 82 bd
       0.1025826 -0.003414643 -0.21097407 -0.06393085
000130 76 ec 9b bc 7f d8 d7 3d 41 b9 35 bd ca 0e 2a 3d
       -0.019033652 0.1053934 -0.044366125 0.04151801
000140 fd b8 2b 3d 10 40 80 3d b9 73 cf bc 99 e1 f9 bc
       0.041924465 0.06262219 -0.025323736 -0.030503081
000150 40 90 a8 3d d9 46 14 be 65 f5 cd 3c de 80 fd bd
       0.082306385 -0.14480151 0.025141427 -0.12378095
000160 fb 8b 18 bd 45 8b cf 3c 13 06 dd 3d d6 84 a3 bc
       -0.03724287 0.025334964 0.10792174 -0.019960802
000170 26 c6 82 3d f9 cf c1 3d f4 01 18 3e 07 29 a7 3d
       0.0638545 0.09463496 0.14844495 0.08162122
000180 95 99 20 be 41 98 a4 3e bd 03 74 be 4c be 40 3e
       -0.15683587 0.3214741 -0.23829551 0.18822592
000190 64 21 2b bd 05 ff 1f bd 55 11 f1 3d 99 00 18 bc
       -0.04177989 -0.039061565 0.11770884 -0.009277486
0001a0 b9 13 5f 3d 49 b1 3c be 56 8c 73 bd 81 80 47 3e
       0.05446217 -0.18427004 -0.059460007 0.19482614
0001b0 1b a4 ef 3d 60 09 50 bd 10 31 18 bd 9f 60 e3 bc
       0.117012225 -0.05079019 -0.037156165 -0.027756033
0001c0 29 22 41 bc de 1a 9d bd 26 9a 0c 3e eb 64 80 bd
       -0.01178793 -0.0767114 0.13730678 -0.062692486
0001d0 db 12 5c 3d eb 21 10 be f1 6a 1b 3d 9e e0 34 3e
       0.05372892 -0.14075439 0.037943784 0.1766381
0001e0 53 fc 02 3e b8 22 63 3d 0e c7 6c bc 7f a8 0b 3e
       0.12791567 0.055453032 -0.014451755 0.13638495
0001f0 6a b2 98 bd 9f 3e e6 3c 18 0c d9 bc 5c af fd bd
       -0.07455905 0.028106032 -0.026495025 -0.12386963
000200 44 88 8e 3e 56 d0 81 be 5a 2a 36 3e b8 ff 9a bc
       0.27838337 -0.2535426 0.17789593 -0.018920764
000210 0a a9 c5 bc ae c7 e7 3d 8f 75 b3 bd ab 40 6d b9
       -0.024128456 0.11317383 -0.08762657 -0.00022626172
000220 e3 20 b2 bd 84 c9 60 3e 16 7c 24 3e 8e d8 1f bd
       -0.08697679 0.21951872 0.1606296 -0.039024882
000230 2d 5b 22 bd af 4a 8c bd 04 b8 aa 3d 9c 49 97 bd
       -0.039637733 -0.06850182 0.083358794 -0.07387087
000240 57 48 9b bc ff 02 fc 3d 7b 00 c0 3d d6 77 fd bc
       -0.018955393 0.12305259 0.09375092 -0.030940931
000250 92 36 03 be 61 1c 62 3b 36 f2 b0 bd cf 3f 1b 3e
       -0.12813786 0.0034501778 -0.08639948 0.1516106
000260 32 c2 0f bc 38 6c ee 3d e3 56 8b bd a9 0d 64 be
       -0.008774327 0.11641735 -0.06803682 -0.22270836
000270 6e 55 a8 3d cd 58 de bd 8d ad 5b be 77 d7 0e be
       0.082194194 -0.10856781 -0.21452923 -0.13949381
000280 0a 89 2e be e5 e6 26 be d5 1f 1a 3c 0d da d0 3d
       -0.17044464 -0.16299017 0.009407003 0.1019784
000290 6c a7 67 3d 3f e5 96 3d 58 be dd 3d a1 f4 b2 3d
       0.05655615 0.07367944 0.10827321 0.087380655
0002a0 84 f2 08 3e fa a0 38 3e b2 73 76 bc 09 80 cf 3c
       0.13373762 0.18030158 -0.015042232 0.025329607
0002b0 96 71 ca bd 71 4e 36 3d 61 21 8d 3d 42 83 15 be
       -0.09884946 0.0445084 0.06891132 -0.14600852
0002c0 9b e4 bb bd fa 45 7f bd 94 ac 83 bd 98 06 8b bd
       -0.091744624 -0.062322594 -0.06429401 -0.06788367
0002d0 83 d5 89 3b f2 4a 96 3d f2 ec 57 3d 2e 51 78 3c
       0.004206361 0.073385134 0.052716203 0.0151560735
0002e0 95 0d 17 bc 40 fe 6c bd 4f f7 b7 bc 2d 60 10 be
       -0.009219547 -0.05785966 -0.022456793 -0.14099188
0002f0 cf 2a ee 3c e1 e9 5d 3b 2d 9c 2b 3e f4 67 27 bc
       0.029073147 0.0033861327 0.16758795 -0.010217655
000300 c4 e0 85 bd 50 77 a2 bc cc 69 56 3c e2 47 cc bd
       -0.06537011 -0.019832283 0.013086747 -0.09974648
000310 a2 dc 37 be 36 a6 9b bd 3b cc 90 3d 17 49 dc 3d
       -0.17955258 -0.076000616 0.07070204 0.10756128
000320 9b cc b9 3d c9 0f 44 bd 48 03 aa ba 58 66 d7 3d
       0.090722285 -0.047866616 -0.0012970949 0.105175674
000330 62 7f 54 3d 02 fb f5 3d cb c0 05 bd 40 7f 62 bd
       0.051879294 0.120107666 -0.032654565 -0.055297136
000340 b3 50 1b be dd 80 d3 3b 84 fe 8b 3d 44 34 72 be
       -0.15167503 0.0064545707 0.068356544 -0.2365275
000350 48 a4 bc bb 07 89 5a bc ba fc 49 be f2 3e 9c 3d
       -0.0057568885 -0.013338334 -0.19725314 0.07629193
000360 38 a1 84 bd 4c 8f 81 3d 67 36 a5 3d 2d f7 0f 3e
       -0.064760625 0.0632616 0.08067017 0.14059134
000370 cb cd d3 3d c0 9a 55 3e 2b 85 12 3c bb d3 58 3d
       0.10341986 0.20859814 0.0089428825 0.052936297
000380 57 4a 24 3b 8d e6 03 3e 37 65 9e bd b0 77 1c be
       0.0025068724 0.12880917 -0.07734149 -0.15280032
000390 fd 30 34 3d ad 85 31 bd f7 a2 ef 3c 45 52 a7 bd
       0.04399203 -0.043340374 0.029252512 -0.081699885
0003a0 d8 7c 29 bd 8d ba 1b be 5f ef 74 bc 83 74 b8 3c
       -0.041378826 -0.15207882 -0.014949649 0.022516495
0003b0 69 5d cb bd 56 30 46 3b 86 1d a3 3e 13 2f 55 bd
       -0.09929926 0.0030241213 0.31858462 -0.052046847
0003c0 7c 07 02 3e 4f 51 01 bc 8a 0a 42 3e 2c 24 71 bc
       0.12698168 -0.007892921 0.18949333 -0.014718097
0003d0 44 fa 64 3d 69 55 e5 bd 2b e5 22 be 71 17 73 3d
       0.055902734 -0.11197931 -0.15907733 0.059348527
0003e0 74 68 f2 bc 12 ba 8d 3d ad 19 33 3c 10 85 46 bd
       -0.029590823 0.06920256 0.010931415 -0.048466742
0003f0 b1 57 39 be 3b b4 5f bb 40 e4 0a 3d 4b d2 1a be
       -0.18099858 -0.0034134525 0.033909082 -0.15119283

network_body._body_endoder.seq_layers.2.bias f4 [128]
000000 cb f2 8f 3c d6 95 c9 3c c7 17 dd bb 36 15 b5 3b
       0.017571827 0.02460758 -0.0067472192 0.00552621
000010 ff 4e 9a 3c 9d 84 d6 bb 86 c0 c2 3b 41 bb 84 3b
       0.018836496 -0.0065465705 0.0059433607 0.0040506427
000020 a0 cc 8d 3a a7 13 6d 39 a4 7d 00 3d 39 37 80 3c
       0.0010818429 0.00022609402 0.03136982 0.015651332
000030 df 8d a1 3b 47 ff 98 bb 43 d6 92 3c b9 f8 a3 3c
       0.0049302424 -0.0046691033 0.017924434 0.020016061
000040 6b af b7 3b a7 92 a6 ba 5b 89 e6 3c b2 a9 d0 3c
       0.0056056282 -0.0012708501 0.028141668 0.025471542
000050 10 eb e4 bb 19 e8 cd 3c c3 72 a7 3c ec 83 d6 3b
       -0.0069860294 0.025135087 0.020440465 0.006546488
000060 59 06 02 3d 9b 94 c1 ba 27 71 74 3c 8a 9e f3 3b
       0.031744335 -0.0014769019 0.014919556 0.007434671
000070 7f 3c ee 3c d8 1b e8 3c 54 69 d2 3c 55 be 88 3b
       0.029081581 0.02833359 0.02568499 0.00417308
000080 bb b5 cc 3c 7c 27 9a bb 75 41 cf bc 54 6d e2 ba
       0.024989 -0.004704414 -0.025299767 -0.0017275014
000090 c0 a7 ae 3c e9 2a c6 3c f3 a3 f4 ba f2 e6 2e 3d
       0.021320224 0.024190383 -0.0018664583 0.042700715
0000a0 2f 7b 30 b9 0a 91 08 bc d9 5b 16 3c 54 49 79 bb
       -0.00016830557 -0.008335361 0.009177172 -0.0038038092
0000b0 cd a5 b6 3b d7 ba ef 3b fd 89 b8 3b 7e 92 92 3c
       0.005573964 0.007315974 0.005631684 0.017892119
0000c0 52 f8 f6 3c 38 e0 c9 3b 21 8e 37 3b f5 39 0c 3c
       0.030147705 0.006160762 0.00280083 0.00855874
0000d0 cb c6 d9 bb 7a df df ba 0c 52 39 bb b7 cd e1 3c
       -0.0066460124 -0.0017080151 -0.0028277664 0.027563913
0000e0 c1 74 e4 3b 67 18 06 3c 7b 13 89 3c 09 a2 51 bb
       0.006971926 0.008184529 0.016732922 -0.003198745
0000f0 ed c7 12 3a a9 7c a4 3b 7c c6 02 ba d4 bf 30 3c
       0.0005599249 0.0050197435 -0.0004988683 0.010787923
000100 84 93 90 3c 65 c3 24 3c 60 74 5c bb c6 42 b6 3b
       0.017648466 0.010056351 -0.00336387 0.005562159
000110 63 d1 17 3c b1 db 47 3c 6e 27 3e 3c 2f a7 fc 3b
       0.00926623 0.012198375 0.01160608 0.0077103595
000120 1e 1a 81 3c 59 ea cb 3c 73 f0 a8 3c 97 07 fd 39
       0.015759524 0.02489202 0.020622468 0.00048261575
000130 45 e7 76 bb 82 2b 72 3c b8 e9 41 3c e8 79 d1 3c
       -0.0037674468 0.014780881 0.011835508 0.025570825
000140 e4 43 0a 3d ac fb c1 3b d8 a0 20 3c 1a 46 47 bb
       0.03375615 0.005919894 0.009803973 -0.0030406774
000150 9f e7 cb 3b 96 1a 8b 3c 84 3f af bb ba ea a0 3c
       0.0062226797 0.01698045 -0.005348148 0.019643176
000160 f3 54 02 bc 7f f1 82 3c c6 a4 8e 3b f8 14 b8 3c
       -0.007954824 0.015984295 0.0043531386 0.022470936
000170 66 49 01 3c b0 b4 e8 ba d7 66 2c bc f3 a5 38 3c
       0.007891035 -0.0017754044 -0.010522566 0.011270034
000180 15 1c 99 3c f9 ad c2 bb 31 46 c2 3b c2 4a 9c b9
       0.018690148 -0.0059411493 0.0059287776 -0.00029810338
000190 fe 8d ba 3c 89 a6 0e 3c 52 8b 81 39 94 91 6d 3b
       0.022772785 0.008706697 0.000247086 0.0036250101
0001a0 ea 74 a3 3a 5c 54 01 bb 9b 7a 7a ba ab dd c8 3c
       0.0012470756 -0.001973412 -0.0009555013 0.024519762
0001b0 de 49 08 ba e9 0c 5f 3b 6d 65 95 3c b4 59 14 bb
       -0.00051989953 0.0034034795 0.01823684 -0.0022636475
0001c0 38 4c f5 3b cc 8e f1 3b 13 0c e1 3b b3 2e 91 3c
       0.0074858926 0.007371759 0.0068678944 0.017722463
0001d0 c1 49 30 bb d6 eb 0e 3d b0 0d 9c 3c 20 ac 0c 3d
       -0.002689943 0.03489288 0.019049495 0.03434384
0001e0 47 b8 06 3c 66 2c 08 b9 fd b8 03 3d 99 3a 21 bc
       0.008222646 -0.0001298651 0.03215884 -0.009840631
0001f0 bd 8e e9 3c f7 69 97 3b c0 31 89 3c c5 43 bc 3b
       0.028510446 0.0046207863 0.016747355 0.0057453834

action_model._continuous_distribution.log_sigma f4 [1, 2]
000000 2f 33 16 bc ab 61 ff bc
       -0.009167477 -0.031174501

action_model._continuous_distribution.mu.weight f4 [2, 128]
000000 50 b3 0a 3a 10 6f ab 3d 5e 0f 02 bd cc 0e 5f 3d
       0.0005291002 0.08370793 -0.031752937 0.05445747
000010 0c 0b de bc b1 b7 da bb 88 83 04 3d d0 97 2a bd
       -0.027104877 -0.0066747298 0.032352 -0.041648686
000020 af 5a 29 3d c6 01 a5 bd 83 3b 1d 3d 52 e7 31 3d
       0.04134625 -0.08056979 0.038386833 0.043433495
000030 2a 4f a7 3c d8 e7 e5 bc af 5b c8 bc 9b 50 34 bd
       0.02042349 -0.028064653 -0.02445778 -0.044022184
000040 c2 e3 5b bd 62 e4 24 3c 39 7d 6e 3c 17 e5 32 bd
       -0.053684004 0.010064216 0.014556223 -0.04367551
000050 a4 75 ac 3c a2 64 7d 3d df 24 6d 3d 3d dd 03 bd
       0.02105219 0.06186355 0.05789649 -0.03219341
000060 32 2b 34 3d e4 67 44 bc 82 01 9d bd 88 93 00 3d
       0.043986507 -0.01198766 -0.07666303 0.031390697
000070 4c 76 fa 3c 97 7a 6c ba ad 12 2e 3c ab 54 09 3c
       0.030573986 -0.0009020953 0.01062457 0.008382003
000080 42 5e cb 3c dc 61 28 bc c3 7c 9a ba 08 a5 60 bc
       0.024825219 -0.010277238 -0.001178645 -0.0137112215
000090 77 87 86 3d ee 1f 55 bd 56 60 80 bd e0 43 81 3b
       0.065688066 -0.052032404 -0.062683746 0.003944859
0000a0 41 55 9f 3c 19 d4 b7 bc c4 fd e9 bc ba 97 d0 3c
       0.019449832 -0.022440003 -0.028563388 0.025462974
0000b0 07 8b 39 3d 13 b3 7a bd 15 9c 25 3d 37 07 32 3c
       0.045298602 -0.061205935 0.040432055 0.010865978
0000c0 55 56 6e 3c 41 93 94 bd 7d bc 84 3c 51 99 ae bd
       0.01454695 -0.07254649 0.01620316 -0.085253365
0000d0 ba 91 d3 3c bb a8 17 bd f8 01 1e 3c 43 1e 21 bc
       0.025826324 -0.03702615 0.009644024 -0.009833875
0000e0 a0 40 0e bd 1e 5d 58 3d b2 7d 53 bd 36 d7 48 bd
       -0.0347296 0.05282318 -0.051633544 -0.049033366
0000f0 cf 38 ee bc a7 63 45 3c d4 18 f6 3c 2e ab e2 bc
       -0.029079823 0.012047685 0.030041136 -0.027669515
000100 33 eb b7 bc a4 2b 05 3d e9 e8 94 bc a3 57 d7 bc
       -0.022451019 0.032512322 -0.018177466 -0.026286906
000110 37 1c 6e 3d c6 a4 1c 3d 4a ec fa 3c 92 07 58 3d
       0.058132377 0.038243078 0.03063025 0.052741595
000120 1f 08 03 bd 91 1a d6 bc d2 7a 1c bd c2 f5 26 3c
       -0.031990167 -0.026135715 -0.038203068 0.010190429
000130 bd 77 a5 3c 86 b9 ae 3d 53 26 e5 3c 29 dc 8b 3c
       0.020198697 0.085314795 0.027972376 0.017072754
000140 d2 be 98 bb b5 02 67 bd aa 9c 36 3d bc f1 c7 3c
       -0.0046614194 -0.056399066 0.044583 0.02440726
000150 75 ae 49 bd 84 b4 7d 3d c0 24 46 bd 17 5b d7 3b
       -0.04923864 0.06193973 -0.04837489 0.006572138
000160 bf ec 3d bd 5d 43 27 bd 46 41 b0 bc 80 59 85 3c
       -0.046368357 -0.040835727 -0.0215155 0.016278028
000170 50 92 5b 3d 81 57 83 3c 1d 10 8c bc 32 25 4a bd
       0.05360633 0.016032936 -0.017097527 -0.04935188
000180 b1 90 10 bc d0 6a 39 bd 6e b3 3f bd fd f7 08 bd
       -0.00882356 -0.04526788 -0.046801977 -0.033439625
000190 4b 41 d8 3b fd 7c b7 bc e3 22 db 3c 3e d1 3c 3d
       0.0065995804 -0.022398466 0.026750034 0.046097986
0001a0 46 19 82 bd 9f 6f df bc 6c c1 b0 3c 50 23 34 bd
       -0.06352477 -0.027274905 0.021576606 -0.04397899
0001b0 ac 9f f8 bc 91 b6 e9 bb 8a 1b a1 bd 9c 93 32 bc
       -0.030349575 -0.0071323593 -0.07866581 -0.010899451
0001c0 df 57 9e b9 a6 25 82 bd 14 8b 81 bd 9b d6 82 3d
       -0.00030201577 -0.06354837 -0.06325355 0.06388589
0001d0 60 96 c8 bc 3c 09 01 bb 46 30 b4 bd e5 d7 a4 3d
       -0.024485767 -0.0019689342 -0.0879827 0.08048991
0001e0 4b c2 04 bd 84 30 27 bd 92 20 8a bd d0 e7 9a bc
       -0.032411855 -0.040817752 -0.067444935 -0.018909365
0001f0 c1 85 12 bd 90 8b c1 bc a0 fa 64 3d 29 93 4e 3d
       -0.03577209 -0.023626119 0.055903077 0.05043331
000200 bd 5b 82 3d 44 0e c8 3b e5 04 b1 bc 51 cb e5 bc
       0.06365154 0.006105216 -0.02160878 -0.02805105
000210 ee 22 d3 3c ed 6d 59 bd 46 78 a5 bb 6f 36 23 bd
       0.025773492 -0.05308335 -0.005049738 -0.039846834
000220 0b 5b 3f bd b9 d8 22 bc 79 eb aa 3c 25 84 79 3b
       -0.046717685 -0.009939366 0.020864235 0.003807315
000230 6a b1 66 3b fa 29 92 bd e7 e0 b0 3c 1e 95 72 3d
       0.0035200962 -0.07136913 0.021591617 0.05922424
000240 8c 60 95 3c 42 ff 49 bd 0c 4a 7e 3d 53 57 11 3d
       0.018234514 -0.0493157 0.062082335 0.03548367
000250 81 36 e7 bc 92 c2 10 3d e8 3b 87 3d 42 99 f4 bc
       -0.028224232 0.035341807 0.06603223 -0.029858235
000260 2b b9 8e 3d a0 f7 01 b9 bb e9 c2 bb 21 ce 62 bd
       0.06968912 -0.00012394646 -0.005948273 -0.05537236
000270 e7 11 0a 3d be be 54 3d df 6d 79 3d ff 9b 5e 3c
       0.03370848 0.05193972 0.060895797 0.013586997
000280 cd ef 36 3d 50 cf e2 bc 65 69 b4 bc 9a b3 4a bd
       0.044662286 -0.027686745 -0.022022912 -0.049487688
000290 ca c2 f4 3c 2a 2d 84 3c 9f ad 0f bd bc 81 bd 3d
       0.029878039 0.016134817 -0.035077687 0.092532605
0002a0 eb 96 00 bd 29 1e 61 bc e3 4e fc 3c ea 37 0e bd
       -0.031393927 -0.013740101 0.030799335 -0.034721293
0002b0 37 c1 0d bc 3a 80 0c bb ca d9 84 bc f0 85 01 3d
       -0.008652023 -0.0021438734 -0.016217131 0.031621873
0002c0 31 89 b7 3d 56 bd 04 bc aa 42 32 bd 89 a7 41 bc
       0.08961714 -0.008101782 -0.043520607 -0.011819729
0002d0 47 36 b4 bc 7c 78 29 bd 71 e8 8b bd f6 d2 a3 3d
       -0.021998538 -0.04137467 -0.06831444 0.07999222
0002e0 6b d3 46 3c 05 bc cb bb 6d b3 68 3d 9d d0 a8 bb
       0.012135367 -0.006217482 0.05681174 -0.0051518218
0002f0 ed 5e 01 bb 37 a9 c4 3b 66 0b bb bc 3a 0f 01 3d
       -0.0019740418 0.0060016173 -0.022832584 0.03150866
000300 00 8e 80 3d ca 16 6b 3c f6 2b 0b bd 82 c3 13 bd
       0.06277084 0.014348695 -0.03397747 -0.036075123
000310 dc b6 ca bc 1d 98 57 3d d1 0f d2 3c e0 d8 77 bc
       -0.024745397 0.0526353 0.025642307 -0.015127391
000320 bd 78 ff 3c 02 ba 2a 3d 49 a9 7a 3d fe 61 46 bd
       0.031185502 0.041681297 0.0611966 -0.048433296
000330 60 f2 bf bd 8d b7 17 3c 96 5c 6f 3c 13 cb 83 3d
       -0.09372401 0.0092600705 0.014609477 0.06435218
000340 14 a5 48 3d a6 b7 90 3a f6 3d 15 3b 5b 0d 0b bd
       0.048985556 0.001104106 0.0022772527 -0.033948284
000350 09 7c 94 bc d5 f5 cc bb ab 22 8e bd 8b 28 80 3c
       -0.01812555 -0.0062548914 -0.06940206 0.015644332
000360 2b ff 2a bd 2e 9d bb 3c 88 6b 83 3b 16 fa 45 3d
       -0.041747253 0.022902098 0.0040106215 0.048334204
000370 62 e9 6a bd 8e 7d 1f bd 13 5c 69 bd 72 fe ba 3c
       -0.057351477 -0.038938098 -0.056972574 0.022826407
000380 81 4b 0a 3d 7a 22 57 bd 5d 91 3a bd 83 9e 63 bc
       0.033763412 -0.052523114 -0.045548785 -0.013892773
000390 92 af 4b 3d 1d 92 d3 3c 13 7b 3d bd a5 a0 3e bd
       0.049727984 0.025826508 -0.04625995 -0.04653992
0003a0 a8 80 44 bd c8 d3 e9 bc 96 10 02 bc 94 07 0b 3d
       -0.04797426 -0.028543368 -0.007938525 0.033942774
0003b0 01 c7 bb bc ee fa 6d 3c 83 f7 25 3d c1 8c 3f bd
       -0.02292204 0.014525158 0.04051925 -0.046765093
0003c0 5f 49 47 3c db f1 66 bc 35 f0 16 bd 16 44 97 3c
       0.012163489 -0.014095749 -0.036850173 0.018465083
0003d0 71 45 28 bd 26 11 46 3d 2c f1 53 3d 91 43 46 3d
       -0.04108185 0.048356198 0.05174367 0.04840428
0003e0 5e ee f9 3c fc 12 d0 bb 6d b7 00 3d 1d 72 48 bc
       0.03050917 -0.0063499194 0.03142493 -0.012234238
0003f0 e7 aa ac 3d 3e d5 f6 bc 87 bb 0c 3d 05 fe e1 bc
       0.084310345 -0.030130979 0.034358528 -0.027586946

action_model._continuous_distribution.mu.bias f4 [2]
000000 dc f8 80 3b 7f 0d 54 3c
       0.0039359163 0.012942671

exp_avg f4 [128, 35]
000000 00 00 00 00 00 00 00 00 de cd bb b9 c8 39 be b9
       0.0 0.0 -0.00035820802 -0.00036282674
000010 00 00 00 00 00 00 00 00 e7 69 11 b9 44 ba 5b b9
       0.0 0.0 -0.0001386773 -0.00020954857
000020 00 00 00 00 00 00 00 00 33 42 9d b9 2d 9c 93 b9
       0.0 0.0 -0.00029994696 -0.00028154385
000030 00 00 00 00 00 00 00 00 c4 2d b6 38 45 6d f7 b8
       0.0 0.0 8.686961e-05 -0.00011798231
000040 00 00 00 00 00 00 00 00 f1 31 29 b9 52 f7 1c b9
       0.0 0.0 -0.000161357 -0.00014969453
000050 00 00 00 00 00 00 00 00 ca 89 a1 b9 1f b5 94 b9
       0.0 0.0 -0.00030810974 -0.00028363705
000060 00 00 00 00 00 00 00 00 dd de 2e b9 d7 cd 69 b9
       0.0 0.0 -0.00016676956 -0.00022297293
000070 00 00 00 00 00 00 00 00 80 31 b7 b9 54 75 ac b9
       0.0 0.0 -0.0003494136 -0.00032893813
000080 8d f3 9b b9 83 f4 ce b7 c2 0c 23 39 00 00 00 00
       -0.00029745363 -2.4670973e-05 0.00015549644 0.0
000090 00 00 00 00 cd be a4 39 c4 22 9c 39 00 00 00 00
       0.0 0.00031422675 0.0002978054 0.0
0000a0 00 00 00 00 84 fa 21 39 27 28 4a 39 00 00 00 00
       0.0 0.00015447481 0.00019279179 0.0
0000b0 00 00 00 00 33 fd 6e 39 d0 bc 4a 39 00 00 00 00
       0.0 0.00022791773 0.0001933456 0.0
0000c0 00 00 00 00 9d c3 ac b8 d0 f7 50 38 00 00 00 00
       0.0 -8.238035e-05 4.9821858e-05 0.0
0000d0 00 00 00 00 96 59 09 38 f2 68 8d 37 00 00 00 00
       0.0 3.274678e-05 1.6857379e-05 0.0
0000e0 00 00 00 00 ab fa a0 38 2d a2 6b 38 00 00 00 00
       0.0 7.676085e-05 5.6179404e-05 0.0
0000f0 00 00 00 00 df 19 4d 38 c0 e4 57 38 00 00 00 00
       0.0 4.8899903e-05 5.1473035e-05 0.0
000100 00 00 00 00 fe b2 df 38 3f 06 ba 38 c1 1f ab 38
       0.0 0.000106668085 8.8703346e-05 8.15983e-05
000110 45 9e 24 b8 17 52 67 b8 00 00 00 00 00 00 00 00
       -3.9248047e-05 -5.5151144e-05 0.0 0.0
000120 38 42 57 38 ca 8c 97 b8 00 00 00 00 00 00 00 00
       5.1321666e-05 -7.226465e-05 0.0 0.0
000130 d5 a7 b0 b9 f8 8e bf b9 00 00 00 00 00 00 00 00
       -0.0003369438 -0.0003653688 0.0 0.0
000140 fe 47 34 b9 a5 a5 8c b9 00 00 00 00 00 00 00 00
       -0.00017192957 -0.00026826296 0.0 0.0
000150 a3 d4 ea b9 dc 41 e5 b9 00 00 00 00 00 00 00 00
       -0.00044790385 -0.00043727353 0.0 0.0
000160 2b 14 0d ba 30 c9 14 ba 00 00 00 00 00 00 00 00
       -0.00053817284 -0.0005675731 0.0 0.0
000170 8a 53 58 b9 f6 82 87 b9 00 00 00 00 00 00 00 00
       -0.00020630486 -0.0002584678 0.0 0.0
000180 01 21 10 b9 83 67 40 b9 00 00 00 00 00 00 00 00
       -0.00013745205 -0.00018349108 0.0 0.0
000190 8f 86 8b b9 05 03 a1 b9 f9 6e b3 b9 75 fe 48 b9
       -0.000266124 -0.00030710563 -0.00034224222 -0.00019168279
0001a0 8a 33 2a b9 00 00 00 00 00 00 00 00 80 7b e5 b8
       -0.00016231663 0.0 0.0 -0.000109425746
0001b0 2f 50 8f b8 00 00 00 00 00 00 00 00 10 7e 17 39
       -6.833707e-05 0.0 0.0 0.00014447444
0001c0 33 c9 e2 38 00 00 00 00 00 00 00 00 16 dd bc b8
       0.00010813996 0.0 0.0 -9.005719e-05
0001d0 b0 39 69 b7 00 00 00 00 00 00 00 00 49 ad 6e 39
       -1.3901314e-05 0.0 0.0 0.00022762002
0001e0 c2 99 4a 39 00 00 00 00 00 00 00 00 f5 21 49 39
       0.000193215 0.0 0.0 0.00019181504
0001f0 4a 99 60 39 00 00 00 00 00 00 00 00 c2 93 e5 38
       0.0002141941 0.0 0.0 0.00010947093
000200 48 8c 13 39 00 00 00 00 00 00 00 00 06 6e a1 38
       0.00014071271 0.0 0.0 7.697572e-05
000210 73 15 d3 38 00 00 00 00 00 00 00 00 f3 47 26 39
       0.00010065259 0.0 0.0 0.00015857797
000220 e1 7b 38 39 32 56 06 39 de 54 bd 38 4f 1f 02 39
       0.00017593756 0.00012811346 9.02803e-05 0.0001240943
000230 00 00 00 00 00 00 00 00 f7 3b 1a 3a 6a 8e 32 3a
       0.0 0.0 0.0005883569 0.00068113825
000240 00 00 00 00 00 00 00 00 15 2b 0a 3a 59 f9 21 3a
       0.0 0.0 0.0005270702 0.00061788183
000250 00 00 00 00 00 00 00 00 df c3 2b 3a c7 b3 28 3a
       0.0 0.0 0.00065523194 0.00064354803
000260 00 00 00 00 00 00 00 00 4a b0 0d 38 b7 9a bd 39
       0.0 0.0 3.37812e-05 0.0003616416
000270 00 00 00 00 00 00 00 00 88 85 f2 39 e0 86 f2 39
       0.0 0.0 0.00046257325 0.00046258327
000280 00 00 00 00 00 00 00 00 4a 23 a3 39 47 39 9f 39
       0.0 0.0 0.00031116075 0.00030369518
000290 00 00 00 00 00 00 00 00 c5 97 31 39 eb 7b 73 39
       0.0 0.0 0.00016936574 0.00023220449
0002a0 00 00 00 00 00 00 00 00 59 49 f0 39 5a 23 e6 39
       0.0 0.0 0.00045831015 0.00043895358
0002b0 63 87 d6 39 64 12 a1 38 36 e8 77 b9 00 00 00 00
       0.00040918132 7.680504e-05 -0.00023642261 0.0
0002c0 00 00 00 00 3a 04 ab b9 66 dc c6 b9 00 00 00 00
       0.0 -0.0003261881 -0.00037929713 0.0
0002d0 00 00 00 00 6e 4b 99 b9 63 94 bd b9 00 00 00 00
       0.0 -0.00029238634 -0.00036159446 0.0
0002e0 00 00 00 00 31 15 d2 b9 e4 24 d6 b9 00 00 00 00
       0.0 -0.0004007011 -0.00040844746 0.0
0002f0 00 00 00 00 21 14 0d b9 62 a0 b9 b9 00 00 00 00
       0.0 -0.00013454306 -0.00035405444 0.0
000300 00 00 00 00 99 74 eb b9 ef 87 ec b9 00 00 00 00
       0.0 -0.00044909565 -0.00045114706 0.0
000310 00 00 00 00 c1 b9 6b b9 90 79 53 b9 00 00 00 00
       0.0 -0.00022480545 -0.00020167814 0.0
000320 00 00 00 00 68 ef db b8 92 76 11 b9 00 00 00 00
       0.0 -0.00010487327 -0.00013872448 0.0
000330 00 00 00 00 9c 88 9e b9 e4 23 92 b9 d7 75 b6 b9
       0.0 -0.0003023789 -0.0002787403 -0.00034801543
000340 bc ca 8f b8 3a 28 fa 38 00 00 00 00 00 00 00 00
       -6.8565336e-05 0.00011928422 0.0 0.0
000350 b8 8d a5 b9 a9 ed 8b b9 00 00 00 00 00 00 00 00
       -0.0003157684 -0.00026689217 0.0 0.0
000360 e8 db be b8 54 35 fd b8 00 00 00 00 00 00 00 00
       -9.100867e-05 -0.00012073913 0.0 0.0
000370 be 6d 56 b9 e9 d1 0b b9 00 00 00 00 00 00 00 00
       -0.00020449513 -0.0001333427 0.0 0.0
000380 50 28 83 39 00 3c fb 38 00 00 00 00 00 00 00 00
       0.00025016302 0.000119797885 0.0 0.0
000390 29 59 b5 38 7e 58 e2 38 00 00 00 00 00 00 00 00
       8.64736e-05 0.00010793003 0.0 0.0
0003a0 d5 04 cf b8 1c b1 83 b8 00 00 00 00 00 00 00 00
       -9.871429e-05 -6.279556e-05 0.0 0.0
0003b0 ae ef aa b8 50 29 b4 b8 00 00 00 00 00 00 00 00
       -8.1508755e-05 -8.590764e-05 0.0 0.0
0003c0 46 05 a5 b8 8a 63 5b b8 69 67 99 b8 a2 59 45 38
       -7.8687954e-05 -5.230637e-05 -7.31487e-05 4.7051937e-05
0003d0 7e 38 ef 38 00 00 00 00 00 00 00 00 6c b5 64 38
       0.000114069306 0.0 0.0 5.45284e-05
0003e0 8a de ba 38 00 00 00 00 00 00 00 00 f7 af bc 38
       8.910622e-05 0.0 0.0 8.9973146e-05
0003f0 cf 32 ee 38 00 00 00 00 00 00 00 00 a9 8b f7 38
       0.00011358188 0.0 0.0 0.000118038915

exp_avg_sq f4 [128, 35]
000000 00 00 00 00 00 00 00 00 ff 8b 9b 34 74 5c a3 34
       0.0 0.0 2.897286e-07 3.0428384e-07
000010 00 00 00 00 00 00 00 00 29 25 a7 34 17 49 c0 34
       0.0 0.0 3.1133212e-07 3.5815967e-07
000020 00 00 00 00 00 00 00 00 93 af 9f 34 6f f9 ad 34
       0.0 0.0 2.9743805e-07 3.2405248e-07
000030 00 00 00 00 00 00 00 00 29 5a 0a 35 3b fe 0e 35
       0.0 0.0 5.1540206e-07 5.3269076e-07
000040 00 00 00 00 00 00 00 00 51 3d 18 35 6c 66 19 35
       0.0 0.0 5.671364e-07 5.7145985e-07
000050 00 00 00 00 00 00 00 00 ed 50 f1 34 b8 66 f7 34
       0.0 0.0 4.494863e-07 4.6082073e-07
000060 00 00 00 00 00 00 00 00 75 e6 e7 34 dc 58 ee 34
       0.0 0.0 4.3194783e-07 4.4395608e-07
000070 00 00 00 00 00 00 00 00 11 28 fe 34 4e b4 ff 34
       0.0 0.0 4.734034e-07 4.762864e-07
000080 6b eb ac 34 86 a8 0c 33 d8 b5 1c 35 00 00 00 00
       3.2208786e-07 3.274956e-08 5.8379146e-07 0.0
000090 00 00 00 00 bd 51 e5 33 73 e6 24 34 00 00 00 00
       0.0 1.06785116e-07 1.5357527e-07 0.0
0000a0 00 00 00 00 90 2c c7 34 b4 13 cf 34 00 00 00 00
       0.0 3.7099062e-07 3.857109e-07 0.0
0000b0 00 00 00 00 da 08 89 34 43 f4 92 34 00 00 00 00
       0.0 2.552468e-07 2.7372343e-07 0.0
0000c0 00 00 00 00 34 2c a8 34 6f 84 b2 34 00 00 00 00
       0.0 3.13246e-07 3.3251442e-07 0.0
0000d0 00 00 00 00 d6 d3 b9 34 c1 3d c2 34 00 00 00 00
       0.0 3.4613066e-07 3.6180248e-07 0.0
0000e0 00 00 00 00 80 34 99 33 02 33 a7 33 00 00 00 00
       0.0 7.1341674e-08 7.785822e-08 0.0
0000f0 00 00 00 00 0f 6b 98 33 97 0b ab 33 00 00 00 00
       0.0 7.0975254e-08 7.964916e-08 0.0
000100 00 00 00 00 e7 f3 b4 33 a7 c5 bb 33 70 f6 4d 34
       0.0 8.426269e-08 8.743819e-08 1.9181766e-07
000110 81 b2 8b 32 a9 ee dc 34 00 00 00 00 00 00 00 00
       1.6262904e-08 4.115184e-07 0.0 0.0
000120 e1 5a 84 34 f5 20 a9 34 00 00 00 00 00 00 00 00
       2.465304e-07 3.1502682e-07 0.0 0.0
000130 e7 38 3e 35 da 54 45 35 00 00 00 00 00 00 00 00
       7.086332e-07 7.3511694e-07 0.0 0.0
000140 10 4f 05 35 24 8d 0e 35 00 00 00 00 00 00 00 00
       4.966141e-07 5.310451e-07 0.0 0.0
000150 a0 e5 40 35 df d7 4b 35 00 00 00 00 00 00 00 00
       7.185972e-07 7.5937527e-07 0.0 0.0
000160 77 ea 58 35 2a 20 60 35 00 00 00 00 00 00 00 00
       8.080746e-07 8.349331e-07 0.0 0.0
000170 e9 13 55 34 2e 94 64 34 00 00 00 00 00 00 00 00
       1.9844414e-07 2.1288062e-07 0.0 0.0
000180 af 00 50 34 a7 a6 64 34 00 00 00 00 00 00 00 00
       1.9371758e-07 2.1294782e-07 0.0 0.0
000190 a1 0f 62 34 d5 e4 6e 34 7d dc e4 34 42 9d 2b 33
       2.1053576e-07 2.2248726e-07 4.2628736e-07 3.9957065e-08
0001a0 c6 45 63 35 00 00 00 00 00 00 00 00 2b d7 3b 34
       8.4665623e-07 0.0 0.0 1.749401e-07
0001b0 a4 ea 4e 34 00 00 00 00 00 00 00 00 7a 2b 9f 34
       1.9270607e-07 0.0 0.0 2.964769e-07
0001c0 ec 77 a7 34 00 00 00 00 00 00 00 00 ee 81 4e 34
       3.119343e-07 0.0 0.0 1.9232513e-07
0001d0 52 81 64 34 00 00 00 00 00 00 00 00 c5 58 a1 34
       2.1281201e-07 0.0 0.0 3.0053175e-07
0001e0 9d 4f a9 34 00 00 00 00 00 00 00 00 dc 4a b4 34
       3.153663e-07 0.0 0.0 3.358208e-07
0001f0 53 83 b9 34 00 00 00 00 00 00 00 00 d1 17 3d 34
       3.4554486e-07 0.0 0.0 1.7610661e-07
000200 3f f3 46 34 00 00 00 00 00 00 00 00 92 2b 3b 34
       1.852868e-07 0.0 0.0 1.7431583e-07
000210 ae bc 48 34 00 00 00 00 00 00 00 00 e1 af 3b 34
       1.8695093e-07 0.0 0.0 1.7479717e-07
000220 7e 52 43 34 7a 25 39 34 48 ec 97 32 c6 8b e9 34
       1.81908e-07 1.7243102e-07 1.7686162e-08 4.350133e-07
000230 00 00 00 00 00 00 00 00 91 fe a4 34 27 02 d3 34
       0.0 0.0 3.0732602e-07 3.930338e-07
000240 00 00 00 00 00 00 00 00 0a d9 7b 35 46 42 81 35
       0.0 0.0 9.382062e-07 9.630537e-07
000250 00 00 00 00 00 00 00 00 8d 5a 02 35 5a 1e 0e 35
       0.0 0.0 4.856054e-07 5.294329e-07
000260 00 00 00 00 00 00 00 00 ab c6 64 35 58 48 6c 35
       0.0 0.0 8.522572e-07 8.8022125e-07
000270 00 00 00 00 00 00 00 00 81 a7 78 35 93 e0 7b 35
       0.0 0.0 9.263095e-07 9.3831585e-07
000280 00 00 00 00 00 00 00 00 38 b6 9c 34 50 64 a4 34
       0.0 0.0 2.9189846e-07 3.0620367e-07
000290 00 00 00 00 00 00 00 00 92 4a a1 34 b0 8c ac 34
       0.0 0.0 3.0042844e-07 3.213986e-07
0002a0 00 00 00 00 00 00 00 00 8b 90 a9 34 66 a6 ad 34
       0.0 0.0 3.1583872e-07 3.2344832e-07
0002b0 ff 5b 0d 35 66 c4 52 33 a6 0d 41 35 00 00 00 00
       5.2660465e-07 4.907306e-08 7.1917964e-07 0.0
0002c0 00 00 00 00 68 6c 1a 34 c9 90 32 34 00 00 00 00
       0.0 1.4381806e-07 1.6630214e-07 0.0
0002d0 00 00 00 00 30 2e 76 34 08 da 88 34 00 00 00 00
       0.0 2.2927338e-07 2.5490613e-07 0.0
0002e0 00 00 00 00 49 77 6f 34 e7 7c 7d 34 00 00 00 00
       0.0 2.2302005e-07 2.36079e-07 0.0
0002f0 00 00 00 00 bc cd 9c 34 66 3b a9 34 00 00 00 00
       0.0 2.9206956e-07 3.152192e-07 0.0
000300 00 00 00 00 c0 d1 d0 34 78 6e d1 34 00 00 00 00
       0.0 3.8895632e-07 3.900966e-07 0.0
000310 00 00 00 00 ac ab 18 34 62 fc 1b 34 00 00 00 00
       0.0 1.4218557e-07 1.4527316e-07 0.0
000320 00 00 00 00 ea 15 17 34 29 87 1a 34 00 00 00 00
       0.0 1.4070943e-07 1.4391539e-07 0.0
000330 00 00 00 00 50 33 27 34 40 48 28 34 3d dc 57 34
       0.0 1.5571754e-07 1.5672504e-07 2.0103558e-07
000340 3d 53 90 32 ca 90 a5 34 00 00 00 00 00 00 00 00
       1.6801659e-08 3.0838993e-07 0.0 0.0
000350 fb 55 80 34 93 ab 8a 34 00 00 00 00 00 00 00 00
       2.3904417e-07 2.582934e-07 0.0 0.0
000360 d9 ef 92 34 55 89 9f 34 00 00 00 00 00 00 00 00
       2.736913e-07 2.971598e-07 0.0 0.0
000370 55 2c 93 34 dd 0e 9b 34 00 00 00 00 00 00 00 00
       2.741314e-07 2.8881814e-07 0.0 0.0
000380 41 4a 8e 34 70 83 95 34 00 00 00 00 00 00 00 00
       2.6503588e-07 2.7849046e-07 0.0 0.0
000390 dd d2 9d 34 f3 34 a4 34 00 00 00 00 00 00 00 00
       2.9396952e-07 3.0585906e-07 0.0 0.0
0003a0 45 00 51 34 30 9d 5f 34 00 00 00 00 00 00 00 00
       1.946474e-07 2.0825678e-07 0.0 0.0
0003b0 ad e0 52 34 9a 45 61 34 00 00 00 00 00 00 00 00
       1.963951e-07 2.0980079e-07 0.0 0.0
0003c0 39 f9 5d 34 24 89 66 34 31 d2 39 34 b6 4a 8e 32
       2.0672896e-07 2.147031e-07 1.7305935e-07 1.656495e-08
0003d0 2f c1 0b 35 00 00 00 00 00 00 00 00 17 af 90 32
       5.2062654e-07 0.0 0.0 1.6843428e-08
0003e0 f6 44 af 32 00 00 00 00 00 00 00 00 b0 cc 30 33
       2.0404041e-08 0.0 0.0 4.1164355e-08
0003f0 a0 7b 3c 33 00 00 00 00 00 00 00 00 fa 77 de 32
       4.3884597e-08 0.0 0.0 2.589876e-08

exp_avg f4 [128]
000000 47 87 ed b9 65 4d 35 39 ab 6a 19 ba fe 49 4e 39
       -0.00045304952 0.00017290337 -0.00058523816 0.00019673255
000010 b8 85 5c 3a 22 74 20 ba a2 b6 71 b8 87 bf 84 39
       0.00084122596 -0.0006120821 -5.7628968e-05 0.000253197
000020 98 30 95 ba 33 68 b6 b9 68 72 99 ba 41 11 24 b8
       -0.001138228 -0.0003479138 -0.0011707069 -3.9116716e-05
000030 fc 82 f0 38 26 f2 fd 38 b9 42 8d 38 ad 30 19 ba
       0.000114684895 0.00012109084 6.735832e-05 -0.000584374
000040 3f 65 0c 3a 7e 31 19 b9 84 7b 90 ba a3 53 b0 b8
       0.0005355663 -0.00014609654 -0.0011023139 -8.4079125e-05
000050 ee 5b 42 3a 95 fb 62 b9 33 0d 38 b9 b1 03 80 b9
       0.0007414211 -0.00021646761 -0.00017552525 -0.00024416813
000060 9f e1 f8 b9 e6 16 84 ba 09 38 4a b9 0d 18 c9 39
       -0.00047470347 -0.0010077625 -0.00019285096 0.00038355627
000070 cb 7e 0e b7 cd 48 16 b9 2a 18 5e 3a 67 67 57 36
       -8.493381e-06 -0.00014332235 0.00084722287 3.2097685e-06
000080 1f f9 7d b8 aa b8 9e 39 88 9e ca b9 03 e8 0a ba
       -6.0551913e-05 0.00030273694 -0.00038646557 -0.00052988547
000090 37 b3 ca b9 c9 74 c8 ba d8 47 de b9 48 e6 87 b9
       -0.00038661968 -0.0015293594 -0.00042396667 -0.0002592078
0000a0 2f d9 98 38 be 28 8b 39 f8 ff b1 38 fb 80 dd 39
       7.2883784e-05 0.000265425 8.4876956e-05 0.00042248503
0000b0 df a1 51 3a e0 85 5a b8 b7 5c 54 b9 19 9d 0c 3a
       0.0007996838 -5.209993e-05 -0.00020252434 0.00053639855
0000c0 cf 04 18 3a c5 cc 9c 39 00 22 1c b9 c1 32 c9 38
       0.00057990564 0.00029907204 -0.00014889985 9.5938805e-05
0000d0 f0 65 40 ba 19 1b d0 39 04 bb 12 3a ee 63 90 b9
       -0.00073394086 0.0003969304 0.00055973255 -0.00027540274
0000e0 19 5d d7 39 73 6d a2 38 e6 da c7 39 57 65 c6 38
       0.0004107736 7.7451485e-05 0.0003811933 9.460252e-05
0000f0 0b de 0a 3a cf 7f d7 39 2d c7 0a ba 0d 4b 4d ba
       0.0005297369 0.0004110322 -0.0005293962 -0.0007831313
000100 72 45 95 b8 80 7a 54 b9 e9 b6 8f b9 9b d1 b7 39
       -7.117809e-05 -0.0002026353 -0.00027411364 0.00035060648
000110 27 2d 60 3a c8 53 c5 b8 b8 a1 c8 38 fd c4 e9 39
       0.000855165 -9.4092975e-05 9.5668656e-05 0.0004458799
000120 4a a9 ca 39 25 bd 99 3a d0 dd 32 ba 62 70 e7 39
       0.00038654573 0.0011729343 -0.0006823214 0.00044143485
000130 25 b5 d6 38 8c 57 0b b6 20 72 90 b8 83 cb 12 b8
       0.00010238056 -2.0763573e-06 -6.8877125e-05 -3.4998648e-05
000140 ba b5 ec b8 c1 37 3d b9 4b 08 4c 38 e6 6a 7c 3a
       -0.00011287206 -0.00018045215 4.8645114e-05 0.0009628966
000150 a4 ea aa b9 c5 d1 75 39 4e 9a 3f b9 4a 26 d1 b9
       -0.00032599748 0.00023443166 -0.00018272662 -0.00039892114
000160 53 cc 1a 39 69 dc 6c ba c4 42 db 39 8e 86 7f b9
       0.00014762701 -0.0009035529 0.0004182068 -0.0002436882
000170 f8 5e 87 b9 6d 4b f9 b9 eb 14 34 ba 33 b9 56 ba
       -0.00025819964 -0.00047549178 -0.0006869572 -0.0008191049
000180 b1 05 da b9 b4 78 09 bb 75 82 e7 39 9c 24 6f ba
       -0.0004158444 -0.0020976486 0.00044156951 -0.00091225817
000190 5b cc b2 39 a0 65 9d b9 7e aa 8d b9 37 25 ae 36
       0.00034103062 -0.0003002109 -0.00027020642 5.1899365e-06
0001a0 33 64 e6 ba 17 be 29 39 e3 86 ae 38 08 77 c8 b9
       -0.0017577469 0.0001618791 8.322091e-05 -0.00038235658
0001b0 ee 85 12 3a 65 7f 2f b9 2f 58 71 ba 63 9a ab 39
       0.0005589415 -0.00016736759 -0.0009206561 0.0003273069
0001c0 1a b6 31 ba d2 c6 e6 b9 2d 17 fb 37 9c 57 b8 39
       -0.00067791494 -0.0004401715 2.9932324e-05 0.0003516049
0001d0 69 f4 73 ba 50 5f 9f 39 ca 81 50 3a 7a c1 73 ba
       -0.00093061343 0.00030397857 0.00079539104 -0.00092985446
0001e0 e2 6e 21 b9 14 a9 25 ba fd 67 94 36 a3 9c e9 b9
       -0.00015395464 -0.0006319445 4.4228495e-06 -0.00044557927
0001f0 17 25 f6 39 40 19 50 b8 c4 79 f1 38 7b 60 35 39
       0.0004694841 -4.961458e-05 0.00011514456 0.00017297447

exp_avg_sq f4 [128]
000000 87 32 2a 35 a1 4b f8 34 2f c4 80 35 f9 72 d5 34
       6.340346e-07 4.6248627e-07 9.59384e-07 3.9757995e-07
000010 82 4c 96 35 94 c7 de 34 20 ef d2 34 67 6b a3 33
       1.1198138e-06 4.1495935e-07 3.9289534e-07 7.6098154e-08
000020 af 65 8b 35 67 4b 98 35 5b 8e aa 35 ab 4e 79 31
       1.0385901e-06 1.1346827e-06 1.2707418e-06 3.6278986e-09
000030 3b a4 12 34 ba 9f 91 33 a5 79 8c 32 2a 03 db 35
       1.3657056e-07 6.781143e-08 1.6353463e-08 1.6317692e-06
000040 a1 22 c2 34 3e 5d 0e 34 af 6d 35 35 2a 7f a2 33
       3.6160512e-07 1.3258702e-07 6.7587365e-07 7.566844e-08
000050 2c 0f 10 35 e7 d9 fe 34 57 fc 4e 33 fc cc fa 33
       5.366626e-07 4.7469732e-07 4.8192614e-08 1.16788186e-07
000060 ea 4d 8c 34 f8 8f 3f 35 e8 5b 27 34 89 84 02 35
       2.6133722e-07 7.1362547e-07 1.5586522e-07 4.862164e-07
000070 dc e0 0f 34 30 2d 15 34 84 1d 41 35 2a bd 9e 33
       1.3399716e-07 1.3893145e-07 7.1941054e-07 7.391857e-08
000080 f6 15 c4 32 6d cc 05 34 e7 61 2c 34 af e7 b7 34
       2.282739e-08 1.246096e-07 1.6054365e-07 3.4254978e-07
000090 d5 ca 2e 35 07 a4 05 36 9d 65 6c 34 95 3b a7 33
       6.511521e-07 1.991402e-06 2.201618e-07 7.7873814e-08
0000a0 ea 90 35 33 04 9b 2b 34 0f 21 fe 31 22 9e 56 34
       4.2274145e-08 1.598201e-07 7.3961313e-09 1.9987831e-07
0000b0 75 40 37 35 c7 55 f0 34 0c 0b 49 33 4d 5d 0d 35
       6.826661e-07 4.4765895e-07 4.6809006e-08 5.2662364e-07
0000c0 2c 04 95 34 bb 39 28 34 43 3e 85 33 89 43 61 32
       2.7756448e-07 1.5667221e-07 6.2046205e-08 1.3112079e-08
0000d0 46 2a 17 35 58 31 63 34 63 49 91 34 da 49 8a 34
       5.63134e-07 2.1158974e-07 2.706175e-07 2.5758237e-07
0000e0 95 8f 75 34 b1 83 6b 33 7e f8 65 35 af d3 3d 34
       2.2869638e-07 5.4834974e-08 8.567075e-07 1.7679007e-07
0000f0 d1 60 8f 35 94 1d 87 34 6e 86 08 35 ab 7e 15 35
       1.0682508e-06 2.516723e-07 5.085957e-07 5.569115e-07
000100 8c 3f ba 32 c8 05 c8 34 7a c8 a2 34 6d d6 89 34
       2.1682148e-08 3.725711e-07 3.0320717e-07 2.5674254e-07
000110 b7 ac 20 35 21 9f d7 35 37 de 71 32 63 07 9e 34
       5.985598e-07 1.6065061e-06 1.4078572e-08 2.9435168e-07
000120 5f 45 ce 34 b3 da 9f 35 cf a6 97 35 70 a7 5b 34
       3.8420964e-07 1.1910073e-06 1.1298924e-06 2.0456878e-07
000130 6b 8d 3a 33 e2 35 c0 30 79 42 03 33 52 f8 09 33
       4.343512e-08 1.3985153e-09 3.056127e-08 3.2123644e-08
000140 ed 43 16 33 56 0a 8a 34 02 44 35 33 af 86 44 35
       3.4986375e-08 2.5712023e-07 4.22042e-08 7.321168e-07
000150 82 2d 99 33 db fb 84 33 19 9b ff 32 ef 61 51 34
       7.1328955e-08 6.192541e-08 2.9756437e-08 1.950027e-07
000160 af 93 55 34 bd af 3e 35 20 f3 27 35 86 5b 31 34
       1.9890898e-07 7.103625e-07 6.256614e-07 1.6517706e-07
000170 d1 51 ad 34 5a 44 69 34 17 09 dc 34 03 a2 e2 35
       3.228329e-07 2.1724682e-07 4.0984807e-07 1.6885464e-06
000180 ff 03 5b 34 7f 20 3b 36 3d 2a 5d 35 ac b1 4f 35
       2.0397418e-07 2.7884087e-06 8.239038e-07 7.7372056e-07
000190 97 23 2b 34 20 19 c4 33 99 55 b7 33 ed 9c 9d 35
       1.5938564e-07 9.1315314e-08 8.537172e-08 1.1743083e-06
0001a0 01 95 28 36 3e b6 60 33 2b 95 cd 32 c6 e2 23 35
       2.5120682e-06 5.2319812e-08 2.3932975e-08 6.105223e-07
0001b0 a5 91 51 35 f4 13 34 34 ac 95 55 35 95 36 0d 34
       7.807051e-07 1.6771065e-07 7.9566485e-07 1.3151505e-07
0001c0 86 ef 0d 35 ad 0e a2 34 82 ce 10 35 7b 3e 73 34
       5.2875146e-07 3.018553e-07 5.394469e-07 2.2653869e-07
0001d0 32 77 0a 35 c3 68 f6 33 8c d3 15 35 e5 0f e4 35
       5.158246e-07 1.1474324e-07 5.5814667e-07 1.699195e-06
0001e0 58 ba fd 34 02 d4 00 35 9e 33 08 34 a0 7f 89 35
       4.7260505e-07 4.799223e-07 1.2684765e-07 1.0244439e-06
0001f0 ab 97 29 34 45 5a b0 34 44 78 eb 32 2b 87 c6 33
       1.5794528e-07 3.2848234e-07 2.7412291e-08 9.2446804e-08
