forMeL-1/Assets/MLResults/test1/KartAgent/KartAgent-499952.onnx (onnx, 87568 bytes, 7 tensors)

network_body._body_endoder.seq_layers.0.weight f4 [128, 35]
0	0xbe8e3f2c	-0.2778257
1	0xbd365940	-0.04451871
2	0x3d94b20f	0.072605245
3	0x3c46bae7	0.012129522
4	0xbd54c28e	-0.051943354
5	0x3e1908bd	0.1494474
6	0xbf228f5d	-0.63500005
7	0xbc75119e	-0.014957814
8	0x3e137bfd	0.14402767
9	0xbcc43b0f	-0.023953943
10	0xbe4a242d	-0.19740362
11	0x3e0b6d63	0.13615946
12	0x3dc21f93	0.094786786
13	0xbf053465	-0.5203307
14	0x3e94058f	0.2891049
15	0xbd728325	-0.0592071
16	0xbcff8aaf	-0.03119406
17	0xbd5cfca7	-0.053951886
18	0xbe308bac	-0.1724078
19	0x3da5a6d9	0.08088464
20	0x3e1b4387	0.15162478
21	0xbe0b9037	-0.13629232
22	0x3ecafeaf	0.39647433
23	0x3e39e088	0.18152058
24	0x3e4807ca	0.19534221
25	0x3e4b4843	0.19851784
26	0xbe0796d1	-0.13241126
27	0xbd64db91	-0.055873457
28	0xbe8de060	-0.27710247
29	0x3d9aeaa6	0.07564287
30	0x3ea72570	0.3264575
31	0x3e489d43	0.1959124
32	0x3def5c0c	0.116874784
33	0xbddcbc4e	-0.10778104
34	0x3d6a0602	0.057134636
35	0x3d1006a5	0.035162587
36	0x3e066396	0.13123927
37	0xbd8b43cd	-0.06800041
38	0xbcf5d37c	-0.03000807
39	0x3b8884f4	0.00416624
40	0x3d05ea4f	0.032694157
41	0x3e509f9e	0.20373389
42	0x3e4bedcc	0.19914931
43	0x3bd2f3ff	0.006437778
44	0x3e1d3978	0.15353954
45	0x3c45caca	0.012072274
46	0x3d5ef2e2	0.05443085
47	0xbe3a3333	-0.18183593
48	0xbd741a40	-0.059595346
49	0xbcf384ff	-0.029726503
50	0xbcd64fbb	-0.026161065
51	0x3e06a7d6	0.13149962
52	0xbd3974ce	-0.04527741
53	0xbed64b0a	-0.41854125
54	0x3e840820	0.2578745
55	0xbd808dc2	-0.06277038
56	0xbe022b2f	-0.12711786
57	0xbd1a1beb	-0.03762428
58	0xbdd76815	-0.10517899
59	0x3dd3472f	0.103163116
60	0x3deb84bd	0.11499927
61	0xbe0f1e29	-0.13976349
62	0xbdf46e7d	-0.119351365
63	0x3d39800e	0.045288138
64	0xbe805e65	-0.25072017
65	0x3d92a079	0.07159514
66	0xbe1e9c60	-0.1548934
67	0xbdd9b040	-0.1062932
68	0xbda3ca5a	-0.0799758
69	0xbdc76692	-0.097363606
70	0x3e6fb97b	0.23410599
71	0x3ea3bf80	0.3198204
72	0xbdde9f7b	-0.10870262
73	0x3d6a1d0f	0.05715662
74	0xbe5cf210	-0.21576715
75	0xbe63fc57	-0.22264229
76	0x3d53fb2f	0.05175322
77	0x3e1c8cb3	0.15288047
78	0x3e1e373b	0.15450756
79	0x3e5f0e7a	0.21782866
80	0x3dcc91fb	0.09988781
81	0x3d8d69d5	0.069049515
82	0xbeb4cdbb	-0.3531321
83	0xbe672b25	-0.22575052
84	0x3e459a4b	0.1929714
85	0x3e0dbadf	0.13840817
86	0xbd892d70	-0.0669812
87	0xbe74f2ad	-0.23920698
88	0x3e621b42	0.2208071
89	0xbe13a56d	-0.14418574
90	0xbbe1b94f	-0.0068885456
91	0x3daac871	0.083390124
92	0x3d4794e2	0.04872597
93	0xbb93297a	-0.0044910284
94	0x3d8b85c1	0.06812621
95	0xbe18861f	-0.14894913
96	0xbea01444	-0.3126546
97	0xbddb732a	-0.10715325
98	0x3d195d37	0.037442412
99	0xbd905728	-0.07047874
100	0xbcc0f68c	-0.023555063
101	0xbe22c0e0	-0.15893888
102	0x3e23daaf	0.1600139
103	0x3e84e388	0.25954843
104	0xbd9d381e	-0.07676719
105	0xbe1fc604	-0.1560288
106	0x3d2ea4e9	0.04263774
107	0x3e136888	0.14395344
108	0x3ea87b4a	0.32906562
109	0xbeb81149	-0.35950688
110	0x3e56d76d	0.20980616
111	0xbd900ab2	-0.0703329
112	0x3ceafd8c	0.028685354
113	0xbce3bef0	-0.027801007
114	0x3e8ba44e	0.27273792
115	0xbe48c9e7	-0.1960827
116	0x3e242f33	0.1603363
117	0xbd89d5dc	-0.067302436
118	0x3d2d3951	0.04229099
119	0x3d195324	0.037432805
120	0x3e55daf6	0.20884308
121	0x3d9c8fa4	0.07644585
122	0xbe5ae47c	-0.21376222
123	0xbd9c2ba5	-0.07625512
124	0x3e4b9946	0.19882688
125	0x3da5fc35	0.08104745
126	0x3ec6786f	0.3876376
127	0x3e980753	0.29693088
128	0x3e259e98	0.1617378
129	0x3d4f9927	0.050683167
130	0x3e38274b	0.17983739
131	0xbd728ed4	-0.059218243
132	0x3dead4a3	0.114663385
133	0xbe48f2d4	-0.19623882
134	0xbeb98a54	-0.36238348
135	0x3da95176	0.082674906
136	0xbbb34354	-0.0054706726
137	0xbddc681d	-0.107620455
138	0xbde7a012	-0.11309828
139	0x3e2518bc	0.16122717
140	0x3d73c0aa	0.05950991
141	0x3d748542	0.059697397
142	0xbd8f326d	-0.0699204
143	0xbe124f54	-0.14288074
144	0xbd80382a	-0.062607124
145	0x3e59776e	0.21236965
146	0x3ef85892	0.48505074
147	0x3e9ff63c	0.3124255
148	0x3e2da5b5	0.16957743
149	0xbe684a01	-0.2268448
150	0xbbe0e85f	-0.0068636383
151	0xbe1eacfe	-0.15495679
152	0xbd9c000d	-0.07617197
153	0x3db99b3e	0.09062813
154	0x3c9fc556	0.019503277
155	0x3e7224d5	0.23646863
156	0x3e227ac7	0.15867148
157	0x3e835fff	0.25659177
158	0xb8b592d0	-8.6580985e-05
159	0xbd6c73ce	-0.057727627
160	0xbdd53754	-0.104109436
161	0x3d865d34	0.06560746
162	0xbe9d9a4e	-0.30781788
163	0x3e003b83	0.12522702
164	0x3e16949b	0.14705126
165	0x3bbcb0de	0.005758389
166	0xbe3bc582	-0.18337062
167	0x3e00f073	0.12591724
168	0x3d7214d6	0.059101902
169	0xbd9512f4	-0.07279006
170	0x3cde458e	0.027132776
171	0xbd8ec4ab	-0.06971105
172	0x3d497604	0.049184814
173	0xbe0ef1fc	-0.13959497
174	0xbe7f07a4	-0.24905258
175	0x3b6799d2	0.0035339487
176	0xbc34f2de	-0.011044232
177	0x3dde3b46	0.10851149
178	0xbd359f23	-0.044341218
179	0xbd58033a	-0.052737452
180	0xbe02d695	-0.12777169
181	0xbebf687d	-0.37384406
182	0x3db399ef	0.08769595
183	0xbb74a54a	-0.0037329965
184	0x3e188027	0.14892636
185	0x3e51ddc3	0.20494752
186	0xbda73c18	-0.08165759
187	0xbe573b14	-0.2101863
188	0x3ce4ef1f	0.027946053
189	0x3da8e554	0.08246866
190	0xbdee4604	-0.11634448
191	0x3d8c6c38	0.068565786
192	0x3d966043	0.07342579
193	0x3ee10ddc	0.43955886
194	0x3e9801e1	0.29688933
195	0xbe1cc509	-0.15309538
196	0xbe47226f	-0.19446729
197	0xbe15a1e0	-0.14612532
198	0x3c4c5795	0.012472053
199	0xbe76232c	-0.24036855
200	0xbe6c370b	-0.23067872
201	0xbdea3321	-0.11435533
202	0xbceb7af1	-0.028745146
203	0x3d922c10	0.071373105
204	0x3e1a1382	0.15046504
205	0x3d83e823	0.06440761
206	0xbd7442a6	-0.059633873
207	0x3eefee04	0.4686128
208	0xbcd15df6	-0.0255575
209	0xbea5cedb	-0.3238438
210	0x3e9a8604	0.3018037
211	0x3e821c21	0.25412086
212	0x3ea9ec3b	0.33188042
213	0x3e84cd6f	0.25937983
214	0xbdd5e01a	-0.104431346
215	0x3d2cd32b	0.042193573
216	0xbe4d7bbb	-0.2006673
217	0x3e030105	0.12793358
218	0xbd97411c	-0.073854655
219	0x3d31ec12	0.043438025
220	0x3e08b330	0.13349605
221	0xbd85c06e	-0.06530844
222	0xbed97f1d	-0.42479792
223	0x3e1f9679	0.15584745
224	0x3dbae603	0.091259025
225	0xbe3777f8	-0.17916858
226	0xbe4736a2	-0.19454435
227	0x3d835983	0.064135574
228	0xbe1df3c4	-0.1542502
229	0xbe2aa6ec	-0.16665238
230	0xbe233387	-0.15937625
231	0xbd793e2d	-0.06085031
232	0x3debe2d7	0.11517876
233	0xbde1f49c	-0.11032984
234	0xbe1ed926	-0.15512523
235	0xbe400129	-0.18750443
236	0x3e767d05	0.24071129
237	0x3c0c4f12	0.008563774
238	0xbddcba4e	-0.10777722
239	0x3cd62ce6	0.026144456
240	0x3d9dd6d9	0.077069946
241	0xbdb226ae	-0.08698784
242	0xbe006fa5	-0.12542589
243	0xbe464170	-0.193609
244	0x3dde0e4a	0.10842569
245	0x3ce974ad	0.028498018
246	0xbd7af46e	-0.061268263
247	0xbea35bac	-0.31905878
248	0x3e22592e	0.15854332
249	0x3e19dab7	0.1502484
250	0xbe955b28	-0.2917111
251	0xbe7bfd40	-0.24608326
252	0xbc117963	-0.0088790385
253	0xbe044dab	-0.12920253
254	0xbe91d3d7	-0.28481933
255	0xbe18f9fc	-0.14939111

network_body._body_endoder.seq_layers.0.bias f4 [128]
0	0x3c869156	0.016426723
1	0x3cd706af	0.026248304
2	0x3cb0316f	0.021507947
3	0xbb9dc76f	-0.004815034
4	0x3c84ff6d	0.016235078
5	0x3b8a25a8	0.0042159148
6	0xbc050045	-0.00811774
7	0xbc09c2a2	-0.0084082205
8	0x3c5a3997	0.013319395
9	0x3d22ab66	0.03971424
10	0x3c9d771d	0.019221837
11	0xbc73d57d	-0.014882443
12	0xbc41838e	-0.01181115
13	0x3ce01f87	0.027358783
14	0xbc835cf5	-0.016035536
15	0x3d33d90a	0.043908156
16	0x3c93e4fd	0.018053526
17	0xbb74c57e	-0.003734916
18	0x3cb2170d	0.021739507
19	0x3cc8b889	0.024502056
20	0x3cde1837	0.027111156
21	0x3c3045c6	0.010758823
22	0x3cc1fbfa	0.023679722
23	0x3ced7269	0.02898522
24	0xbbb11848	-0.005404506
25	0x3c8fcc67	0.017553521
26	0x3c144a39	0.009050899
27	0x3b79b2a9	0.0038100875
28	0xbcb8ff2b	-0.022582611
29	0xbb92f535	-0.0044847974
30	0x3b347ab8	0.0027538966
31	0xbc75ff81	-0.01501453
32	0x3ba56a29	0.0050480557
33	0x3bd84375	0.0065998384
34	0x3c5af736	0.013364604
35	0x3bcb49e1	0.0062038754
36	0x3cce48d5	0.025181213
37	0x3c8e43c4	0.017366298
38	0xbb2fa696	-0.0026802174
39	0xbc6cb57f	-0.014447569
40	0x3d0c8502	0.034306534
41	0xbbda6039	-0.0066643027
42	0xbd24708d	-0.0401464
43	0xbcf301f0	-0.02966401
44	0xbb8e81c7	-0.0043489668
45	0x3cb71b4d	0.022351885
46	0x3cef0620	0.029177725
47	0x3bced8b1	0.0063124527
48	0x3cb60d7f	0.022223232
49	0xbcc0303a	-0.023460496
50	0xbcb0cab2	-0.021581028
51	0xbd2128a0	-0.039345384
52	0x3d0fdc0a	0.035121955
53	0xbc7170ec	-0.014736395
54	0x3a61eac5	0.0008618052
55	0x3d4a49a2	0.049386628
56	0xbb9b93ec	-0.0047478583
57	0xbd18716d	-0.037217546
58	0x3d45b45a	0.0482677
59	0xbcaf7fce	-0.021423247
60	0x3c871754	0.016490616
61	0xbc96b450	-0.018396527
62	0x3d07d032	0.033157535
63	0x3cc162df	0.023606716
64	0xbccdaee8	-0.025107816
65	0x3a42cf60	0.0007431414
66	0x3c51d442	0.012806954
67	0x3c2db360	0.010601848
68	0x3c9eb436	0.01937304
69	0x3cc623b6	0.02418695
70	0xbcad3f29	-0.021148281
71	0x3bceac4f	0.006307162
72	0x3c51848e	0.012787951
73	0xb9708f22	-0.00022941505
74	0x3c4a0226	0.012329614
75	0xbbbbe0b2	-0.005733573
76	0xbcc65b75	-0.024213532
77	0xbc14fbec	-0.009093266
78	0xbc90b903	-0.017666345
79	0xbc385a61	-0.011252017
80	0x39cd4cef	0.00039157967
81	0xba4089e1	-0.00073447643
82	0x3c998115	0.018738309
83	0xbb283fde	-0.0025672833
84	0x3bd7230d	0.0065654577
85	0xbc1e4d3e	-0.009661971
86	0xbc3fe69a	-0.011712695
87	0xbc388163	-0.011261317
88	0x3ccd1a57	0.025036974
89	0x3c36bc52	0.0111532975
90	0x3cedb52d	0.029017055
91	0x3c2bca99	0.010485315
92	0x3d239cde	0.039944522
93	0x3c09ef17	0.00841882
94	0x3c85faaf	0.016354887
95	0x3d0114ff	0.031514164
96	0x3c660104	0.014038328
97	0x3d33a2fe	0.043856613
98	0x3ab05f4b	0.0013456134
99	0x3ce78714	0.028262652
100	0xbb1c7d11	-0.0023878256
101	0x3c4cd22e	0.012501283
102	0x3cd292b5	0.025704721
103	0x3d1ce07f	0.038300034
104	0x3d0a4420	0.033756375
105	0x3c912649	0.017718451
106	0xbc13411e	-0.008987693
107	0x3bb03930	0.005377911
108	0x3ccb2b95	0.024801055
109	0x3b8623f4	0.0040936414
110	0x3c42a0bd	0.011879143
111	0x3c9743ed	0.018465007
112	0x3c488ef4	0.012241114
113	0x3c266acb	0.010157297
114	0xba5176bb	-0.00079904095
115	0xbb176b24	-0.0023104632
116	0x3ca6227a	0.020280112
117	0xbc858210	-0.01629737
118	0x3be20de3	0.006898628
119	0x3d0d0c8a	0.034435786
120	0x3d615a91	0.05501801
121	0x3d1b4790	0.037910044
122	0x3af8d911	0.0018985589
123	0x3d11c33b	0.035586577
124	0xbbead207	-0.0071661505
125	0x3b28b301	0.002574146
126	0xbbaf1178	-0.0053426586
127	0x3ce02658	0.027362034

network_body._body_endoder.seq_layers.2.weight f4 [128, 128]
0	0x3d113cdc	0.03545843
1	0x3d5c57d4	0.053794697
2	0x3e4415c5	0.1914893
3	0x3cf410f7	0.029793246
4	0x3d880807	0.06642156
5	0x3dfa24d0	0.12214053
6	0x3d4a0676	0.049322568
7	0x3cd8df0e	0.026473548
8	0x3db1aa39	0.086750455
9	0x3da8fcee	0.082513675
10	0x3d93882b	0.07203706
11	0xbde3dc16	-0.111259624
12	0xbe0dc68b	-0.1384527
13	0xbca2211f	-0.019791184
14	0xbe134e72	-0.14385393
15	0x3de897d3	0.11357083
16	0xbd7256e3	-0.059164893
17	0xbc3c5bbc	-0.011496481
18	0xbc3b6dd1	-0.0114397565
19	0xbc9448fc	-0.018101208
20	0x3bc2788b	0.00593478
21	0xbcb9b64a	-0.02266993
22	0xbd8e0978	-0.069354
23	0xba554fb5	-0.00081371824
24	0x3d44c976	0.04804369
25	0xbdce6831	-0.10078467
26	0x394a484f	0.00019291158
27	0x3d9fbe4a	0.07799967
28	0xbcd52325	-0.026017735
29	0xbb890a4b	-0.004182135
30	0xbe39e487	-0.18153583
31	0xbe0713b5	-0.13191111
32	0xbe1cc62a	-0.15309969
33	0xbdeb08c8	-0.11476284
34	0xbd5ff941	-0.054681066
35	0xbd620a75	-0.055185754
36	0x3dac5fdd	0.08416722
37	0xbe182683	-0.14858441
38	0x3d10b084	0.03532459
39	0xbd968674	-0.07349864
40	0xbc856e21	-0.016287865
41	0x3d651eea	0.055937685
42	0x3bdfcd8d	0.0068299235
43	0xbd0cefd0	-0.03440839
44	0x3dddb6fe	0.108259186
45	0xbcbe072f	-0.023196785
46	0x3cf37414	0.029718436
47	0x3d01bd27	0.03167453
48	0xbdbfff53	-0.09374871
49	0xbdb3536f	-0.08756148
50	0xbc13451f	-0.008988648
51	0x3d3fc0fc	0.046814904
52	0x3caddb66	0.021222781
53	0xbd186222	-0.03720296
54	0xbba98816	-0.0051736934
55	0x3cfb181c	0.030651145
56	0xbdfcec1f	-0.12349724
57	0x3cdb85ef	0.026797263
58	0x3d8c9bbc	0.068656415
59	0x3bc7f61b	0.006102336
60	0x3e872d09	0.26401547
61	0xbe15482c	-0.14578313
62	0x3d49c904	0.04926397
63	0x3d82da60	0.06389308
64	0xbe31cd33	-0.17363434
65	0xbc664ee6	-0.014056897
66	0x3d9a95b5	0.075480856
67	0xbdef321b	-0.11679479
68	0x3db848ee	0.08998285
69	0xbdc85317	-0.09781473
70	0x3bc01d94	0.005862901
71	0xbd976e9b	-0.07394143
72	0x3dd216d4	0.1025826
73	0xbb5fc834	-0.003414643
74	0xbe580996	-0.21097407
75	0xbd82ee2d	-0.06393085
76	0xbc9bec76	-0.019033652
77	0x3dd7d87f	0.1053934
78	0xbd35b941	-0.044366125
79	0x3d2a0eca	0.04151801
80	0x3d2bb8fd	0.041924465
81	0x3d804010	0.06262219
82	0xbccf73b9	-0.025323736
83	0xbcf9e199	-0.030503081
84	0x3da89040	0.082306385
85	0xbe1446d9	-0.14480151
86	0x3ccdf565	0.025141427
87	0xbdfd80de	-0.12378095
88	0xbd188bfb	-0.03724287
89	0x3ccf8b45	0.025334964
90	0x3ddd0613	0.10792174
91	0xbca384d6	-0.019960802
92	0x3d82c626	0.0638545
93	0x3dc1cff9	0.09463496
94	0x3e1801f4	0.14844495
95	0x3da72907	0.08162122
96	0xbe209995	-0.15683587
97	0x3ea49841	0.3214741
98	0xbe7403bd	-0.23829551
99	0x3e40be4c	0.18822592
100	0xbd2b2164	-0.04177989
101	0xbd1fff05	-0.039061565
102	0x3df11155	0.11770884
103	0xbc180099	-0.009277486
104	0x3d5f13b9	0.05446217
105	0xbe3cb149	-0.18427004
106	0xbd738c56	-0.059460007
107	0x3e478081	0.19482614
108	0x3defa41b	0.117012225
109	0xbd500960	-0.05079019
110	0xbd183110	-0.037156165
111	0xbce3609f	-0.027756033
112	0xbc412229	-0.01178793
113	0xbd9d1ade	-0.0767114
114	0x3e0c9a26	0.13730678
115	0xbd8064eb	-0.062692486
116	0x3d5c12db	0.05372892
117	0xbe1021eb	-0.14075439
118	0x3d1b6af1	0.037943784
119	0x3e34e09e	0.1766381
120	0x3e02fc53	0.12791567
121	0x3d6322b8	0.055453032
122	0xbc6cc70e	-0.014451755
123	0x3e0ba87f	0.13638495
124	0xbd98b26a	-0.07455905
125	0x3ce63e9f	0.028106032
126	0xbcd90c18	-0.026495025
127	0xbdfdaf5c	-0.12386963
128	0x3e8e8844	0.27838337
129	0xbe81d056	-0.2535426
130	0x3e362a5a	0.17789593
131	0xbc9affb8	-0.018920764
132	0xbcc5a90a	-0.024128456
133	0x3de7c7ae	0.11317383
134	0xbdb3758f	-0.08762657
135	0xb96d40ab	-0.00022626172
136	0xbdb220e3	-0.08697679
137	0x3e60c984	0.21951872
138	0x3e247c16	0.1606296
139	0xbd1fd88e	-0.039024882
140	0xbd225b2d	-0.039637733
141	0xbd8c4aaf	-0.06850182
142	0x3daab804	0.083358794
143	0xbd97499c	-0.07387087
144	0xbc9b4857	-0.018955393
145	0x3dfc02ff	0.12305259
146	0x3dc0007b	0.09375092
147	0xbcfd77d6	-0.030940931
148	0xbe033692	-0.12813786
149	0x3b621c61	0.0034501778
150	0xbdb0f236	-0.08639948
151	0x3e1b3fcf	0.1516106
152	0xbc0fc232	-0.008774327
153	0x3dee6c38	0.11641735
154	0xbd8b56e3	-0.06803682
155	0xbe640da9	-0.22270836
156	0x3da8556e	0.082194194
157	0xbdde58cd	-0.10856781
158	0xbe5bad8d	-0.21452923
159	0xbe0ed777	-0.13949381
160	0xbe2e890a	-0.17044464
161	0xbe26e6e5	-0.16299017
162	0x3c1a1fd5	0.009407003
163	0x3dd0da0d	0.1019784
164	0x3d67a76c	0.05655615
165	0x3d96e53f	0.07367944
166	0x3dddbe58	0.10827321
167	0x3db2f4a1	0.087380655
168	0x3e08f284	0.13373762
169	0x3e38a0fa	0.18030158
170	0xbc7673b2	-0.015042232
171	0x3ccf8009	0.025329607
172	0xbdca7196	-0.09884946
173	0x3d364e71	0.0445084
174	0x3d8d2161	0.06891132
175	0xbe158342	-0.14600852
176	0xbdbbe49b	-0.091744624
177	0xbd7f45fa	-0.062322594
178	0xbd83ac94	-0.06429401
179	0xbd8b0698	-0.06788367
180	0x3b89d583	0.004206361
181	0x3d964af2	0.073385134
182	0x3d57ecf2	0.052716203
183	0x3c78512e	0.0151560735
184	0xbc170d95	-0.009219547
185	0xbd6cfe40	-0.05785966
186	0xbcb7f74f	-0.022456793
187	0xbe10602d	-0.14099188
188	0x3cee2acf	0.029073147
189	0x3b5de9e1	0.0033861327
190	0x3e2b9c2d	0.16758795
191	0xbc2767f4	-0.010217655
192	0xbd85e0c4	-0.06537011
193	0xbca27750	-0.019832283
194	0x3c5669cc	0.013086747
195	0xbdcc47e2	-0.09974648
196	0xbe37dca2	-0.17955258
197	0xbd9ba636	-0.076000616
198	0x3d90cc3b	0.07070204
199	0x3ddc4917	0.10756128
200	0x3db9cc9b	0.090722285
201	0xbd440fc9	-0.047866616
202	0xbaaa0348	-0.0012970949
203	0x3dd76658	0.105175674
204	0x3d547f62	0.051879294
205	0x3df5fb02	0.120107666
206	0xbd05c0cb	-0.032654565
207	0xbd627f40	-0.055297136
208	0xbe1b50b3	-0.15167503
209	0x3bd380dd	0.0064545707
210	0x3d8bfe84	0.068356544
211	0xbe723444	-0.2365275
212	0xbbbca448	-0.0057568885
213	0xbc5a8907	-0.013338334
214	0xbe49fcba	-0.19725314
215	0x3d9c3ef2	0.07629193
216	0xbd84a138	-0.064760625
217	0x3d818f4c	0.0632616
218	0x3da53667	0.08067017
219	0x3e0ff72d	0.14059134
220	0x3dd3cdcb	0.10341986
221	0x3e559ac0	0.20859814
222	0x3c12852b	0.0089428825
223	0x3d58d3bb	0.052936297
224	0x3b244a57	0.0025068724
225	0x3e03e68d	0.12880917
226	0xbd9e6537	-0.07734149
227	0xbe1c77b0	-0.15280032
228	0x3d3430fd	0.04399203
229	0xbd3185ad	-0.043340374
230	0x3cefa2f7	0.029252512
231	0xbda75245	-0.081699885
232	0xbd297cd8	-0.041378826
233	0xbe1bba8d	-0.15207882
234	0xbc74ef5f	-0.014949649
235	0x3cb87483	0.022516495
236	0xbdcb5d69	-0.09929926
237	0x3b463056	0.0030241213
238	0x3ea31d86	0.31858462
239	0xbd552f13	-0.052046847
240	0x3e02077c	0.12698168
241	0xbc01514f	-0.007892921
242	0x3e420a8a	0.18949333
243	0xbc71242c	-0.014718097
244	0x3d64fa44	0.055902734
245	0xbde55569	-0.11197931
246	0xbe22e52b	-0.15907733
247	0x3d731771	0.059348527
248	0xbcf26874	-0.029590823
249	0x3d8dba12	0.06920256
250	0x3c3319ad	0.010931415
251	0xbd468510	-0.048466742
252	0xbe3957b1	-0.18099858
253	0xbb5fb43b	-0.0034134525
254	0x3d0ae440	0.033909082
255	0xbe1ad24b	-0.15119283

network_body._body_endoder.seq_layers.2.bias f4 [128]
0	0x3c8ff2cb	0.017571827
1	0x3cc995d6	0.02460758
2	0xbbdd17c7	-0.0067472192
3	0x3bb51536	0.00552621
4	0x3c9a4eff	0.018836496
5	0xbbd6849d	-0.0065465705
6	0x3bc2c086	0.0059433607
7	0x3b84bb41	0.0040506427
8	0x3a8dcca0	0.0010818429
9	0x396d13a7	0.00022609402
10	0x3d007da4	0.03136982
11	0x3c803739	0.015651332
12	0x3ba18ddf	0.0049302424
13	0xbb98ff47	-0.0046691033
14	0x3c92d643	0.017924434
15	0x3ca3f8b9	0.020016061
16	0x3bb7af6b	0.0056056282
17	0xbaa692a7	-0.0012708501
18	0x3ce6895b	0.028141668
19	0x3cd0a9b2	0.025471542
20	0xbbe4eb10	-0.0069860294
21	0x3ccde819	0.025135087
22	0x3ca772c3	0.020440465
23	0x3bd683ec	0.006546488
24	0x3d020659	0.031744335
25	0xbac1949b	-0.0014769019
26	0x3c747127	0.014919556
27	0x3bf39e8a	0.007434671
28	0x3cee3c7f	0.029081581
29	0x3ce81bd8	0.02833359
30	0x3cd26954	0.02568499
31	0x3b88be55	0.00417308
32	0x3cccb5bb	0.024989
33	0xbb9a277c	-0.004704414
34	0xbccf4175	-0.025299767
35	0xbae26d54	-0.0017275014
36	0x3caea7c0	0.021320224
37	0x3cc62ae9	0.024190383
38	0xbaf4a3f3	-0.0018664583
39	0x3d2ee6f2	0.042700715
40	0xb9307b2f	-0.00016830557
41	0xbc08910a	-0.008335361
42	0x3c165bd9	0.009177172
43	0xbb794954	-0.0038038092
44	0x3bb6a5cd	0.005573964
45	0x3befbad7	0.007315974
46	0x3bb889fd	0.005631684
47	0x3c92927e	0.017892119
48	0x3cf6f852	0.030147705
49	0x3bc9e038	0.006160762
50	0x3b378e21	0.00280083
51	0x3c0c39f5	0.00855874
52	0xbbd9c6cb	-0.0066460124
53	0xbadfdf7a	-0.0017080151
54	0xbb39520c	-0.0028277664
55	0x3ce1cdb7	0.027563913
56	0x3be474c1	0.006971926
57	0x3c061867	0.008184529
58	0x3c89137b	0.016732922
59	0xbb51a209	-0.003198745
60	0x3a12c7ed	0.0005599249
61	0x3ba47ca9	0.0050197435
62	0xba02c67c	-0.0004988683
63	0x3c30bfd4	0.010787923
64	0x3c909384	0.017648466
65	0x3c24c365	0.010056351
66	0xbb5c7460	-0.00336387
67	0x3bb642c6	0.005562159
68	0x3c17d163	0.00926623
69	0x3c47dbb1	0.012198375
70	0x3c3e276e	0.01160608
71	0x3bfca72f	0.0077103595
72	0x3c811a1e	0.015759524
73	0x3ccbea59	0.02489202
74	0x3ca8f073	0.020622468
75	0x39fd0797	0.00048261575
76	0xbb76e745	-0.0037674468
77	0x3c722b82	0.014780881
78	0x3c41e9b8	0.011835508
79	0x3cd179e8	0.025570825
80	0x3d0a43e4	0.03375615
81	0x3bc1fbac	0.005919894
82	0x3c20a0d8	0.009803973
83	0xbb47461a	-0.0030406774
84	0x3bcbe79f	0.0062226797
85	0x3c8b1a96	0.01698045
86	0xbbaf3f84	-0.005348148
87	0x3ca0eaba	0.019643176
88	0xbc0254f3	-0.007954824
89	0x3c82f17f	0.015984295
90	0x3b8ea4c6	0.0043531386
91	0x3cb814f8	0.022470936
92	0x3c014966	0.007891035
93	0xbae8b4b0	-0.0017754044
94	0xbc2c66d7	-0.010522566
95	0x3c38a5f3	0.011270034
96	0x3c991c15	0.018690148
97	0xbbc2adf9	-0.0059411493
98	0x3bc24631	0.0059287776
99	0xb99c4ac2	-0.00029810338
100	0x3cba8dfe	0.022772785
101	0x3c0ea689	0.008706697
102	0x39818b52	0.000247086
103	0x3b6d9194	0.0036250101
104	0x3aa374ea	0.0012470756
105	0xbb01545c	-0.001973412
106	0xba7a7a9b	-0.0009555013
107	0x3cc8ddab	0.024519762
108	0xba0849de	-0.00051989953
109	0x3b5f0ce9	0.0034034795
110	0x3c95656d	0.01823684
111	0xbb1459b4	-0.0022636475
112	0x3bf54c38	0.0074858926
113	0x3bf18ecc	0.007371759
114	0x3be10c13	0.0068678944
115	0x3c912eb3	0.017722463
116	0xbb3049c1	-0.002689943
117	0x3d0eebd6	0.03489288
118	0x3c9c0db0	0.019049495
119	0x3d0cac20	0.03434384
120	0x3c06b847	0.008222646
121	0xb9082c66	-0.0001298651
122	0x3d03b8fd	0.03215884
123	0xbc213a99	-0.009840631
124	0x3ce98ebd	0.028510446
125	0x3b9769f7	0.0046207863
126	0x3c8931c0	0.016747355
127	0x3bbc43c5	0.0057453834

action_model._continuous_distribution.log_sigma f4 [1, 2]
0	0xbc16332f	-0.009167477
1	0xbcff61ab	-0.031174501

action_model._continuous_distribution.mu.weight f4 [2, 128]
0	0x3a0ab350	0.0005291002
1	0x3dab6f10	0.08370793
2	0xbd020f5e	-0.031752937
3	0x3d5f0ecc	0.05445747
4	0xbcde0b0c	-0.027104877
5	0xbbdab7b1	-0.0066747298
6	0x3d048388	0.032352
7	0xbd2a97d0	-0.041648686
8	0x3d295aaf	0.04134625
9	0xbda501c6	-0.08056979
10	0x3d1d3b83	0.038386833
11	0x3d31e752	0.043433495
12	0x3ca74f2a	0.02042349
13	0xbce5e7d8	-0.028064653
14	0xbcc85baf	-0.02445778
15	0xbd34509b	-0.044022184
16	0xbd5be3c2	-0.053684004
17	0x3c24e462	0.010064216
18	0x3c6e7d39	0.014556223
19	0xbd32e517	-0.04367551
20	0x3cac75a4	0.02105219
21	0x3d7d64a2	0.06186355
22	0x3d6d24df	0.05789649
23	0xbd03dd3d	-0.03219341
24	0x3d342b32	0.043986507
25	0xbc4467e4	-0.01198766
26	0xbd9d0182	-0.07666303
27	0x3d009388	0.031390697
28	0x3cfa764c	0.030573986
29	0xba6c7a97	-0.0009020953
30	0x3c2e12ad	0.01062457
31	0x3c0954ab	0.008382003
32	0x3ccb5e42	0.024825219
33	0xbc2861dc	-0.010277238
34	0xba9a7cc3	-0.001178645
35	0xbc60a508	-0.0137112215
36	0x3d868777	0.065688066
37	0xbd551fee	-0.052032404
38	0xbd806056	-0.062683746
39	0x3b8143e0	0.003944859
40	0x3c9f5541	0.019449832
41	0xbcb7d419	-0.022440003
42	0xbce9fdc4	-0.028563388
43	0x3cd097ba	0.025462974
44	0x3d398b07	0.045298602
45	0xbd7ab313	-0.061205935
46	0x3d259c15	0.040432055
47	0x3c320737	0.010865978
48	0x3c6e5655	0.01454695
49	0xbd949341	-0.07254649
50	0x3c84bc7d	0.01620316
51	0xbdae9951	-0.085253365
52	0x3cd391ba	0.025826324
53	0xbd17a8bb	-0.03702615
54	0x3c1e01f8	0.009644024
55	0xbc211e43	-0.009833875
56	0xbd0e40a0	-0.0347296
57	0x3d585d1e	0.05282318
58	0xbd537db2	-0.051633544
59	0xbd48d736	-0.049033366
60	0xbcee38cf	-0.029079823
61	0x3c4563a7	0.012047685
62	0x3cf618d4	0.030041136
63	0xbce2ab2e	-0.027669515
64	0xbcb7eb33	-0.022451019
65	0x3d052ba4	0.032512322
66	0xbc94e8e9	-0.018177466
67	0xbcd757a3	-0.026286906
68	0x3d6e1c37	0.058132377
69	0x3d1ca4c6	0.038243078
70	0x3cfaec4a	0.03063025
71	0x3d580792	0.052741595
72	0xbd03081f	-0.031990167
73	0xbcd61a91	-0.026135715
74	0xbd1c7ad2	-0.038203068
75	0x3c26f5c2	0.010190429
76	0x3ca577bd	0.020198697
77	0x3daeb986	0.085314795
78	0x3ce52653	0.027972376
79	0x3c8bdc29	0.017072754
80	0xbb98bed2	-0.0046614194
81	0xbd6702b5	-0.056399066
82	0x3d369caa	0.044583
83	0x3cc7f1bc	0.02440726
84	0xbd49ae75	-0.04923864
85	0x3d7db484	0.06193973
86	0xbd4624c0	-0.04837489
87	0x3bd75b17	0.006572138
88	0xbd3decbf	-0.046368357
89	0xbd27435d	-0.040835727
90	0xbcb04146	-0.0215155
91	0x3c855980	0.016278028
92	0x3d5b9250	0.05360633
93	0x3c835781	0.016032936
94	0xbc8c101d	-0.017097527
95	0xbd4a2532	-0.04935188
96	0xbc1090b1	-0.00882356
97	0xbd396ad0	-0.04526788
98	0xbd3fb36e	-0.046801977
99	0xbd08f7fd	-0.033439625
100	0x3bd8414b	0.0065995804
101	0xbcb77cfd	-0.022398466
102	0x3cdb22e3	0.026750034
103	0x3d3cd13e	0.046097986
104	0xbd821946	-0.06352477
105	0xbcdf6f9f	-0.027274905
106	0x3cb0c16c	0.021576606
107	0xbd342350	-0.04397899
108	0xbcf89fac	-0.030349575
109	0xbbe9b691	-0.0071323593
110	0xbda11b8a	-0.07866581
111	0xbc32939c	-0.010899451
112	0xb99e57df	-0.00030201577
113	0xbd8225a6	-0.06354837
114	0xbd818b14	-0.06325355
115	0x3d82d69b	0.06388589
116	0xbcc89660	-0.024485767
117	0xbb01093c	-0.0019689342
118	0xbdb43046	-0.0879827
119	0x3da4d7e5	0.08048991
120	0xbd04c24b	-0.032411855
121	0xbd273084	-0.040817752
122	0xbd8a2092	-0.067444935
123	0xbc9ae7d0	-0.018909365
124	0xbd1285c1	-0.03577209
125	0xbcc18b90	-0.023626119
126	0x3d64faa0	0.055903077
127	0x3d4e9329	0.05043331
128	0x3d825bbd	0.06365154
129	0x3bc80e44	0.006105216
130	0xbcb104e5	-0.02160878
131	0xbce5cb51	-0.02805105
132	0x3cd322ee	0.025773492
133	0xbd596ded	-0.05308335
134	0xbba57846	-0.005049738
135	0xbd23366f	-0.039846834
136	0xbd3f5b0b	-0.046717685
137	0xbc22d8b9	-0.009939366
138	0x3caaeb79	0.020864235
139	0x3b798425	0.003807315
140	0x3b66b16a	0.0035200962
141	0xbd9229fa	-0.07136913
142	0x3cb0e0e7	0.021591617
143	0x3d72951e	0.05922424
144	0x3c95608c	0.018234514
145	0xbd49ff42	-0.0493157
146	0x3d7e4a0c	0.062082335
147	0x3d115753	0.03548367
148	0xbce73681	-0.028224232
149	0x3d10c292	0.035341807
150	0x3d873be8	0.06603223
151	0xbcf49942	-0.029858235
152	0x3d8eb92b	0.06968912
153	0xb901f7a0	-0.00012394646
154	0xbbc2e9bb	-0.005948273
155	0xbd62ce21	-0.05537236
156	0x3d0a11e7	0.03370848
157	0x3d54bebe	0.05193972
158	0x3d796ddf	0.060895797
159	0x3c5e9bff	0.013586997
160	0x3d36efcd	0.044662286
161	0xbce2cf50	-0.027686745
162	0xbcb46965	-0.022022912
163	0xbd4ab39a	-0.049487688
164	0x3cf4c2ca	0.029878039
165	0x3c842d2a	0.016134817
166	0xbd0fad9f	-0.035077687
167	0x3dbd81bc	0.092532605
168	0xbd0096eb	-0.031393927
169	0xbc611e29	-0.013740101
170	0x3cfc4ee3	0.030799335
171	0xbd0e37ea	-0.034721293
172	0xbc0dc137	-0.008652023
173	0xbb0c803a	-0.0021438734
174	0xbc84d9ca	-0.016217131
175	0x3d0185f0	0.031621873
176	0x3db78931	0.08961714
177	0xbc04bd56	-0.008101782
178	0xbd3242aa	-0.043520607
179	0xbc41a789	-0.011819729
180	0xbcb43647	-0.021998538
181	0xbd29787c	-0.04137467
182	0xbd8be871	-0.06831444
183	0x3da3d2f6	0.07999222
184	0x3c46d36b	0.012135367
185	0xbbcbbc05	-0.006217482
186	0x3d68b36d	0.05681174
187	0xbba8d09d	-0.0051518218
188	0xbb015eed	-0.0019740418
189	0x3bc4a937	0.0060016173
190	0xbcbb0b66	-0.022832584
191	0x3d010f3a	0.03150866
192	0x3d808e00	0.06277084
193	0x3c6b16ca	0.014348695
194	0xbd0b2bf6	-0.03397747
195	0xbd13c382	-0.036075123
196	0xbccab6dc	-0.024745397
197	0x3d57981d	0.0526353
198	0x3cd20fd1	0.025642307
199	0xbc77d8e0	-0.015127391
200	0x3cff78bd	0.031185502
201	0x3d2aba02	0.041681297
202	0x3d7aa949	0.0611966
203	0xbd4661fe	-0.048433296
204	0xbdbff260	-0.09372401
205	0x3c17b78d	0.0092600705
206	0x3c6f5c96	0.014609477
207	0x3d83cb13	0.06435218
208	0x3d48a514	0.048985556
209	0x3a90b7a6	0.001104106
210	0x3b153df6	0.0022772527
211	0xbd0b0d5b	-0.033948284
212	0xbc947c09	-0.01812555
213	0xbbccf5d5	-0.0062548914
214	0xbd8e22ab	-0.06940206
215	0x3c80288b	0.015644332
216	0xbd2aff2b	-0.041747253
217	0x3cbb9d2e	0.022902098
218	0x3b836b88	0.0040106215
219	0x3d45fa16	0.048334204
220	0xbd6ae962	-0.057351477
221	0xbd1f7d8e	-0.038938098
222	0xbd695c13	-0.056972574
223	0x3cbafe72	0.022826407
224	0x3d0a4b81	0.033763412
225	0xbd57227a	-0.052523114
226	0xbd3a915d	-0.045548785
227	0xbc639e83	-0.013892773
228	0x3d4baf92	0.049727984
229	0x3cd3921d	0.025826508
230	0xbd3d7b13	-0.04625995
231	0xbd3ea0a5	-0.04653992
232	0xbd4480a8	-0.04797426
233	0xbce9d3c8	-0.028543368
234	0xbc021096	-0.007938525
235	0x3d0b0794	0.033942774
236	0xbcbbc701	-0.02292204
237	0x3c6dfaee	0.014525158
238	0x3d25f783	0.04051925
239	0xbd3f8cc1	-0.046765093
240	0x3c47495f	0.012163489
241	0xbc66f1db	-0.014095749
242	0xbd16f035	-0.036850173
243	0x3c974416	0.018465083
244	0xbd284571	-0.04108185
245	0x3d461126	0.048356198
246	0x3d53f12c	0.05174367
247	0x3d464391	0.04840428
248	0x3cf9ee5e	0.03050917
249	0xbbd012fc	-0.0063499194
250	0x3d00b76d	0.03142493
251	0xbc48721d	-0.012234238
252	0x3dacaae7	0.084310345
253	0xbcf6d53e	-0.030130979
254	0x3d0cbb87	0.034358528
255	0xbce1fe05	-0.027586946

action_model._continuous_distribution.mu.bias f4 [2]
0	0x3b80f8dc	0.0039359163
1	0x3c540d7f	0.012942671
