forMeL-1/Assets/MLResults/test1/KartAgent/KartAgent-347774.pt (torch, 528379 bytes, 36 tensors)

network_body._body_endoder.seq_layers.0.weight f4 [128, 35]
0	0xbe8e3f2c	-0.2778257
1	0xbd365940	-0.04451871
2	0x3d8c77c3	0.0685878
3	0x3c0e8a12	0.008699911
4	0xbd54c28e	-0.051943354
5	0x3e1908bd	0.1494474
6	0xbf2134bb	-0.62971085
7	0xbc56c7f0	-0.013109192
8	0x3e137bfd	0.14402767
9	0xbcc43b0f	-0.023953943
10	0xbe4fef63	-0.20306163
11	0x3e06edfd	0.13176723
12	0x3dc21f93	0.094786786
13	0xbf053465	-0.5203307
14	0x3e95cab8	0.29256225
15	0xbd683e2a	-0.05669991
16	0xbcff8aaf	-0.03119406
17	0xbd5cfca7	-0.053951886
18	0xbe2f8c24	-0.17143303
19	0x3da72355	0.08161036
20	0x3e1b4387	0.15162478
21	0xbe0b9037	-0.13629232
22	0x3ecbcd5a	0.39805108
23	0x3e3b2051	0.18274046
24	0x3e4807ca	0.19534221
25	0x3e4b4843	0.19851784
26	0xbe04f96f	-0.12985776
27	0xbd5bcbb1	-0.053661052
28	0xbe8de060	-0.27710247
29	0x3d9aeaa6	0.07564287
30	0x3ea7c417	0.32766792
31	0x3e49b21b	0.19696848
32	0x3df30748	0.11866623
33	0xbdd38455	-0.10327975
34	0x3d6ac0f2	0.057312913
35	0x3d1006a5	0.035162587
36	0x3e066396	0.13123927
37	0xbd818c16	-0.063255474
38	0xbce5e511	-0.028063329
39	0x3b8884f4	0.00416624
40	0x3d05ea4f	0.032694157
41	0x3e4c7281	0.19965555
42	0x3e49c967	0.19705735
43	0x3bd2f3ff	0.006437778
44	0x3e1d3978	0.15353954
45	0x3c4e88ba	0.01260584
46	0x3d5e9977	0.054345574
47	0xbe3a3333	-0.18183593
48	0xbd741a40	-0.059595346
49	0xbd0c03fb	-0.034183484
50	0xbcef9cf4	-0.029249646
51	0x3e06a7d6	0.13149962
52	0xbd3974ce	-0.04527741
53	0xbed70ff9	-0.42004374
54	0x3e833be8	0.25631642
55	0xbd808dc2	-0.06277038
56	0xbe022b2f	-0.12711786
57	0xbd21730c	-0.039416358
58	0xbdda0e37	-0.106472425
59	0x3dd3472f	0.103163116
60	0x3deb84bd	0.11499927
61	0xbe1282b3	-0.1430767
62	0xbdfa859a	-0.12232514
63	0x3d39800e	0.045288138
64	0xbe805e65	-0.25072017
65	0x3d8f8a5f	0.07008814
66	0xbe1feb40	-0.15617085
67	0xbdde123e	-0.10843323
68	0xbdac819f	-0.08423161
69	0xbdc856c7	-0.097821765
70	0x3e6fb97b	0.23410599
71	0x3ea3bf80	0.3198204
72	0xbdd48c45	-0.10378317
73	0x3d73c64e	0.05951529
74	0xbe5cf210	-0.21576715
75	0xbe63fc57	-0.22264229
76	0x3d48af32	0.048995204
77	0x3e1b06ba	0.15139285
78	0x3e1e373b	0.15450756
79	0x3e5f0e7a	0.21782866
80	0x3dc8e341	0.0980897
81	0x3d897ddd	0.0671346
82	0xbeb4cdbb	-0.3531321
83	0xbe672b25	-0.22575052
84	0x3e41a340	0.18909931
85	0x3e0a2366	0.13490066
86	0xbd892d70	-0.0669812
87	0xbe74f2ad	-0.23920698
88	0x3e5f022d	0.21778174
89	0xbe16e4cc	-0.14735717
90	0xbbe1b94f	-0.0068885456
91	0x3daac871	0.083390124
92	0x3d3c6268	0.045992285
93	0xbbe455a2	-0.006968216
94	0x3d8b85c1	0.06812621
95	0xbe18861f	-0.14894913
96	0xbea13d6f	-0.31492183
97	0xbddfc6f5	-0.1092662
98	0x3d195d37	0.037442412
99	0xbd905728	-0.07047874
100	0xbcdc48e2	-0.026890222
101	0xbe25ce48	-0.16191971
102	0x3e1e1380	0.15437126
103	0x3e824cf9	0.2544935
104	0xbda06d47	-0.07833343
105	0xbe1fc604	-0.1560288
106	0x3d2ea4e9	0.04263774
107	0x3e0c1a81	0.13681985
108	0x3ea59c88	0.32345986
109	0xbeb81149	-0.35950688
110	0x3e56d76d	0.20980616
111	0xbd8ebc84	-0.0696955
112	0x3ce15c79	0.027509915
113	0xbce3bef0	-0.027801007
114	0x3e8ba44e	0.27273792
115	0xbe4a688e	-0.19766447
116	0x3e2232ec	0.15839738
117	0xbd89d5dc	-0.067302436
118	0x3d2d3951	0.04229099
119	0x3d1c6294	0.03817995
120	0x3e562957	0.20914207
121	0x3d9c8fa4	0.07644585
122	0xbe5ae47c	-0.21376222
123	0xbd9cb7af	-0.07652222
124	0x3e4b61cf	0.1986153
125	0x3da5fc35	0.08104745
126	0x3ec6786f	0.3876376
127	0x3e9805a0	0.29691792
128	0x3e2536a6	0.16134128
129	0x3d4f9927	0.050683167
130	0x3e38274b	0.17983739
131	0xbd735594	-0.059407786
132	0x3de99fca	0.114074305
133	0xbe48f2d4	-0.19623882
134	0xbeb98a54	-0.36238348
135	0x3daa8a4e	0.08327161
136	0xbbae8061	-0.0053253626
137	0xbdd48c5c	-0.10378334
138	0xbde170ce	-0.11007844
139	0x3e25bee8	0.16186106
140	0x3d73c0aa	0.05950991
141	0x3d748542	0.059697397
142	0xbd8fa3f6	-0.07013695
143	0xbe14286a	-0.14468542
144	0xbd80382a	-0.062607124
145	0x3e59776e	0.21236965
146	0x3ef4f5e1	0.4784384
147	0x3e9d4ac1	0.30721095
148	0x3e2da5b5	0.16957743
149	0xbe684a01	-0.2268448
150	0xbb9b68bb	-0.0047427095
151	0xbe1ed61d	-0.15511365
152	0xbd9c000d	-0.07617197
153	0x3db99b3e	0.09062813
154	0x3c49114c	0.01227219
155	0x3e6c4d45	0.23076351
156	0x3e227ac7	0.15867148
157	0x3e835fff	0.25659177
158	0xbb7cb1c4	-0.0038558105
159	0xbd7bbf89	-0.06146196
160	0xbdd53754	-0.104109436
161	0x3d865d34	0.06560746
162	0xbe9f7795	-0.3114592
163	0x3df92ec6	0.121671245
164	0x3e16949b	0.14705126
165	0x3bbcb0de	0.005758389
166	0xbe41ceb0	-0.18926501
167	0x3df5e069	0.120056935
168	0x3d7214d6	0.059101902
169	0xbd9512f4	-0.07279006
170	0x3cc848a3	0.024448698
171	0xbd94f7c1	-0.07273818
172	0x3d44bd31	0.04803199
173	0xbe144055	-0.14477666
174	0xbe7ff07b	-0.2499408
175	0x3b6799d2	0.0035339487
176	0xbc34f2de	-0.011044232
177	0x3dd7bd07	0.10534101
178	0xbd4056e9	-0.046957884
179	0xbd58033a	-0.052737452
180	0xbe02d695	-0.12777169
181	0xbebc9ea9	-0.36839798
182	0x3db82a86	0.08992486
183	0xbb74a54a	-0.0037329965
184	0x3e188027	0.14892636
185	0x3e4b9006	0.1987916
186	0xbdb1256b	-0.08649715
187	0xbe573b14	-0.2101863
188	0x3ce4ef1f	0.027946053
189	0x3daf5b3a	0.08562322
190	0xbdeb859c	-0.11500093
191	0x3d8c6c38	0.068565786
192	0x3d966043	0.07342579
193	0x3ee05dfe	0.4382171
194	0x3e974d59	0.295512
195	0xbe1cc509	-0.15309538
196	0xbe47226f	-0.19446729
197	0xbe151cf2	-0.14561823
198	0x3c54ae7e	0.012981055
199	0xbe76232c	-0.24036855
200	0xbe6c370b	-0.23067872
201	0xbde4dceb	-0.11174949
202	0xbcd75a65	-0.02628822
203	0x3d922c10	0.071373105
204	0x3e1a1382	0.15046504
205	0x3d83ccd8	0.06435555
206	0xbd7400d7	-0.059571113
207	0x3eef5f96	0.46752614
208	0xbcbb48e5	-0.022861907
209	0xbea5d422	-0.32388407
210	0x3e9a8604	0.3018037
211	0x3e821c21	0.25412086
212	0x3ea75985	0.32685485
213	0x3e831b8b	0.2560695
214	0xbdd5e01a	-0.104431346
215	0x3d2cd32b	0.042193573
216	0xbe4ab7f8	-0.19796741
217	0x3e031b43	0.12803368
218	0xbd97411c	-0.073854655
219	0x3d31ec12	0.043438025
220	0x3e07154c	0.13191718
221	0xbd88603f	-0.066589825
222	0xbed97f1d	-0.42479792
223	0x3e1f9679	0.15584745
224	0x3dbf7e2b	0.093502365
225	0xbe361fb8	-0.17785537
226	0xbe4736a2	-0.19454435
227	0x3d835983	0.064135574
228	0xbe1dc509	-0.15407194
229	0xbe2a64ad	-0.16639967
230	0xbe233387	-0.15937625
231	0xbd793e2d	-0.06085031
232	0x3deb7f6d	0.11498914
233	0xbde33073	-0.11093225
234	0xbe1ed926	-0.15512523
235	0xbe400129	-0.18750443
236	0x3e770e6a	0.24126592
237	0x3c11e3a2	0.00890437
238	0xbddcba4e	-0.10777722
239	0x3cd62ce6	0.026144456
240	0x3d9e07a4	0.07716301
241	0xbdb26ad4	-0.08711782
242	0xbdfa44e4	-0.12220171
243	0xbe428ee2	-0.18999818
244	0x3de1ac12	0.11019148
245	0x3ce974ad	0.028498018
246	0xbd7af46e	-0.061268263
247	0xbea48222	-0.32130533
248	0x3e20ccb2	0.15703085
249	0x3e19dab7	0.1502484
250	0xbe955b28	-0.2917111
251	0xbe7fb540	-0.24971485
252	0xbc3aa8ec	-0.011392813
253	0xbe044dab	-0.12920253
254	0xbe91d3d7	-0.28481933
255	0xbe14bc99	-0.1452507

network_body._body_endoder.seq_layers.0.bias f4 [128]
0	0x3c8a929d	0.016915614
1	0x3ccaa11d	0.024735028
2	0x3c94d898	0.018169686
3	0xbba10735	-0.004914189
4	0x3c535de9	0.012900808
5	0x3b322950	0.0027185269
6	0xbbf11e24	-0.0073583294
7	0xbbd71022	-0.0065632025
8	0x3c2c61d3	0.01052137
9	0x3d15e13e	0.03659176
10	0x3c8caaf4	0.01717136
11	0xbc7f5088	-0.015583165
12	0xbc263bf0	-0.010146126
13	0x3cd2c2a0	0.02572757
14	0xbc4d7b72	-0.012541639
15	0x3d22082a	0.039558567
16	0x3c940f28	0.018073633
17	0xbb24dc2c	-0.0025155647
18	0x3c9845f7	0.01858805
19	0x3cbbf06d	0.022941792
20	0x3cd03721	0.025416913
21	0x3c43d6a6	0.011953032
22	0x3cb8c723	0.022555893
23	0x3ce6ef63	0.02819032
24	0xbb9461e5	-0.0045282715
25	0x3c7e5994	0.015524287
26	0x3bfb9d23	0.0076786443
27	0x3a9c613b	0.0011930832
28	0xbca5164f	-0.02015224
29	0xbb21bac6	-0.0024677976
30	0x3a7d0be5	0.00096529565
31	0xbc49a684	-0.012307767
32	0x3bd6b181	0.006551922
33	0x3bd537ea	0.0065069096
34	0x3c428187	0.011871702
35	0x3bd2e93a	0.006436494
36	0x3cbc7878	0.023006663
37	0x3c8441fd	0.016144747
38	0xbb1f77cc	-0.002433288
39	0xbc84d431	-0.016214462
40	0x3cfb4721	0.030673565
41	0xbbe2b6a6	-0.006918746
42	0xbd0ecafb	-0.034861546
43	0xbcfe786c	-0.031063281
44	0xbb6a6c63	-0.003577017
45	0x3c9d0dfb	0.019171705
46	0x3cc1834c	0.023622178
47	0x3bb77a84	0.005599322
48	0x3cac9912	0.021069083
49	0xbca4d143	-0.020119315
50	0xbcaa0229	-0.020752983
51	0xbd0f2468	-0.03494683
52	0x3d001b61	0.03127611
53	0xbc4e3f92	-0.0125883985
54	0x3a796d5b	0.00095148914
55	0x3d3bfaf7	0.045893636
56	0xbb1268a4	-0.0022340203
57	0xbd0c01af	-0.034181293
58	0x3d34483c	0.0440142
59	0xbc8cbfc4	-0.017181285
60	0x3c6a7a81	0.014311434
61	0xbc6e4574	-0.014542926
62	0x3cfdc506	0.030977737
63	0x3cad149c	0.021127991
64	0xbcd0ce1c	-0.025488906
65	0x3abdab95	0.0014470691
66	0x3c24fd7f	0.010070204
67	0x3bd3542b	0.0064492426
68	0x3c998e38	0.018744573
69	0x3cb98103	0.022644525
70	0xbc8d4aa7	-0.017247511
71	0x3ba46ef0	0.0050181076
72	0x3c43b12a	0.011944095
73	0xba9a5528	-0.0011774646
74	0x3c425dc4	0.011863176
75	0xbbc51656	-0.0060146255
76	0xbcbe495a	-0.023228336
77	0xbbc8835b	-0.0061191744
78	0xbc848972	-0.01617882
79	0xbc4fe115	-0.012687941
80	0x3a9f8715	0.0012170995
81	0xba2d6b6f	-0.0006615435
82	0x3c83b6fc	0.016078465
83	0xba8d2d12	-0.0010770878
84	0x3b1f711f	0.00243289
85	0xbbdd2d38	-0.0067497753
86	0xbc42ea07	-0.011896617
87	0xbc427f9d	-0.011871246
88	0x3cb31e61	0.021865072
89	0x3c1aefed	0.009456617
90	0x3cd7d2f5	0.02634571
91	0x3c202a11	0.009775654
92	0x3d0bc200	0.03412056
93	0x3bd629ff	0.006535768
94	0x3c6ee676	0.014581313
95	0x3ce9a3c1	0.028520467
96	0x3c401d3d	0.011725721
97	0x3d2514c2	0.040303
98	0x3b5003e0	0.003174059
99	0x3cc9b96d	0.02462455
100	0x3840499e	4.584493e-05
101	0x3c2805f1	0.010255323
102	0x3cc23737	0.02370797
103	0x3d076b68	0.033061415
104	0x3d02032c	0.031741306
105	0x3c7910e8	0.015201785
106	0xbc0a7fce	-0.008453323
107	0x3bc461c8	0.0059931017
108	0x3cbbc43d	0.022920722
109	0x3b899151	0.0041982313
110	0x3c25f2f9	0.01012873
111	0x3c73654e	0.014855696
112	0x3c2866bc	0.0102784
113	0x3c25470a	0.010087738
114	0x3b12835c	0.0022356128
115	0xbb0192c5	-0.001977132
116	0x3c897dfe	0.01678371
117	0xbc62a382	-0.013832929
118	0x3bd10494	0.0063787196
119	0x3cff0191	0.031128677
120	0x3d54636b	0.051852625
121	0x3d07d8f0	0.033165872
122	0x3ac2bc1f	0.001485709
123	0x3d02ff2b	0.03198163
124	0xbbd6d848	-0.0065565445
125	0x3b760e3c	0.0037545105
126	0xbb0d464d	-0.0021556795
127	0x3cc7579b	0.024333766

network_body._body_endoder.seq_layers.2.weight f4 [128, 128]
0	0x3d0981f8	0.033571213
1	0x3d602602	0.054723747
2	0x3e409ccb	0.18809812
3	0x3cf0cef4	0.029395558
4	0x3d8138bd	0.0630965
5	0x3df57c7b	0.119866334
6	0x3d663afd	0.0562086
7	0x3cb612eb	0.022225818
8	0x3da5a4ec	0.08088097
9	0x3da5fe33	0.08105125
10	0x3d900954	0.07033029
11	0xbde047ab	-0.109511696
12	0xbe0ded3c	-0.13860029
13	0xbc810786	-0.015750658
14	0xbe10d179	-0.14142407
15	0x3ddfe935	0.109331526
16	0xbd7ffb2e	-0.062495403
17	0xbc086359	-0.008324468
18	0xbc4be3d6	-0.012444457
19	0xbc885820	-0.016643584
20	0x3c19a598	0.0093778595
21	0xbcaa13c8	-0.020761386
22	0xbd886d2e	-0.066614494
23	0xbaa0b5b6	-0.0012261185
24	0x3d3b73b5	0.045764644
25	0xbdd8ab70	-0.10579574
26	0x3b57b6fc	0.0032915464
27	0x3d98e1ed	0.07464967
28	0xbcbef1af	-0.023308603
29	0xbc236535	-0.00997286
30	0xbe3a02f3	-0.18165188
31	0xbe0321cf	-0.12805866
32	0xbe1c79c2	-0.15280822
33	0xbde7eb89	-0.11324222
34	0xbd68ee2f	-0.056867775
35	0xbd72bc7e	-0.05926179
36	0x3dab7b3d	0.08373115
37	0xbe19d16f	-0.15021299
38	0x3d0b7ca9	0.034054432
39	0xbd967be6	-0.073478505
40	0xbc85ee5e	-0.016349014
41	0x3d5d4037	0.05401632
42	0x3c19c930	0.009386346
43	0xbd1f8032	-0.038940616
44	0x3dd96e7b	0.106167756
45	0xbcbbacd6	-0.022909563
46	0x3cddc560	0.027071655
47	0x3d005190	0.031327784
48	0xbdb83846	-0.08995108
49	0xbdb0d01a	-0.08633442
50	0xbc41efd6	-0.0118369665
51	0x3d492d72	0.049115606
52	0x3c95e1e6	0.018296193
53	0xbd14684b	-0.036232274
54	0xbb156c7b	-0.0022800255
55	0x3ceb49d5	0.02872173
56	0xbdf9c309	-0.12195403
57	0x3cd8bc39	0.026456939
58	0x3d88d3f6	0.06681053
59	0x3be428f8	0.0069628917
60	0x3e860c1a	0.26181108
61	0xbe14eea4	-0.14544159
62	0x3d4807c0	0.048835516
63	0x3d81bee6	0.06335239
64	0xbe2f0db0	-0.17095065
65	0xbc309a28	-0.010778941
66	0x3d989733	0.07450714
67	0xbdf47898	-0.11937064
68	0x3dbb5239	0.09146542
69	0xbdcaeb4c	-0.099081606
70	0x3c1757e7	0.009237266
71	0xbd9fd8a0	-0.0780499
72	0x3dd14e4d	0.10220013
73	0xbba9a56e	-0.0051771915
74	0xbe553819	-0.20822181
75	0xbd877eba	-0.06615968
76	0xbc77420b	-0.015091429
77	0x3dddb466	0.10825424
78	0xbd2c5eee	-0.04208272
79	0x3d138c03	0.036022197
80	0x3d3a7344	0.045520082
81	0x3d8a846f	0.06763541
82	0xbccb3ab1	-0.02480826
83	0xbcfc378f	-0.030788211
84	0x3da9919c	0.08279726
85	0xbe16489e	-0.14676139
86	0x3cd26f94	0.02568797
87	0xbdfeda17	-0.12443941
88	0xbd12424a	-0.03570775
89	0x3cb9d1e0	0.022683084
90	0x3dd6f6f3	0.104963206
91	0xbcc30b83	-0.0238092
92	0x3d735c6c	0.059414312
93	0x3dba8b50	0.09108603
94	0x3e16f846	0.14743146
95	0x3da0f422	0.07859065
96	0xbe1eceb7	-0.15508543
97	0x3ea36502	0.31913
98	0xbe72d155	-0.23712666
99	0x3e38fd32	0.18065336
100	0xbd2b7b75	-0.041865785
101	0xbd308b3e	-0.04310154
102	0x3df95824	0.121750146
103	0xbc80e0f5	-0.015732268
104	0x3d468923	0.048470628
105	0xbe400126	-0.18750438
106	0xbd8490ac	-0.064729065
107	0x3e469009	0.19390883
108	0x3debdcae	0.11516701
109	0xbd479230	-0.0487234
110	0xbd1d106a	-0.03834573
111	0xbcefec9d	-0.02928763
112	0xbc48a440	-0.0122461915
113	0xbd9ccb25	-0.07655934
114	0x3e08f3b2	0.13374212
115	0xbd7cfee8	-0.061766535
116	0x3d5e6822	0.054298528
117	0xbe0ab650	-0.13546109
118	0x3d2e89d1	0.0426119
119	0x3e31db92	0.17368916
120	0x3e0182fb	0.12647621
121	0x3d521b9a	0.051295854
122	0xbc6acc87	-0.01433099
123	0x3e0855ae	0.13313934
124	0xbd932d24	-0.07186344
125	0x3ccbab2e	0.024861898
126	0xbcc94cc9	-0.024572747
127	0xbdfdc8fb	-0.123918496
128	0x3e8cb575	0.2748219
129	0xbe80739c	-0.25088203
130	0x3e345daa	0.17613855
131	0xbca23fba	-0.019805778
132	0xbca10d4d	-0.019659663
133	0x3dddb33e	0.10825203
134	0xbdb31c10	-0.08745587
135	0x3ae20e3f	0.0017246677
136	0xbdb415b2	-0.087932006
137	0x3e607693	0.21920232
138	0x3e20e1a9	0.15711083
139	0xbd232536	-0.03983041
140	0xbd1addc4	-0.03780915
141	0xbd831376	-0.06400196
142	0x3db25031	0.087067015
143	0xbd96a2e9	-0.073552914
144	0xbc87fa03	-0.016598707
145	0x3e00085b	0.12503187
146	0x3db3c65e	0.0877807
147	0xbcf81825	-0.03028495
148	0xbdfc5912	-0.12321676
149	0x39ac0dfb	0.00032816813
150	0xbdac2385	-0.08405212
151	0x3e199c31	0.15000989
152	0xbc40d3b6	-0.011769226
153	0x3de512d3	0.11185231
154	0xbd9110c6	-0.070832774
155	0xbe6253a2	-0.22102216
156	0x3dab6b49	0.083700724
157	0xbde1d499	-0.11026878
158	0xbe556efb	-0.20843117
159	0xbe0c4dc2	-0.13701537
160	0xbe3061c5	-0.17224796
161	0xbe2737ad	-0.16329832
162	0x3bd48f20	0.0064867884
163	0x3dd1e23d	0.1024823
164	0x3d5f7644	0.054556146
165	0x3d90afe2	0.07064797
166	0x3ddc9eae	0.10772453
167	0x3da935e7	0.08262234
168	0x3e09e002	0.13464358
169	0x3e3582f3	0.17725734
170	0xbc53fa6a	-0.012938121
171	0x3cefcbdf	0.029272018
172	0xbdccc1ce	-0.09997903
173	0x3d372817	0.044715967
174	0x3d8e267e	0.069409356
175	0xbe1772b6	-0.14789852
176	0xbdb12f0b	-0.08651551
177	0xbd74a47d	-0.05972718
178	0xbd82bc6a	-0.063835934
179	0xbd8621e5	-0.065494336
180	0xba49d204	-0.0007698836
181	0x3d995a82	0.07487966
182	0x3d5bb15e	0.053635947
183	0x3cab4234	0.020905592
184	0xbc46ded8	-0.012138091
185	0xbd779708	-0.06044677
186	0xbc8486c0	-0.016177535
187	0xbe10af3c	-0.14129347
188	0x3cf4042d	0.029787147
189	0x3b8605f4	0.004090065
190	0x3e2d6cc7	0.16936027
191	0xbc59f8fb	-0.0133039905
192	0xbd84d0c9	-0.06485135
193	0xbcc42b5b	-0.023946455
194	0x3c5e6073	0.0135728
195	0xbdbe8c20	-0.093040705
196	0xbe316085	-0.17321976
197	0xbd9d8472	-0.076912776
198	0x3d91dd94	0.07122341
199	0x3ddf6eb5	0.109097876
200	0x3db75f36	0.08953707
201	0xbd28fd58	-0.041257232
202	0xbba179ca	-0.0049278485
203	0x3ddff20c	0.10934839
204	0x3d5a4e45	0.0532973
205	0x3dfa5ba7	0.122245125
206	0xbcff9a1f	-0.03120142
207	0xbd5e1ffb	-0.054229718
208	0xbe1b0e63	-0.15142207
209	0x3aaa3c87	0.0012988009
210	0x3d922d33	0.07137527
211	0xbe705091	-0.23468234
212	0xbc001515	-0.007817526
213	0xbc4da303	-0.012551072
214	0xbe490be9	-0.1963345
215	0x3d96ed8a	0.07369526
216	0xbd75cbf1	-0.060008947
217	0x3d7cd077	0.061722245
218	0x3dabaea1	0.08382917
219	0x3e0e7634	0.13912278
220	0x3dcfaf6a	0.101408795
221	0x3e5265a4	0.20546585
222	0x3bb3413a	0.005470422
223	0x3d4d6c46	0.050152086
224	0xb9c3bb97	-0.00037333064
225	0x3df826fe	0.12116812
226	0xbd9b5f57	-0.07586544
227	0xbe1fbf73	-0.15600376
228	0x3d3e4644	0.04645373
229	0xbd370f76	-0.04469248
230	0x3ce55ff1	0.02799985
231	0xbd9d1018	-0.07669085
232	0xbd38efd3	-0.04515059
233	0xbe176ea9	-0.14788307
234	0xbc4c3fae	-0.012466354
235	0x3caad8b2	0.020855282
236	0xbdc9f986	-0.09862046
237	0xbb37d1e4	-0.0028048689
238	0x3e9fc498	0.31204677
239	0xbd329dd5	-0.04360755
240	0x3dfac073	0.12243738
241	0xbc3ab3dd	-0.011395422
242	0x3e40fd15	0.18846543
243	0xbc574a8f	-0.013140335
244	0x3d4e0ec9	0.05030707
245	0xbddbb676	-0.10728161
246	0xbe1c5fa3	-0.15270858
247	0x3d6997d0	0.057029545
248	0xbce3911e	-0.027779158
249	0x3d86e9c6	0.065875575
250	0x3c1c644b	0.009545396
251	0xbd4837ef	-0.048881467
252	0xbe36074d	-0.17776223
253	0xbb9314b3	-0.0044885515
254	0x3d16130f	0.03663927
255	0xbe17c9f1	-0.14823128

network_body._body_endoder.seq_layers.2.bias f4 [128]
0	0x3c6ed228	0.014576472
1	0x3cb23453	0.021753466
2	0xbbcd4828	-0.006264705
3	0x3b941f74	0.004520351
4	0x3c86102d	0.016365135
5	0xbba8abe1	-0.0051474427
6	0x3b9f8e4e	0.004869259
7	0x3b8038c0	0.003913015
8	0x3a993b2b	0.0011690607
9	0xba0b65c8	-0.0005317596
10	0x3cdf19b0	0.027233928
11	0x3c5ee1e9	0.013603666
12	0x3b407acf	0.0029370075
13	0xbb70f802	-0.0036768918
14	0x3c7c22a0	0.015389115
15	0x3c8dac35	0.017294029
16	0x3b5c4d0c	0.003361526
17	0xb96ea0c6	-0.00022757342
18	0x3ccb3bef	0.024808852
19	0x3cb1be0d	0.021697069
20	0xbbbd9167	-0.0057851556
21	0x3cb1dabb	0.021710744
22	0x3c8f808b	0.017517349
23	0x3bd5c0c8	0.0065232255
24	0x3ce37be3	0.027769035
25	0xba678370	-0.00088315364
26	0x3c47ab92	0.012186902
27	0x3c057c58	0.008147322
28	0x3cd24d19	0.025671529
29	0x3ccbf012	0.024894748
30	0x3cbaf177	0.022820218
31	0x3ab55c9b	0.0013836803
32	0x3cb065cf	0.021532921
33	0xbb69f2a3	-0.0035697601
34	0xbcc0545e	-0.02347773
35	0xb9b038fc	-0.00033611793
36	0x3c986c43	0.01860631
37	0x3cae4fb2	0.021278236
38	0xbb121d89	-0.0022295436
39	0x3d22b9be	0.03972792
40	0x3a782d3c	0.00094671897
41	0xbc022e3b	-0.0079455925
42	0x3bd6516c	0.006540468
43	0xbb39227a	-0.002824931
44	0x3bacd373	0.00527423
45	0x3bc3b9d9	0.0059730825
46	0x3b9c6a5e	0.004773422
47	0x3c64d926	0.013967788
48	0x3cdd43bd	0.02700984
49	0x3b789a71	0.003793385
50	0x3b8717f8	0.0041227303
51	0x3bf8882f	0.0075845937
52	0xbbb17e97	-0.005416702
53	0xba9e5135	-0.0012078645
54	0xbb19471a	-0.0023388327
55	0x3cce09f9	0.02515124
56	0x3b94434c	0.004524624
57	0x3bd4934f	0.006487287
58	0x3c61b73c	0.013776597
59	0xbb8a7e21	-0.0042264615
60	0xba734612	-0.00092801556
61	0x3b69519a	0.0035601617
62	0xb7fcf4e2	-3.0154773e-05
63	0x3c1668f0	0.0091802925
64	0x3c7d448c	0.015458237
65	0x3bde4b76	0.006783898
66	0xbb3b2780	-0.002855748
67	0x3bd6b8d2	0.006552794
68	0x3c18ffbf	0.009338318
69	0x3c207158	0.009792648
70	0x3c114be6	0.008868193
71	0x3bdf4343	0.006813438
72	0x3c5981e8	0.013275601
73	0x3cb52ad9	0.022115158
74	0x3c97b2c6	0.018517863
75	0x3aac3cd6	0.0013140689
76	0xbb358d1a	-0.0027702511
77	0x3c51a24b	0.012795041
78	0x3c1d67aa	0.009607235
79	0x3cbd7cea	0.023130853
80	0x3cf871f6	0.030327778
81	0x3b982439	0.00464299
82	0x3be975e8	0.007124651
83	0xbb0e48fe	-0.0021710987
84	0x3bac58a6	0.005259591
85	0x3c639bcd	0.013892126
86	0xbb823f23	-0.0039748116
87	0x3c7fe8ce	0.01561947
88	0xbbe46e5c	-0.0069711637
89	0x3c5c67f9	0.013452523
90	0x3b489cb2	0.0030610976
91	0x3c9d225d	0.019181425
92	0x3bef5e8c	0.007304972
93	0xbab22481	-0.0013591201
94	0xbc0f7a3d	-0.008757171
95	0x3c0d901e	0.008640317
96	0x3c7dcbed	0.015490514
97	0xbba9395d	-0.005164309
98	0x3bc4ccbe	0.0060058525
99	0xb983a391	-0.00025108134
100	0x3c9ab687	0.018885864
101	0x3bed2d78	0.0072380863
102	0x3a961fad	0.0011453532
103	0x3b693da2	0.0035589715
104	0x3aec5c29	0.0018032837
105	0xba04a430	-0.0005059866
106	0xbab784ca	-0.0014001366
107	0x3cb8e63a	0.022570718
108	0xba876300	-0.0010329187
109	0x3a949f9a	0.0011339069
110	0x3c827799	0.01592617
111	0xba7c8023	-0.0009632131
112	0x3b6be0df	0.0035992188
113	0x3bc73f57	0.0060805487
114	0x3bc8540c	0.006113535
115	0x3c7b4a8e	0.015337599
116	0xbb0730df	-0.0020628495
117	0x3cfdc02f	0.03097543
118	0x3c88eaec	0.016713582
119	0x3cfe9f4f	0.031081824
120	0x3bb90d64	0.0056473482
121	0xb9e8b692	-0.00044386514
122	0x3ceb0484	0.028688677
123	0xbc1027bd	-0.008798537
124	0x3cc8a4b6	0.024492603
125	0x3bbd1217	0.0057699787
126	0x3c633d44	0.013869587
127	0x3bb8a014	0.005634317

action_model._continuous_distribution.log_sigma f4 [1, 2]
0	0xbba98cac	-0.00517424
1	0xbcff25c5	-0.03114594

action_model._continuous_distribution.mu.weight f4 [2, 128]
0	0xba2ef406	-0.00066739356
1	0x3d9de7e0	0.07710242
2	0xbceddcb3	-0.029035902
3	0x3d4db3f8	0.05022046
4	0xbcb8de88	-0.022567049
5	0xbbc76901	-0.0060855155
6	0x3ce825b8	0.028338298
7	0xbd12353a	-0.035695292
8	0x3d1e3216	0.038621984
9	0xbd96e1c6	-0.073672816
10	0x3d06027b	0.03271721
11	0x3d201159	0.039079044
12	0x3c74644e	0.014916493
13	0xbcd8a1d5	-0.026444355
14	0xbca8e80b	-0.02061846
15	0xbd243dae	-0.040097885
16	0xbd3df842	-0.046379335
17	0x3c0cc42d	0.008591694
18	0x3c6ddd65	0.014518117
19	0xbd1b17e1	-0.03786457
20	0x3ca207be	0.019779082
21	0x3d6a0534	0.05713387
22	0x3d60d0ab	0.0548865
23	0xbce3bae9	-0.027799087
24	0x3d2b6d8e	0.041852526
25	0xbc57029c	-0.013123181
26	0xbd872ca0	-0.066003084
27	0x3cf6c37a	0.030122507
28	0x3cd95b12	0.026532684
29	0x3a66f183	0.0008809792
30	0x3c09752b	0.008389751
31	0x3b95e5c9	0.0045745117
32	0x3cbdfe98	0.023192689
33	0xbc14fd3b	-0.009093578
34	0xbaab1806	-0.0013053424
35	0xbc578d67	-0.013156272
36	0x3d7a51e3	0.06111325
37	0xbd37a7cd	-0.04483776
38	0xbd645724	-0.055747166
39	0x3ba13ef7	0.004920836
40	0x3c905782	0.017619852
41	0xbc86572c	-0.016398989
42	0xbcca1145	-0.024666438
43	0x3cbe81e5	0.023255298
44	0x3d320d37	0.043469634
45	0xbd5fcc44	-0.054638162
46	0x3d17c66a	0.037054457
47	0x3c29c81d	0.010362652
48	0x3c5e7a8d	0.013579023
49	0xbd7edc2d	-0.062221695
50	0x3c7fd48e	0.015614642
51	0xbda3d351	-0.0799929
52	0x3cd58c86	0.026067983
53	0xbd009c1a	-0.03139887
54	0x3c0130e2	0.00788519
55	0xbc1dc46d	-0.009629351
56	0xbcec5f31	-0.028853985
57	0x3d3f1ed0	0.046660244
58	0xbd3aa7fc	-0.04557036
59	0xbd213778	-0.03935954
60	0xbcc6d4e9	-0.024271445
61	0x3c4f6600	0.012658596
62	0x3ce03ebc	0.027373664
63	0xbcd66c3a	-0.026174653
64	0xbca7edc3	-0.020499116
65	0x3ce02012	0.027359042
66	0xbc72d3ab	-0.014820973
67	0xbcbdeb4e	-0.023183491
68	0x3d6ba832	0.05753345
69	0x3d0f545c	0.03499256
70	0x3cddf3e8	0.027093843
71	0x3d4db5a5	0.050222058
72	0xbce24f19	-0.027625607
73	0xbcc02d0b	-0.023458978
74	0xbd11cc33	-0.03559513
75	0x3c0d4f06	0.008624798
76	0x3c887e62	0.016661827
77	0x3da370bc	0.07980487
78	0x3ccdc54f	0.025118498
79	0x3c8c0adf	0.017095027
80	0xbb86d835	-0.0041151294
81	0xbd4d9370	-0.050189435
82	0x3d1c8686	0.03821423
83	0x3cad5fbd	0.021163816
84	0xbd2bded5	-0.041960556
85	0x3d566399	0.052341077
86	0xbd40a0b8	-0.047028273
87	0x3b97a0c8	0.004627321
88	0xbd2a7fe4	-0.041625872
89	0xbd0c4d09	-0.034253154
90	0xbc9a9a6c	-0.018872462
91	0x3c811048	0.015754834
92	0x3d4e701f	0.050399896
93	0x3c59bdff	0.0132899275
94	0xbc7c2f09	-0.015392073
95	0xbd2d8f84	-0.042373195
96	0xbbf26d14	-0.007398257
97	0xbd1df560	-0.038564086
98	0xbd30efbb	-0.043197375
99	0xbcfd7616	-0.030940097
100	0x3c0db142	0.008648219
101	0xbcb1e53c	-0.021715753
102	0x3cc6c58e	0.024264123
103	0x3d2fe6bc	0.042944655
104	0xbd772728	-0.060340077
105	0xbcd10d5c	-0.025519066
106	0x3c9c62a4	0.019090004
107	0xbd276ced	-0.040875364
108	0xbce7800e	-0.028259303
109	0xbbdd2cb5	-0.0067497143
110	0xbd949b68	-0.07256204
111	0xbc1e6caa	-0.009669462
112	0x3b432c85	0.0029781174
113	0xbd667acb	-0.05626945
114	0xbd64b19b	-0.05583344
115	0x3d72b8db	0.059258323
116	0xbcc7369b	-0.02431803
117	0xba6747b8	-0.00088226376
118	0xbda91dfc	-0.08257672
119	0x3d9a5c62	0.07537152
120	0xbce8648b	-0.028368255
121	0xbd19ce12	-0.03755004
122	0xbd767993	-0.060174536
123	0xbc913a68	-0.017728046
124	0xbd00c521	-0.031437997
125	0xbca87e25	-0.020567963
126	0x3d54443a	0.05182288
127	0x3d40f36e	0.047107153
128	0x3d74d3de	0.059772365
129	0x3b6b5064	0.003590607
130	0xbc9eeaa5	-0.019398997
131	0xbce065ca	-0.027392287
132	0x3ccf7025	0.02532203
133	0xbd50fd1a	-0.051022626
134	0xbb9082ef	-0.0044101398
135	0xbd1db350	-0.038501084
136	0xbd397559	-0.045277927
137	0xbc246ea0	-0.010036141
138	0x3c849e09	0.016188638
139	0x3b55c233	0.0032616972
140	0x3bb1b1b8	0.005422797
141	0xbd88fbbd	-0.0668864
142	0x3ca6650d	0.020311857
143	0x3d67ff09	0.056639705
144	0x3c81458c	0.015780233
145	0xbd3b22b3	-0.04568739
146	0x3d6fe7c6	0.058570646
147	0x3cfd6cbf	0.030935643
148	0xbcecc7cd	-0.028903866
149	0x3d06399c	0.032769784
150	0x3d815961	0.06315876
151	0xbcd54877	-0.02603553
152	0x3d845823	0.06462123
153	0x3aeb4dc2	0.0017952251
154	0xbb65b999	-0.0035053252
155	0xbd6240ec	-0.055237696
156	0x3d04b14e	0.032395653
157	0x3d45193f	0.04811978
158	0x3d6ea80e	0.05826574
159	0x3c34467b	0.011003132
160	0x3d241ce4	0.040066615
161	0xbcbe9e61	-0.02326888
162	0xbca4498c	-0.020054601
163	0xbd48a8cb	-0.0489891
164	0x3cec3bc8	0.0288371
165	0x3c713e59	0.0147243375
166	0xbce90f64	-0.028449722
167	0x3db710c0	0.08938742
168	0xbd01de11	-0.03170592
169	0xbc50a746	-0.012735194
170	0x3ce4bcb0	0.027922004
171	0xbd11bb20	-0.035578847
172	0xbc31d5db	-0.01085421
173	0xbae0af9d	-0.0017142181
174	0xbc8adda5	-0.016951391
175	0x3cd4ce0b	0.025977155
176	0x3db0695e	0.08613847
177	0xbbcbacba	-0.006215659
178	0xbd323eb7	-0.04351684
179	0xbc1960a3	-0.009361419
180	0xbcc5af6b	-0.024131497
181	0xbd1f8274	-0.03894277
182	0xbd7b9e17	-0.061430063
183	0x3d9ed065	0.07754592
184	0x3c2ae427	0.010430372
185	0xbbdd42eb	-0.006752362
186	0x3d5a4595	0.053289015
187	0xba0fcfd4	-0.0005485986
188	0xba530f74	-0.0008051314
189	0x3ba952b1	0.0051673283
190	0xbcc67f54	-0.024230637
191	0x3d07e454	0.033176735
192	0x3d79ccc5	0.0609863
193	0x3c6222b2	0.013802217
194	0xbcfcb58b	-0.030848285
195	0xbd16d93b	-0.03682826
196	0xbcc5fe21	-0.02416903
197	0x3d527652	0.05138237
198	0x3cae987d	0.021312946
199	0xbc705d9a	-0.014670754
200	0x3cf1f23b	0.02953445
201	0x3d1fe95e	0.039040916
202	0x3d7403e6	0.05957403
203	0xbd39b193	-0.045335364
204	0xbdbae50b	-0.09125718
205	0x3bdfb61f	0.0068271304
206	0x3c50119f	0.012699514
207	0x3d7ced21	0.06174958
208	0x3d38e28f	0.045137938
209	0x3ada12e1	0.0016637706
210	0x3a464a23	0.0007564148
211	0xbd0d6bf3	-0.034526777
212	0xbc66f7ff	-0.014097213
213	0xbc12562b	-0.008931677
214	0xbd8bd3ed	-0.06827531
215	0x3c204563	0.009782168
216	0xbd2a34e5	-0.04155435
217	0x3cb045cf	0.021517662
218	0x3b836cc0	0.0040107667
219	0x3d388270	0.04504627
220	0xbd5b13f4	-0.053485826
221	0xbd13b30b	-0.03605942
222	0xbd6bcd05	-0.05756857
223	0x3ca5a23f	0.020218967
224	0x3d01b2cb	0.03166465
225	0xbd574ae8	-0.05256167
226	0xbd2bc701	-0.04193783
227	0xbc45f937	-0.012083343
228	0x3d330997	0.043710317
229	0x3ccde297	0.02513246
230	0xbd386146	-0.045014642
231	0xbd38dba3	-0.045131337
232	0xbd3f7b8a	-0.046748675
233	0xbcdfef6b	-0.027335843
234	0xbc024d3d	-0.007952985
235	0x3d057912	0.032586165
236	0xbca6e216	-0.020371478
237	0x3c61df0e	0.013786091
238	0x3d227054	0.039657906
239	0xbd399a17	-0.045312967
240	0x3be5c0f1	0.007011526
241	0xbc8ee862	-0.017444793
242	0xbd149b14	-0.036280707
243	0x3c9f7aa7	0.019467665
244	0xbd0ddea4	-0.034636155
245	0x3d33915f	0.04383981
246	0x3d50871d	0.050910104
247	0x3d3ee7f7	0.046607938
248	0x3ce21c76	0.027601462
249	0xbbc1bc93	-0.0059123724
250	0x3cf26137	0.029587371
251	0xbc2f81fa	-0.010712141
252	0x3d9f2fcd	0.07772789
253	0xbcf3ef34	-0.029777147
254	0x3cf938bd	0.030422563
255	0xbcf50a3a	-0.029912103

action_model._continuous_distribution.mu.bias f4 [2]
0	0x3b64eb71	0.0034930373
1	0x3c330f1e	0.010928897

exp_avg f4 [128, 35]
0	0x00000000	0.0
1	0x00000000	0.0
2	0xb8b59ac9	-8.6595835e-05
3	0xb89bcbfa	-7.4289695e-05
4	0x00000000	0.0
5	0x00000000	0.0
6	0x390ac959	0.00013235713
7	0x38e86f06	0.00011083302
8	0x00000000	0.0
9	0x00000000	0.0
10	0xb884dde2	-6.3355794e-05
11	0xb84a8d01	-4.8291873e-05
12	0x00000000	0.0
13	0x00000000	0.0
14	0x3986223e	0.00025583984
15	0x394f9d32	0.00019799618
16	0x00000000	0.0
17	0x00000000	0.0
18	0x388cce92	6.714197e-05
19	0x389e8dad	7.560416e-05
20	0x00000000	0.0
21	0x00000000	0.0
22	0x39082fc3	0.00012987763
23	0x3910bab5	0.00013802464
24	0x00000000	0.0
25	0x00000000	0.0
26	0x392e1362	0.00016601154
27	0x39209219	0.00015313215
28	0x00000000	0.0
29	0x00000000	0.0
30	0x38f1199e	0.00011496547
31	0x38f0e96f	0.00011487572
32	0x38012e0e	3.079889e-05
33	0x387d3c24	6.037591e-05
34	0x385b47ab	5.2280415e-05
35	0x00000000	0.0
36	0x00000000	0.0
37	0x37bdffa9	2.2649607e-05
38	0x37a3a6e7	1.9508834e-05
39	0x00000000	0.0
40	0x00000000	0.0
41	0x3595aa24	1.1150883e-06
42	0x36f8ab66	7.4109294e-06
43	0x00000000	0.0
44	0x00000000	0.0
45	0x3823e914	3.90793e-05
46	0x382b2011	4.079944e-05
47	0x00000000	0.0
48	0x00000000	0.0
49	0xb92ccdbf	-0.00016479845
50	0xb8585f47	-5.1587147e-05
51	0x00000000	0.0
52	0x00000000	0.0
53	0xb8902b99	-6.874576e-05
54	0xb837ae32	-4.3792832e-05
55	0x00000000	0.0
56	0x00000000	0.0
57	0xb87d5aa7	-6.0404327e-05
58	0xb8b9a350	-8.851907e-05
59	0x00000000	0.0
60	0x00000000	0.0
61	0xb8a4fec2	-7.867582e-05
62	0xb8b1d602	-8.47988e-05
63	0x00000000	0.0
64	0x00000000	0.0
65	0xb872dbe9	-5.7902103e-05
66	0xb8959018	-7.131713e-05
67	0x38e062ec	0.00010699578
68	0xb79caf8e	-1.8678398e-05
69	0xb85d412f	-5.2751213e-05
70	0x00000000	0.0
71	0x00000000	0.0
72	0x3887aa6e	6.469047e-05
73	0x386a6c18	5.5890618e-05
74	0x00000000	0.0
75	0x00000000	0.0
76	0x3796b924	1.7967606e-05
77	0x371b168b	9.243969e-06
78	0x00000000	0.0
79	0x00000000	0.0
80	0x37852732	1.5873087e-05
81	0x38267703	3.9688322e-05
82	0x00000000	0.0
83	0x00000000	0.0
84	0xb965185a	-0.00021848214
85	0xb8b0659d	-8.411261e-05
86	0x00000000	0.0
87	0x00000000	0.0
88	0xb91288fb	-0.00013974674
89	0xb8ce66fa	-9.842026e-05
90	0x00000000	0.0
91	0x00000000	0.0
92	0xb89552b9	-7.120282e-05
93	0xb8cd8188	-9.799289e-05
94	0x00000000	0.0
95	0x00000000	0.0
96	0xb8197560	-3.6587357e-05
97	0xb84186d3	-4.614035e-05
98	0x00000000	0.0
99	0x00000000	0.0
100	0xb8d419be	-0.000101137426
101	0xb8aaef39	-8.1507904e-05
102	0x39021daf	0.00012408824
103	0xb81f9730	-3.804936e-05
104	0xb816dade	-3.5966623e-05
105	0x00000000	0.0
106	0x00000000	0.0
107	0xb8adc902	-8.2867235e-05
108	0xb89fb28d	-7.6149685e-05
109	0x00000000	0.0
110	0x00000000	0.0
111	0x37659e87	1.3686374e-05
112	0x36d5eb25	6.375269e-06
113	0x00000000	0.0
114	0x00000000	0.0
115	0xb7af40da	-2.0891825e-05
116	0xb841ffd9	-4.6253062e-05
117	0x00000000	0.0
118	0x00000000	0.0
119	0x38dfb2ec	0.000106667954
120	0x3800dcfe	3.0723393e-05
121	0x00000000	0.0
122	0x00000000	0.0
123	0x3818b0fd	3.6404457e-05
124	0x37021a99	7.754797e-06
125	0x00000000	0.0
126	0x00000000	0.0
127	0x37c4c586	2.3457e-05
128	0x383ac0ed	4.4525532e-05
129	0x00000000	0.0
130	0x00000000	0.0
131	0x373cfa49	1.1263947e-05
132	0x377d48c2	1.5096915e-05
133	0x00000000	0.0
134	0x00000000	0.0
135	0x3811ab87	3.473044e-05
136	0x3788a392	1.6288632e-05
137	0xb8b7fc5d	-8.773126e-05
138	0x37b99052	2.2120923e-05
139	0x37909dcd	1.723962e-05
140	0x00000000	0.0
141	0x00000000	0.0
142	0xb8d0de80	-9.959657e-05
143	0xb8c77c82	-9.512251e-05
144	0x00000000	0.0
145	0x00000000	0.0
146	0xb989c0e2	-0.00026274385
147	0xb97c0b06	-0.000240367
148	0x00000000	0.0
149	0x00000000	0.0
150	0x38cb2eac	9.6884876e-05
151	0x36d4ac8a	6.3381785e-06
152	0x00000000	0.0
153	0x00000000	0.0
154	0xb9a4b4f3	-0.00031415335
155	0xb97979fc	-0.00023791933
156	0x00000000	0.0
157	0x00000000	0.0
158	0xb97a7611	-0.00023885841
159	0xb975ccdf	-0.00023441341
160	0x00000000	0.0
161	0x00000000	0.0
162	0xb8f276ac	-0.000115615636
163	0xb933f5c4	-0.00017162325
164	0x00000000	0.0
165	0x00000000	0.0
166	0xb94a0833	-0.00019267276
167	0xb966dcd3	-0.00022016773
168	0x00000000	0.0
169	0x00000000	0.0
170	0xb84cb6d1	-4.880765e-05
171	0xb903d575	-0.00012572652
172	0xb8b44797	-8.5964035e-05
173	0xb899e529	-7.338293e-05
174	0xb90786de	-0.00012924845
175	0x00000000	0.0
176	0x00000000	0.0
177	0xb710f6a1	-8.640492e-06
178	0xb7e457e4	-2.7220645e-05
179	0x00000000	0.0
180	0x00000000	0.0
181	0x390a7155	0.00013202925
182	0x38c8a7f2	9.5680254e-05
183	0x00000000	0.0
184	0x00000000	0.0
185	0xb90a3c7e	-0.0001318324
186	0xb8d21df5	-0.0001001916
187	0x00000000	0.0
188	0x00000000	0.0
189	0x393ec981	0.00018194878
190	0x3902d000	0.00012475252
191	0x00000000	0.0
192	0x00000000	0.0
193	0x37d0290a	2.4814643e-05
194	0x38014ad3	3.0825682e-05
195	0x00000000	0.0
196	0x00000000	0.0
197	0x388a0b31	6.582437e-05
198	0x38a17f9d	7.700848e-05
199	0x00000000	0.0
200	0x00000000	0.0
201	0x38f07c84	0.00011467285
202	0x38e2da68	0.00010817201
203	0x00000000	0.0
204	0x00000000	0.0
205	0x38259815	3.9480703e-05
206	0x38563e16	5.1079398e-05
207	0x380a9291	3.3038265e-05
208	0x382108a9	3.8393457e-05
209	0x3847653e	4.7539586e-05
210	0x00000000	0.0
211	0x00000000	0.0
212	0xb7d06872	-2.4844168e-05
213	0xb6e9df01	-6.969902e-06
214	0x00000000	0.0
215	0x00000000	0.0
216	0x382a7b91	4.064624e-05
217	0x38298b0e	4.0422245e-05
218	0x00000000	0.0
219	0x00000000	0.0
220	0x3850542c	4.9669456e-05
221	0x38381de5	4.389686e-05
222	0x00000000	0.0
223	0x00000000	0.0
224	0x389a5741	7.3595445e-05
225	0x37f41067	2.9094705e-05
226	0x00000000	0.0
227	0x00000000	0.0
228	0x384d0e93	4.8889382e-05
229	0x37fc4f3a	3.0077634e-05
230	0x00000000	0.0
231	0x00000000	0.0
232	0x36b1d56a	5.2998557e-06
233	0x382e4a2d	4.1553914e-05
234	0x00000000	0.0
235	0x00000000	0.0
236	0x37c82e62	2.3863457e-05
237	0x38195624	3.6558267e-05
238	0x00000000	0.0
239	0x00000000	0.0
240	0x375e5668	1.3252349e-05
241	0x37e67813	2.747405e-05
242	0xb8d24db3	-0.00010028053
243	0x37649a44	1.3625777e-05
244	0x38389bc3	4.4014083e-05
245	0x00000000	0.0
246	0x00000000	0.0
247	0xb79c401d	-1.8626504e-05
248	0xb77f8fc9	-1.5232662e-05
249	0x00000000	0.0
250	0x00000000	0.0
251	0xb831b37e	-4.2367254e-05
252	0xb80941a3	-3.2724474e-05
253	0x00000000	0.0
254	0x00000000	0.0
255	0x3797e4f6	1.8107221e-05

exp_avg_sq f4 [128, 35]
0	0x00000000	0.0
1	0x00000000	0.0
2	0x3446361d	1.8459873e-07
3	0x344a451d	1.8837859e-07
4	0x00000000	0.0
5	0x00000000	0.0
6	0x34484848	1.8652747e-07
7	0x3462f0c9	2.1135487e-07
8	0x00000000	0.0
9	0x00000000	0.0
10	0x3427a942	1.5614663e-07
11	0x343ea061	1.7753474e-07
12	0x00000000	0.0
13	0x00000000	0.0
14	0x348ef6b1	2.6629053e-07
15	0x3494e050	2.7730357e-07
16	0x00000000	0.0
17	0x00000000	0.0
18	0x34a127d8	3.0017577e-07
19	0x34a05601	2.9864898e-07
20	0x00000000	0.0
21	0x00000000	0.0
22	0x34834a22	2.445459e-07
23	0x34865fba	2.5029095e-07
24	0x00000000	0.0
25	0x00000000	0.0
26	0x347a4531	2.3308236e-07
27	0x3480f9f5	2.4023726e-07
28	0x00000000	0.0
29	0x00000000	0.0
30	0x3486a08b	2.5076255e-07
31	0x3487b0f4	2.527446e-07
32	0x34418d6c	1.8025975e-07
33	0x32a87f47	1.9615653e-08
34	0x341c48b0	1.4555076e-07
35	0x00000000	0.0
36	0x00000000	0.0
37	0x3373354d	5.6626323e-08
38	0x33a6dd64	7.770248e-08
39	0x00000000	0.0
40	0x00000000	0.0
41	0x345774ee	2.0065974e-07
42	0x345cd3eb	2.0566192e-07
43	0x00000000	0.0
44	0x00000000	0.0
45	0x33edd58f	1.10750186e-07
46	0x34091ca9	1.2769546e-07
47	0x00000000	0.0
48	0x00000000	0.0
49	0x3426c85e	1.5532848e-07
50	0x3433483e	1.6696956e-07
51	0x00000000	0.0
52	0x00000000	0.0
53	0x3436a0c8	1.7008563e-07
54	0x343db3ee	1.7667455e-07
55	0x00000000	0.0
56	0x00000000	0.0
57	0x331234c0	3.404125e-08
58	0x3323955f	3.8087247e-08
59	0x00000000	0.0
60	0x00000000	0.0
61	0x33166d61	3.5024076e-08
62	0x3324a03b	3.8329954e-08
63	0x00000000	0.0
64	0x00000000	0.0
65	0x33242425	3.82171e-08
66	0x332d798b	4.0390244e-08
67	0x340334e7	1.2219571e-07
68	0x321a7335	8.990175e-09
69	0x340928b7	1.2773931e-07
70	0x00000000	0.0
71	0x00000000	0.0
72	0x341365c3	1.3727463e-07
73	0x34381e30	1.7147318e-07
74	0x00000000	0.0
75	0x00000000	0.0
76	0x34c09a4e	3.5875058e-07
77	0x34c62fe7	3.6915227e-07
78	0x00000000	0.0
79	0x00000000	0.0
80	0x34878448	2.5241957e-07
81	0x348fa35e	2.675469e-07
82	0x00000000	0.0
83	0x00000000	0.0
84	0x34be9dc5	3.550505e-07
85	0x34c7488a	3.7119418e-07
86	0x00000000	0.0
87	0x00000000	0.0
88	0x34d5dcd4	3.9835015e-07
89	0x34d7c55e	4.0190474e-07
90	0x00000000	0.0
91	0x00000000	0.0
92	0x33e729e7	1.0764398e-07
93	0x33f82548	1.1555181e-07
94	0x00000000	0.0
95	0x00000000	0.0
96	0x33e505f0	1.06647235e-07
97	0x33f271eb	1.1289725e-07
98	0x00000000	0.0
99	0x00000000	0.0
100	0x33f37d23	1.13383315e-07
101	0x34001c01	1.1931117e-07
102	0x3482fca3	2.4398204e-07
103	0x32b0d821	2.058738e-08
104	0x3476cbce	2.2984679e-07
105	0x00000000	0.0
106	0x00000000	0.0
107	0x33ea5cd8	1.0913362e-07
108	0x3400b5f0	1.1987117e-07
109	0x00000000	0.0
110	0x00000000	0.0
111	0x343f9f37	1.7846183e-07
112	0x3447a297	1.8592469e-07
113	0x00000000	0.0
114	0x00000000	0.0
115	0x33f137b5	1.123257e-07
116	0x34076de3	1.2612831e-07
117	0x00000000	0.0
118	0x00000000	0.0
119	0x3434a9d3	1.6825588e-07
120	0x343c6515	1.7545638e-07
121	0x00000000	0.0
122	0x00000000	0.0
123	0x3454e8a6	1.9828676e-07
124	0x345609f2	1.9933921e-07
125	0x00000000	0.0
126	0x00000000	0.0
127	0x33dd6e8b	1.0311222e-07
128	0x33ec7317	1.1010541e-07
129	0x00000000	0.0
130	0x00000000	0.0
131	0x33df5266	1.0399235e-07
132	0x33ebd1a5	1.09811744e-07
133	0x00000000	0.0
134	0x00000000	0.0
135	0x33e3a3f4	1.0600334e-07
136	0x33edf5b5	1.10808664e-07
137	0x33db248d	1.0204631e-07
138	0x32349f39	1.0513582e-08
139	0x33e168bb	1.0496429e-07
140	0x00000000	0.0
141	0x00000000	0.0
142	0x3420227a	1.4913704e-07
143	0x34421662	1.8075801e-07
144	0x00000000	0.0
145	0x00000000	0.0
146	0x3503bc93	4.9075715e-07
147	0x35059928	4.976923e-07
148	0x00000000	0.0
149	0x00000000	0.0
150	0x3446b053	1.8504333e-07
151	0x347286a1	2.2586984e-07
152	0x00000000	0.0
153	0x00000000	0.0
154	0x34d1e176	3.9093328e-07
155	0x34dde5d6	4.1331685e-07
156	0x00000000	0.0
157	0x00000000	0.0
158	0x34df0675	4.1541685e-07
159	0x34e81a9e	4.3232734e-07
160	0x00000000	0.0
161	0x00000000	0.0
162	0x3417170a	1.4071352e-07
163	0x341fab24	1.487029e-07
164	0x00000000	0.0
165	0x00000000	0.0
166	0x341a0194	1.4342942e-07
167	0x3425d92c	1.5445829e-07
168	0x00000000	0.0
169	0x00000000	0.0
170	0x341a3898	1.4362956e-07
171	0x34200168	1.4901673e-07
172	0x34b2e955	3.3324855e-07
173	0x32ec337c	2.7497428e-08
174	0x34c2ccba	3.6284274e-07
175	0x00000000	0.0
176	0x00000000	0.0
177	0x33936c98	6.864974e-08
178	0x33a14f65	7.5115885e-08
179	0x00000000	0.0
180	0x00000000	0.0
181	0x33eb1dfb	1.0948494e-07
182	0x33fcc393	1.1770239e-07
183	0x00000000	0.0
184	0x00000000	0.0
185	0x33b354d3	8.3507665e-08
186	0x33ca64c1	9.424685e-08
187	0x00000000	0.0
188	0x00000000	0.0
189	0x34018ee8	1.206605e-07
190	0x340b1979	1.295465e-07
191	0x00000000	0.0
192	0x00000000	0.0
193	0x342db80c	1.6178836e-07
194	0x342f27a0	1.631256e-07
195	0x00000000	0.0
196	0x00000000	0.0
197	0x3389fc9a	6.4255076e-08
198	0x338db06c	6.597915e-08
199	0x00000000	0.0
200	0x00000000	0.0
201	0x3388dc84	6.373105e-08
202	0x338c30d2	6.5281384e-08
203	0x00000000	0.0
204	0x00000000	0.0
205	0x338d566d	6.581545e-08
206	0x338f75ee	6.680408e-08
207	0x33eff751	1.11742914e-07
208	0x32115efa	8.461706e-09
209	0x33b01cbd	8.200866e-08
210	0x00000000	0.0
211	0x00000000	0.0
212	0x34132548	1.3704005e-07
213	0x341f5247	1.4837961e-07
214	0x00000000	0.0
215	0x00000000	0.0
216	0x34270042	1.5553181e-07
217	0x3433d10d	1.6746726e-07
218	0x00000000	0.0
219	0x00000000	0.0
220	0x34109751	1.3466094e-07
221	0x341f1f0a	1.4819321e-07
222	0x00000000	0.0
223	0x00000000	0.0
224	0x340f8af9	1.3368471e-07
225	0x3418cd4e	1.4230793e-07
226	0x00000000	0.0
227	0x00000000	0.0
228	0x3428ef11	1.5733191e-07
229	0x342bc7d1	1.5998309e-07
230	0x00000000	0.0
231	0x00000000	0.0
232	0x33e95bcc	1.0866606e-07
233	0x33f68800	1.1480006e-07
234	0x00000000	0.0
235	0x00000000	0.0
236	0x33f2a3aa	1.12987735e-07
237	0x33fbd10b	1.1726123e-07
238	0x00000000	0.0
239	0x00000000	0.0
240	0x33f0d963	1.1215413e-07
241	0x33f8ab3f	1.15795494e-07
242	0x33d23175	9.787883e-08
243	0x322e18b3	1.0133749e-08
244	0x340fcd95	1.3392703e-07
245	0x00000000	0.0
246	0x00000000	0.0
247	0x325d6449	1.2886695e-08
248	0x328351d3	1.5287617e-08
249	0x00000000	0.0
250	0x00000000	0.0
251	0x32f407cf	2.840889e-08
252	0x33036574	3.0593085e-08
253	0x00000000	0.0
254	0x00000000	0.0
255	0x3297271c	1.7596498e-08

exp_avg f4 [128]
0	0x38ea5fb8	0.000111758185
1	0x379a713e	1.8410963e-05
2	0xb6c14b3f	-5.760608e-06
3	0xb80c66c6	-3.3474316e-05
4	0xb9648cd5	-0.00021796238
5	0x38317de0	4.231732e-05
6	0x37ab7829	2.0440742e-05
7	0xb7d395be	-2.522289e-05
8	0x38899937	6.5612076e-05
9	0xb8e3f12b	-0.000108691245
10	0x386c7736	5.637781e-05
11	0x359fca43	1.1905289e-06
12	0x36e36831	6.7772567e-06
13	0xb82e45cb	-4.1549833e-05
14	0x35e95666	1.7384998e-06
15	0xb89a44da	-7.356117e-05
16	0xb8fb3371	-0.000119781944
17	0x38225a09	3.870766e-05
18	0x387f18f1	6.0819966e-05
19	0x37a00166	1.9074138e-05
20	0xb93cd537	-0.00018008506
21	0x388d2e0d	6.7319816e-05
22	0x380179bd	3.0869374e-05
23	0x375876ea	1.290229e-05
24	0x38c8ca60	9.5744384e-05
25	0x38bd2775	9.019572e-05
26	0xb840c6c7	-4.5961493e-05
27	0xb8f0404b	-0.00011456067
28	0x37d9795c	2.5924928e-05
29	0x3880424b	6.115864e-05
30	0xb92366bf	-0.00015583167
31	0x3773cb7b	1.4531305e-05
32	0xb731fee7	-1.0609371e-05
33	0xb7d61892	-2.552223e-05
34	0x36292cb1	2.5208976e-06
35	0x38f51613	0.00011686622
36	0xb6e0cd42	-6.6996154e-06
37	0x38fef830	0.00012157892
38	0x38d28e57	0.00010040093
39	0xb751df4d	-1.2509362e-05
40	0xb794f3a7	-1.7756434e-05
41	0xb80a486c	-3.2969212e-05
42	0xb7447e1c	-1.17118725e-05
43	0xb8d4fab0	-0.00010155642
44	0xb91bb745	-0.00014850225
45	0xb859a4e4	-5.1890398e-05
46	0xb79bfa79	-1.8594075e-05
47	0xb86f2a9c	-5.7021723e-05
48	0xb8eb34e6	-0.00011215526
49	0xb855da93	-5.098672e-05
50	0x37d42468	2.5289322e-05
51	0xb5a5977d	-1.2337547e-06
52	0xb62b81d4	-2.5556556e-06
53	0xb7b9dd78	-2.2156848e-05
54	0xb8ac041f	-8.202367e-05
55	0xb8105bcd	-3.441777e-05
56	0xb8dd46b4	-0.00010551271
57	0x36d0a673	6.2182603e-06
58	0xb9761a99	-0.00023470297
59	0x37ef3c7e	2.8519189e-05
60	0xb93016ec	-0.00016793207
61	0xb81a1f16	-3.6745412e-05
62	0x36c01ae0	5.7251746e-06
63	0x36c66e0d	5.9136714e-06
64	0xb7084254	-8.121675e-06
65	0xb72dbf19	-1.0356097e-05
66	0x36215528	2.4040437e-06
67	0xb90270cc	-0.00012439786
68	0xb961e26e	-0.00021542024
69	0xb75076c2	-1.2425417e-05
70	0xb716354d	-8.953107e-06
71	0xb8d29b3f	-0.00010042497
72	0xb88cc914	-6.713174e-05
73	0xb972c6e7	-0.00023153015
74	0x37e38793	2.712364e-05
75	0xb84a95e4	-4.830015e-05
76	0xb7e614e9	-2.7427874e-05
77	0x374401e9	1.1682955e-05
78	0x36a111bc	4.8002385e-06
79	0xb756e1e2	-1.2807986e-05
80	0x380dca0a	3.3805183e-05
81	0x37407597	1.147147e-05
82	0xb7a6d579	-1.9888148e-05
83	0xb8ea2d37	-0.000111664114
84	0xb6d20b15	-6.259778e-06
85	0x372aa3d4	1.0170934e-05
86	0x37a53c42	1.9697593e-05
87	0x384c1c94	4.8664006e-05
88	0xb8a2c070	-7.760606e-05
89	0x38609e4e	5.3553194e-05
90	0xb8aa9614	-8.134186e-05
91	0x3843c32a	4.6673384e-05
92	0xb8814108	-6.163312e-05
93	0x3812d70c	3.500939e-05
94	0x3885aaeb	6.37377e-05
95	0x35eae5c1	1.7501226e-06
96	0x3808b34f	3.259192e-05
97	0xb717d465	-9.049753e-06
98	0x3853e8c1	5.052309e-05
99	0x37c33425	2.3270093e-05
100	0xb7062fbd	-7.998137e-06
101	0x3787b498	1.617735e-05
102	0x37c550bd	2.3521827e-05
103	0xb90b9fe8	-0.00013315643
104	0x39075141	0.00012904873
105	0xb84939fe	-4.7976144e-05
106	0x372f31c9	1.0442404e-05
107	0x38489aba	4.7827816e-05
108	0xb8aafb89	-8.153084e-05
109	0xb860fb1c	-5.3639626e-05
110	0x3887a334	6.4677006e-05
111	0xb8a1c1b7	-7.7131604e-05
112	0x385dfeb8	5.292773e-05
113	0x382a8c3f	4.0661773e-05
114	0x38a57896	7.890274e-05
115	0xb84deb30	-4.9094844e-05
116	0x37bab63a	2.2257784e-05
117	0x36613533	3.3558579e-06
118	0xb91787f6	-0.00014451132
119	0x3743545b	1.1642546e-05
120	0x38089e8b	3.257258e-05
121	0xb6e6807d	-6.869492e-06
122	0xb5943c27	-1.1044366e-06
123	0xb7f2fb9a	-2.896581e-05
124	0xb8b703ee	-8.726852e-05
125	0x383c95ba	4.4962137e-05
126	0xb803261f	-3.1268337e-05
127	0xb88ab9be	-6.61495e-05

exp_avg_sq f4 [128]
0	0x34b7cbf3	3.42348e-07
1	0x34821eef	2.4236894e-07
2	0x34faebcd	4.6737696e-07
3	0x34778353	2.3051443e-07
4	0x3518082a	5.663629e-07
5	0x3440dc6f	1.7961587e-07
6	0x34619dab	2.1012117e-07
7	0x33550f22	4.960669e-08
8	0x35005611	4.780896e-07
9	0x35157ad0	5.568554e-07
10	0x352d8b7d	6.4650504e-07
11	0x310a7dfa	2.0153252e-09
12	0x33dfd2ca	1.0422589e-07
13	0x332a075b	3.95879e-08
14	0x320e333c	8.277137e-09
15	0x3549aaf8	7.512713e-07
16	0x3495fa6f	2.7935627e-07
17	0x33acfef6	8.055751e-08
18	0x349f1d19	2.963723e-07
19	0x33504327	4.848985e-08
20	0x34703f85	2.237485e-07
21	0x346c3331	2.1997836e-07
22	0x32f92613	2.900473e-08
23	0x3337f339	4.2829218e-08
24	0x342eb97e	1.6272494e-07
25	0x34ae4463	3.2459783e-07
26	0x33a18fa2	7.5232734e-08
27	0x3445ef2a	1.8434062e-07
28	0x33a452c9	7.6519036e-08
29	0x33f48ea3	1.1388081e-07
30	0x34b4afb9	3.3655468e-07
31	0x33228dbb	3.7847467e-08
32	0x3236ebee	1.06474385e-08
33	0x33a01cf2	7.455846e-08
34	0x33b53374	8.4378286e-08
35	0x348dce68	2.6413477e-07
36	0x34c7cf83	3.7217623e-07
37	0x359a5f60	1.1501652e-06
38	0x34124831	1.3623573e-07
39	0x32fe12b2	2.9577993e-08
40	0x32b625fb	2.120486e-08
41	0x33ddc142	1.0326268e-07
42	0x317d384e	3.684835e-09
43	0x33e7d582	1.07956126e-07
44	0x34d762e7	4.0118832e-07
45	0x34845f6b	2.4656342e-07
46	0x32a3085f	1.8979504e-08
47	0x34a41e19	3.056928e-07
48	0x34201af2	1.4910964e-07
49	0x33b45813	8.397924e-08
50	0x33091b77	3.1922777e-08
51	0x3223d955	9.537264e-09
52	0x348bd1b3	2.6043344e-07
53	0x33cc4225	9.511522e-08
54	0x340ee22f	1.3307066e-07
55	0x33d2fe73	9.825171e-08
56	0x3415331e	1.3895303e-07
57	0x32e62aec	2.6795043e-08
58	0x34cb4222	3.7859814e-07
59	0x33d228b5	9.7862916e-08
60	0x3516405b	5.5973004e-07
61	0x341401df	1.3784255e-07
62	0x347a491b	2.330966e-07
63	0x349d7802	2.9330846e-07
64	0x3266d313	1.3435755e-08
65	0x344eb455	1.925085e-07
66	0x342be7cf	1.6009948e-07
67	0x33d6fa53	1.0010685e-07
68	0x34a9b352	3.1609176e-07
69	0x35749594	9.111475e-07
70	0x31b7bf7d	5.3477707e-09
71	0x344b65c2	1.8942868e-07
72	0x348511bd	2.4786087e-07
73	0x351e1a45	5.8897814e-07
74	0x35377a60	6.835089e-07
75	0x33e0b88e	1.0464383e-07
76	0x32b06c41	2.0538325e-08
77	0x30741206	8.8792296e-10
78	0x329d6c21	1.8326377e-08
79	0x32a142cc	1.8773243e-08
80	0x329c75bd	1.8214331e-08
81	0x33fcffe1	1.17812085e-07
82	0x32c71348	2.3175417e-08
83	0x34e7058b	4.3031136e-07
84	0x32be7ac0	2.2174731e-08
85	0x333c7dcf	4.3886583e-08
86	0x32980cad	1.7700893e-08
87	0x33ca0d6a	9.408798e-08
88	0x33aef1c7	8.1464854e-08
89	0x34c75dc0	3.713485e-07
90	0x34b3c315	3.348329e-07
91	0x33e5944e	1.069062e-07
92	0x33e140d8	1.0489174e-07
93	0x340bc863	1.3018284e-07
94	0x348c646c	2.61501e-07
95	0x3559904b	8.1048773e-07
96	0x33bbad93	8.739439e-08
97	0x35ae94f0	1.3007357e-06
98	0x34e32456	4.2308483e-07
99	0x34ace9a2	3.2207487e-07
100	0x33bc926c	8.781066e-08
101	0x331b6db7	3.6188535e-08
102	0x337a5434	5.8284243e-08
103	0x3505d137	4.985081e-07
104	0x35acfd98	1.2888804e-06
105	0x32910880	1.6884087e-08
106	0x32c84535	2.3314536e-08
107	0x34dbc9c6	4.0938738e-07
108	0x34cce4a9	3.8164333e-07
109	0x33a43b36	7.6476155e-08
110	0x34f6f79c	4.600123e-07
111	0x3380a5b2	5.990604e-08
112	0x349363cc	2.7453495e-07
113	0x343903b1	1.723081e-07
114	0x34c6ad1a	3.7006322e-07
115	0x34229930	1.5143155e-07
116	0x34688f87	2.1658899e-07
117	0x336dd27e	5.5372304e-08
118	0x348d6079	2.633349e-07
119	0x3563438b	8.466238e-07
120	0x34740b40	2.2728364e-07
121	0x345e182c	2.0684155e-07
122	0x33a04f87	7.4650465e-08
123	0x3509beeb	5.13143e-07
124	0x339ae0d9	7.2120834e-08
125	0x3479c604	2.326197e-07
126	0x325247ed	1.2239963e-08
127	0x335448a1	4.9426152e-08
